CAC/DC/networks/weights/DC/DC_1_myTestCACclassifierAccuracy.pth (torch, 754052 bytes, 19 tensors)

anchors f8 [4, 4]
000000 00 00 00 00 00 00 24 40 00 00 00 00 00 00 00 00
       10.0 0.0
000010 00 00 00 00 00 00 00 00 00 00 00 00 00 00 00 00
       0.0 0.0
000020 00 00 00 00 00 00 00 00 00 00 00 00 00 00 24 40
       0.0 10.0
000030 00 00 00 00 00 00 00 00 00 00 00 00 00 00 00 00
       0.0 0.0
000040 00 00 00 00 00 00 00 00 00 00 00 00 00 00 00 00
       0.0 0.0
000050 00 00 00 00 00 00 24 40 00 00 00 00 00 00 00 00
       10.0 0.0
000060 00 00 00 00 00 00 00 00 00 00 00 00 00 00 00 00
       0.0 0.0
000070 00 00 00 00 00 00 00 00 00 00 00 00 00 00 24 40
       0.0 10.0

encoder.conv1.weight f4 [32, 1, 16]
000000 00 35 23 be 67 dd 69 bc e9 be 5d be 66 01 eb bd
       -0.15938187 -0.014273978 -0.21654858 -0.11474876
000010 40 ce 35 bd c7 3a ca bc 5f e4 ce 3d 1b d4 80 be
       -0.04438615 -0.02468623 0.10102152 -0.25161824
000020 21 53 1a bc 79 08 98 3c 09 53 52 bd b7 2a a0 be
       -0.009419234 0.018558728 -0.05134872 -0.3128259
000030 f8 a7 f1 bd cf 3b 89 be ab 13 f5 bd 00 0c 49 bd
       -0.117996156 -0.26803443 -0.11966642 -0.04908371
000040 cf 11 56 be ab c3 39 be 82 ce bc 3d b6 20 65 bd
       -0.20905231 -0.18141048 0.09219076 -0.0559394
000050 df cd f9 3d 9a b9 c8 bd 47 9a 97 be 76 7c 75 bd
       0.1219747 -0.09801026 -0.29609892 -0.05993315
000060 6b 61 c9 3d 42 0e e6 3d 78 24 ac bd 90 fc bf 3d
       0.09833034 0.11233188 -0.08405393 0.09374344
000070 db f0 78 be 5a 1b 1f be 4f b8 eb bd 44 90 de bd
       -0.24310629 -0.15537778 -0.115097634 -0.1086736
000080 54 7e 5c bd 1b 7b 63 be 3d 07 73 3d 93 33 c0 3d
       -0.053831413 -0.2221493 0.059333075 0.09384837
000090 a7 f0 ed 3d 94 4d 38 be ed 5d 90 be c2 e8 01 be
       0.116181664 -0.17998344 -0.2819666 -0.12686446
0000a0 2b 26 19 be ba ad d3 bd 30 f2 89 be cd 41 23 3c
       -0.14955966 -0.1033587 -0.26942587 0.009964419
0000b0 2a e3 77 bc c8 1d 83 3d ae 57 5b 3d 8a 55 e1 bd
       -0.015129844 0.06402165 0.053550415 -0.110026434
0000c0 9e 96 46 3d 6c 76 a2 3d 9d a5 82 bc b7 06 98 be
       0.048483483 0.079327434 -0.015948111 -0.29692623
0000d0 cb 55 fe bd ac b4 84 bd 9a e6 9f bc 28 da 48 3e
       -0.124187075 -0.06479773 -0.01951914 0.1961447
0000e0 9f 09 38 be 67 47 58 bc 57 f0 78 be 30 f5 33 bc
       -0.1797242 -0.013200617 -0.24310432 -0.01098375
0000f0 56 96 2f bc 21 c2 b3 3c ad 74 36 be a7 8e 9f bd
       -0.010716995 0.021943154 -0.17817946 -0.07790881
000100 95 f4 c8 bc a6 dd c1 be bc 63 82 be 43 ba b0 bc
       -0.024530688 -0.37864417 -0.25466716 -0.021573192
000110 4a 16 70 be e2 a6 d3 bd 82 2c d6 3d 6b 1b 55 bd
       -0.23446003 -0.10334565 0.10457708 -0.0520281
000120 8b 89 80 be be 73 b8 be 34 ce 23 be 35 cf 7b be
       -0.25104937 -0.36025804 -0.15996629 -0.24590762
000130 58 e2 a1 be 91 87 47 bd de d7 76 3d 16 b4 d7 3a
       -0.31618 -0.04871327 0.06026446 0.0016456868
000140 26 7c b9 3d 2c fd bd bd 7b 89 cb 3d fe 03 0c 3c
       0.090568826 -0.09276804 0.09938332 0.008545874
000150 b6 6f 96 bc f6 5e 41 be f0 44 a4 bd 85 72 b4 bd
       -0.018363815 -0.18883881 -0.08020961 -0.08810905
000160 68 41 53 be 23 28 45 3e 0a 11 2e be 28 41 86 be
       -0.20630419 0.19253592 -0.16998687 -0.26221585
000170 8c df 1a 3d 54 ef 5b 3e 00 72 c6 bd 49 67 72 be
       0.037810847 0.21478015 -0.096897125 -0.23672213
000180 a1 c5 7c be 28 9c e3 3d f4 1f 0f be a7 66 eb bb
       -0.24684764 0.11113769 -0.13977033 -0.007183868
000190 9b fb 0e 3b 86 46 8b bd 51 f3 93 3d 2f 2e 37 bd
       0.002181745 -0.06800561 0.07224143 -0.04472178
0001a0 ed e8 5f 3b be 24 17 bd e7 17 9d bd 6e de 4f bd
       0.0034165934 -0.036900274 -0.07670575 -0.050749235
0001b0 a7 3d 3f be 5b 93 9e be 57 11 db 3d f0 40 c0 3d
       -0.18675862 -0.30971798 0.10696667 0.09387386
0001c0 6a 87 9d be 44 7d 55 be 3b 37 65 3d 3e 38 40 be
       -0.30767375 -0.20848566 0.055960875 -0.18771455
0001d0 ce f6 0b bd 82 ce 3f 3c 6c 67 80 be 51 ed b5 bd
       -0.03417092 0.01170695 -0.25078905 -0.08883155
0001e0 dd 1c 72 bd 2b 26 00 be 0b 37 be 3c eb 1c bd 3d
       -0.059109557 -0.1251456 0.023219606 0.09234031
0001f0 e9 64 ec bd 8f 95 6f be 7d 0f ad bc 1c c1 4a be
       -0.115426846 -0.23396896 -0.02112555 -0.19800228
000200 98 e5 06 be e3 3b 69 be 60 46 fa 3d 93 2b 28 be
       -0.1317352 -0.22776751 0.12220454 -0.16422872
000210 08 3a d4 bd 4f 4e 55 bd d7 fa 34 be 5e 94 9a 3d
       -0.10362631 -0.052076634 -0.17673813 0.0754783
000220 97 36 9f 3d c5 fa 9a bd 7c 07 33 be 4d 44 55 be
       0.07774084 -0.07567362 -0.17483324 -0.20826836
000230 b6 4b 27 be 66 27 9e be 0c d5 ba be 45 c9 43 be
       -0.16337475 -0.30889434 -0.36490667 -0.19119747
000240 30 cf b7 bd df 09 75 be a8 30 b6 be ae 04 cc 3c
       -0.08975065 -0.23929547 -0.35583997 0.024904575
000250 a3 72 91 be a9 03 c0 bc c7 26 44 3d a2 d9 ab 3c
       -0.28407773 -0.023439245 0.047888543 0.020977799
000260 06 b5 a8 bd ea 1d 0f 3c f8 d9 fa bd 08 94 61 bd
       -0.082376525 0.008735159 -0.122486055 -0.055072814
000270 0f 59 89 3d 9a 96 8c be 22 1d ba be 25 a4 a4 be
       0.0670644 -0.2745865 -0.36350352 -0.32156482
000280 2d e0 ea bd 90 fd 2f be 49 a9 85 be 06 5a 84 3d
       -0.114685394 -0.1718657 -0.26105717 0.06462483
000290 7a ed 12 3e d4 84 85 bd 34 c1 e3 bd a2 19 7f bc
       0.14348403 -0.065194756 -0.11120835 -0.015570076
0002a0 e6 25 78 3b 0f d8 a8 bd 4f 9e 60 be 44 3a b5 bc
       0.0037864386 -0.08244335 -0.2193539 -0.02212251
0002b0 4b f1 33 be 12 72 de bd c2 86 84 3d d1 5b 58 be
       -0.17572515 -0.10861601 0.064710155 -0.21128775
0002c0 d2 76 87 be 29 33 1a bd d6 08 8b be 12 91 64 be
       -0.2645784 -0.037646446 -0.2715518 -0.22320965
0002d0 fb b9 97 be d8 0c 9b be d6 4f 37 3c e6 34 85 bb
       -0.2963408 -0.30283237 0.011188468 -0.004065144
0002e0 50 a0 ef bd 41 65 43 3d 19 92 52 be 49 86 5a bd
       -0.11700499 0.047703985 -0.20563544 -0.05335072
0002f0 cc 65 97 be 30 b8 a0 bd 27 49 0b be c5 be 27 bd
       -0.29569852 -0.07847631 -0.13602124 -0.040953416
000300 70 b9 d6 3b 6a e8 40 3e 11 f5 63 b9 18 c7 76 3e
       0.0065528676 0.18838659 -0.00021739701 0.24099386
000310 19 27 25 bd b2 e2 03 3d 4b d0 f5 bb 8e cb 42 bd
       -0.04032049 0.032198615 -0.007501637 -0.047557406
000320 c4 c9 14 3d 05 53 c2 bd a6 ab 85 3d bf b1 90 be
       0.03632523 -0.09488491 0.0652688 -0.2826061
000330 1c fb 38 bd 25 65 00 bd 65 29 86 be 49 1d c5 be
       -0.04516135 -0.03134646 -0.26203457 -0.38498905
000340 fa 2d c1 bd 73 d2 58 be 9c 46 ff bd 47 c2 f9 3c
       -0.094325975 -0.2117403 -0.124646395 0.030488146
000350 06 29 3c bd 26 77 7a be a1 89 85 3d a5 3f cd be
       -0.04593756 -0.24459514 0.06520391 -0.4008762
000360 43 4c 91 be d9 03 1f bd 2f 4e 35 be ac 50 69 3d
       -0.28378496 -0.03882203 -0.17705606 0.0569617
000370 b2 16 a0 bd 55 d6 26 be d5 f6 a2 3d 86 58 83 be
       -0.07816829 -0.16292699 0.07957236 -0.25653476
000380 bf 2f d1 bd 2a 56 8e be b0 b1 eb bd 71 cf 28 bd
       -0.10214185 -0.27800113 -0.115085006 -0.041213457
000390 8f d6 c6 be b1 fa ba be 3d 23 6e be 84 62 12 be
       -0.3883557 -0.36519387 -0.2325563 -0.14295393
0003a0 41 0d ea 3c 0f 60 57 be a9 e5 36 be 1d b6 3d bd
       0.028570773 -0.21032737 -0.17861046 -0.046316255
0003b0 48 98 2d 3d 13 21 9f 3d 84 23 08 be 22 31 1f be
       0.042381555 0.0776998 -0.13294798 -0.15546086
0003c0 90 ec 0e be 2f 86 6c be 67 d8 45 be de 25 f9 3c
       -0.13957429 -0.23098062 -0.19320832 0.030413564
0003d0 8d 0a d7 3d 84 15 13 be 23 fd ce 3d f9 16 52 be
       0.10500059 -0.14363676 0.10106876 -0.20516576
0003e0 9a 67 3d bd 53 85 8a 3d f1 c3 1a bb 7e 50 9c be
       -0.04624138 0.06763711 -0.0023615325 -0.3053016
0003f0 76 c7 0c 3d 66 32 a2 be 16 ba 41 be e9 c2 61 be
       0.03436991 -0.31679076 -0.18918642 -0.22047009

encoder.conv1.bias f4 [32]
000000 1b 55 23 bf ea 1d 0c be b1 7b 9a be 28 dd 74 bf
       -0.63801736 -0.13683286 -0.30172494 -0.9564996
000010 97 df ca 3d 95 69 82 be 3c 83 d8 be ce 8d d2 be
       0.09905928 -0.25471178 -0.42287624 -0.41123813
000020 db 93 20 3f 65 33 87 be d9 4f 07 bf ae c1 c3 be
       0.6272561 -0.26406398 -0.5285621 -0.38233703
000030 c8 8d 9b bf 52 bd da be 96 2d 53 be 2e 50 dd be
       -1.2152643 -0.42722565 -0.20622858 -0.43225235
000040 30 be d5 3e 4d ad 6d be fe bb ec be 1f 50 b7 be
       0.41746664 -0.2321064 -0.46237177 -0.35803315
000050 ed 18 57 bf d0 31 fa 3d fb 6b 66 be 88 26 bb be
       -0.8402241 0.12216532 -0.22502129 -0.36552835
000060 63 0f f0 3d 21 f1 bd be 23 ec 80 be 1b 26 e6 be
       0.11721685 -0.3709803 -0.25180158 -0.44950947
000070 35 63 1d bf 9a 4e 95 be 13 dd 9c be 4b b8 2d be
       -0.614795 -0.2916153 -0.30637416 -0.16964833

encoder.conv2.weight f4 [32, 32, 16]
000000 96 a3 58 bd 4e d0 52 3c 7f 24 90 3c cb 83 de bc
       -0.052890383 0.0128670465 0.017595528 -0.027162453
000010 a9 1b c9 bd 33 c3 20 3d 46 6f 1e bd a9 d9 15 bd
       -0.09819729 0.039248656 -0.038680337 -0.03658453
000020 c2 56 56 3d 91 0c d8 3c 3a 5a 02 bd 92 38 e3 bb
       0.052328832 0.02637318 -0.031824328 -0.006934234
000030 1d b1 4a bd 4f 96 23 bd cf 2c 8e 3d ac 03 49 bd
       -0.049485315 -0.039938267 0.0694214 -0.049075767
000040 f0 25 d8 3c 25 0b 68 3b d0 2d 94 bc 46 50 c9 3c
       0.026385278 0.0035407033 -0.018088251 0.02457441
000050 db 4c 77 bc 6c 68 e5 39 e7 43 2f bd 2b 60 3b bd
       -0.015094007 0.00043756084 -0.042789366 -0.04574601
000060 da 80 b1 3c b7 cc 34 3c 11 3b 9d bd 52 17 c5 bd
       0.021667887 0.011035136 -0.07677282 -0.096235886
000070 4a 43 4a bc 7c 53 33 bd 6d 4a c7 3b 1d 3e 48 bc
       -0.0123451445 -0.04378079 0.0060818703 -0.01222184
000080 7a 57 b3 bd c8 57 eb bd c9 9d 9a bd 11 35 02 bd
       -0.08756919 -0.11491352 -0.075496264 -0.03178889
000090 3b 15 cd bd 8f f8 c3 3b fd e7 90 3c 64 21 d1 bc
       -0.10013815 0.005980558 0.017688746 -0.025528617
0000a0 ca aa 1d bd 7e e7 54 bc 97 f4 27 3b 1c 4e b0 bc
       -0.038492955 -0.012994645 0.0025627965 -0.02152162
0000b0 8e 57 94 3b 1b ac ee bc 1d 5b 13 bd 54 12 c2 3c
       0.004527039 -0.0291348 -0.035975564 0.02369038
0000c0 52 59 9f bd 22 d3 b4 bd cf 1a 56 bd 87 87 b3 bd
       -0.077807084 -0.08829333 -0.05227166 -0.08766084
0000d0 97 24 e8 bd fa 30 8d bd 6c 00 0d bd bb f6 5a bd
       -0.11335104 -0.06894107 -0.03442423 -0.053457957
0000e0 c0 87 79 bd 66 fc cd 3c e5 52 19 ba c7 53 88 bc
       -0.060920477 0.025144767 -0.0005848839 -0.01664151
0000f0 c5 50 80 bd c7 a5 e0 bd fb 29 99 bd 2b 25 73 bb
       -0.062654056 -0.109691195 -0.0747871 -0.0037101011
000100 0e 8b 84 3d 52 b8 61 bd 01 27 cf bd 3d 76 1e bd
       0.06471835 -0.055107422 -0.10114861 -0.03868698
000110 cb c8 a2 bd e8 8e ea bc 76 4f bf bd 83 1a 1b bd
       -0.079484545 -0.028632596 -0.09341328 -0.03786708
000120 e0 ea 6c bd e6 9e 84 bd c2 5c ea bc 8f a2 5a bc
       -0.05784118 -0.0647562 -0.028608683 -0.013344421
000130 13 58 6f bc 4f 56 fe bb 46 6d 14 bd c5 e8 6f bd
       -0.014608401 -0.0077617536 -0.036237024 -0.058571596
000140 2c cc 9e bd 5a f2 34 bd ee 81 bf bd 78 06 d5 bc
       -0.077537864 -0.044176437 -0.09350954 -0.026004061
000150 84 bb a0 bd d9 f9 d2 bc 58 b6 b8 3b e0 05 84 bc
       -0.07848266 -0.025753902 0.0056369714 -0.016116083
000160 3b 35 3a bc f2 ed f9 bb 2d 98 8a bd 4c 47 ec 3c
       -0.01136523 -0.0076272422 -0.067673065 0.02884259
000170 93 5d 15 bd fb 00 91 bd 18 e2 78 3b fe e2 99 bd
       -0.036466192 -0.07080265 0.003797656 -0.075139984
000180 48 6b 30 bd 60 03 14 3c 06 c5 8d bb 2b d5 43 bd
       -0.04307106 0.009034008 -0.0043264655 -0.047810715
000190 3f ae 81 3c 08 d6 3b bd c3 0d 40 bd ec a8 93 bd
       0.015830157 -0.045858413 -0.046888124 -0.07209954
0001a0 ef 20 73 bd ae 0f 4b bd 23 14 4d bd d1 5f 9e bc
       -0.05935758 -0.0495755 -0.050068032 -0.019332798
0001b0 84 6d 7e bd 4a 20 1e bc 7d 2f ca bd 99 97 01 3d
       -0.06211616 -0.009651253 -0.09872339 0.031638715
0001c0 53 9a 80 3c 21 39 e1 bc 20 0f f5 bd 15 49 0a bd
       0.015698588 -0.027493061 -0.119657755 -0.033761103
0001d0 a9 88 a1 bd 00 d8 63 bc 70 6e 4b 3c 0e e8 27 bd
       -0.07887394 -0.013906479 0.012416467 -0.04099279
0001e0 a4 3f 37 bd 62 bb f6 bc 0f 2a 3b bd 30 03 89 bd
       -0.044738427 -0.030118648 -0.045694407 -0.06690061
0001f0 c5 c9 ad bc 02 46 ec 3c 62 bc 9d bd 33 fd 3c bd
       -0.021214375 0.028841976 -0.07701947 -0.046139907
000200 e6 42 16 bd 91 f3 32 bd f0 7c 7f 3c de 7e 10 bc
       -0.036684893 -0.043689314 0.015593752 -0.00881931
000210 a7 b6 6c bd 91 4f e7 bc 38 64 a5 bd fd c9 f4 bc
       -0.05779138 -0.028236182 -0.08075756 -0.029881472
000220 d7 30 34 3e 72 57 cf 3d cd e3 a6 3d 00 0b bc bc
       0.17596756 0.10124101 0.08148918 -0.022954464
000230 d3 69 37 bd 16 57 1a bc cd 1b c0 bd c2 31 35 bd
       -0.044778656 -0.009420177 -0.093803026 -0.044236906
000240 b8 f2 54 bd f9 e1 68 bd 6f 68 bc 3c 28 65 53 bd
       -0.051989287 -0.05685613 0.022999017 -0.051610142
000250 60 56 67 bd e8 32 2b bd 6c 39 ac bd 80 c6 0e 3d
       -0.056478858 -0.041796595 -0.0840939 0.034857273
000260 8a df 4f bd 28 3d 7a 3d dc 56 88 3a 4b 76 d0 bc
       -0.050750293 0.06109348 0.0010401863 -0.025447031
000270 0a 2d 32 bd 26 de 5c bd b8 4b ba bc e6 2b 45 bd
       -0.043499984 -0.053922795 -0.022741184 -0.048137568
000280 cd 04 8b bd da 6f 84 bc 5f 84 80 bd 14 b2 fd 3b
       -0.06788025 -0.016166616 -0.06275248 0.007742176
000290 e5 3e 20 3c 09 da 1a 3a 94 4f 99 bd 77 03 1a bd
       0.00978062 0.00059071236 -0.074858814 -0.03760096
0002a0 9e 53 7b bd 16 1d a0 3d 76 a8 29 3d e5 ce de bd
       -0.06135904 0.07818048 0.041420422 -0.10879306
0002b0 b6 bb 33 bc ca 3e 08 bd b6 02 91 bd 43 f5 bf bd
       -0.010970047 -0.033263005 -0.07080595 -0.09372952
0002c0 4a ae dd bb 8b 71 d2 3c 12 28 23 bc 3e 9b b1 39
       -0.0067651616 0.025688907 -0.009958284 0.00033875735
0002d0 2b e6 b5 3c 32 c3 d8 bb 73 f4 e4 bd c2 5b 92 3d
       0.02220448 -0.006615066 -0.111794375 0.07146408
0002e0 db 50 60 bd a9 78 14 bd ac c3 8f 3d 3c 7c 22 3d
       -0.05476461 -0.036247883 0.07019743 0.03966926
0002f0 c6 3b a4 bd 6b d9 9e bd 17 62 a9 bc 40 b9 16 bd
       -0.080192134 -0.07756313 -0.020676656 -0.036797762
000300 b5 52 ce 39 65 dc cd bc f6 7a 0f bd a9 b3 c4 bd
       0.00039353003 -0.025129506 -0.035029374 -0.0960458
000310 af ae d9 bc d6 e8 06 bd ed 92 c5 bd 21 c5 0e 3c
       -0.026572553 -0.032936893 -0.096471645 0.008713991
000320 ae 84 a5 bb be cf 36 3c 92 57 fe bc db ee 1d bb
       -0.005051217 0.011157928 -0.031047616 -0.0024098668
000330 5b ad af bd 18 d9 9c 3c e9 95 78 3c 2d bb 3d bd
       -0.08577987 0.019146487 0.01517246 -0.046321083
000340 da 20 3a bd bf fd 2e bd a1 5b af bc 82 42 5d bd
       -0.045441486 -0.04272246 -0.021405997 -0.054018505
000350 31 98 d0 bc d0 ce a4 bc 9d 19 4b bd 91 60 7d bd
       -0.025463196 -0.020118147 -0.049584974 -0.06185967
000360 06 2c 29 bd 46 af 31 bb 98 cf d9 bc cc 58 4d bd
       -0.04130175 -0.0027112528 -0.026588246 -0.05013351
000370 45 71 0a bd f5 15 01 3d cb 41 55 bd 5a 4f dd bc
       -0.03379943 0.03151508 -0.0520647 -0.027015377
000380 7e 69 30 bd fa 27 ca bd f0 3b ca bd 1b 47 01 be
       -0.043069355 -0.09870906 -0.098747134 -0.12624781
000390 8e 78 97 bb 2d c7 16 bd 52 30 dd bd 98 ab 45 bd
       -0.0046225255 -0.036811043 -0.10800232 -0.048259348
0003a0 97 48 86 bd 8e a4 2d 3c 49 64 ab 3c b5 59 89 3d
       -0.06556814 0.010598315 0.020921843 0.067065634
0003b0 a3 9a 9d 3c b2 c7 d7 3c 11 72 f7 3a cf a8 b2 bc
       0.019238776 0.02634034 0.0018878599 -0.02180901
0003c0 68 40 7d bc d0 5a 89 bc 19 ed df bc b9 61 6c bd
       -0.01545725 -0.016766936 -0.027334737 -0.057710383
0003d0 e6 9f 71 bc c7 1d 03 bd d1 ec cb bc a2 bd 99 bc
       -0.014747595 -0.03201082 -0.024893196 -0.018767182
0003e0 95 68 2f bd 8e 96 a5 bc f8 7a 64 bd 17 25 f0 bc
       -0.042824347 -0.020213392 -0.055781335 -0.02931456
0003f0 3f 33 a8 bd e2 c5 31 bd a1 f1 a5 bc 74 b6 9a bd
       -0.082128994 -0.043401606 -0.02025682 -0.075543314

encoder.conv2.bias f4 [32]
000000 65 10 91 bc e5 98 89 bd 79 89 3a bd bf f2 c8 bd
       -0.017708013 -0.067186154 -0.04554126 -0.09811925
000010 e8 20 60 be 80 03 62 3e 35 a9 bf bd 5f 9a 86 be
       -0.21887553 0.22071648 -0.093584456 -0.2628965
000020 d8 2b 81 bd 39 f7 e4 bc ed 39 9a bd 3f 39 be bd
       -0.06307191 -0.027949916 -0.0753058 -0.092882626
000030 85 c2 43 bf be 5f b1 3d 8f b4 a3 bd 38 1c 9c bd
       -0.7646869 0.086608395 -0.07993423 -0.0762257
000040 a9 bb d5 bd 83 c5 9f bb 30 2e 23 be c9 2c 35 be
       -0.10436184 -0.00487584 -0.15935588 -0.17692865
000050 11 af eb bc 06 08 b7 be f8 d0 6f bd 68 7b b7 bd
       -0.028770002 -0.3574831 -0.058548898 -0.08959085
000060 d3 dd d1 be 68 e0 30 bd e9 c8 d5 bd 79 13 4a bf
       -0.4098955 -0.04318276 -0.10438711 -0.7893596
000070 97 c9 11 be 53 17 a4 bd 0e 28 b4 be 52 5d 59 be
       -0.14237057 -0.08012261 -0.3518681 -0.21227005

encoder.conv3.weight f4 [32, 32, 16]
000000 f2 f2 67 bd cd cb 98 bd bf 58 ee bd e6 63 b6 bd
       -0.056628175 -0.07460747 -0.11638021 -0.08905773
000010 82 ce 46 bd da 9a 84 bd 26 24 89 bd fc c3 a2 3c
       -0.048536785 -0.06474848 -0.06696348 0.019868843
000020 4e 1c f9 3d 29 6a 03 bc 26 49 92 3d f8 86 3f 3d
       0.12163602 -0.008020916 0.07142858 0.046759576
000030 3d 97 8a bd b6 c7 c1 bc 75 04 74 bd 72 18 b4 bd
       -0.06767128 -0.0236548 -0.059574563 -0.08793725
000040 2a f9 a9 bd c4 44 50 bd 44 56 a5 bd 98 76 75 bd
       -0.082994774 -0.05084683 -0.080730945 -0.059927553
000050 7b 02 f2 bc aa 1a 6b bd 19 ea b1 bc 73 64 9c bd
       -0.029542198 -0.057398476 -0.021718072 -0.07636347
000060 98 30 ee bc 2e 60 8e bc c6 ba 8b bd e1 bc e3 bc
       -0.029075906 -0.017379846 -0.068227336 -0.027800025
000070 d2 f5 b0 bd f1 3c 52 bd 06 0f fa bc 13 ef c3 3d
       -0.086406365 -0.05132765 -0.030524742 0.09567084
000080 76 0e b4 bd 96 33 93 bd 65 34 55 bd 33 a2 c3 bd
       -0.08791821 -0.071875736 -0.05205192 -0.095524214
000090 02 71 7b bd 33 96 b1 bd a8 9d bc bc 59 61 5f bd
       -0.06138707 -0.08671226 -0.023024395 -0.054536197
0000a0 e5 dc 52 bd cc 7b a0 bc 6f aa 7a bd 92 07 59 bd
       -0.051480193 -0.019590281 -0.061197694 -0.052985735
0000b0 1f d4 95 bd 26 59 de bc 35 ea 76 bd 5c 64 56 bd
       -0.073158495 -0.027142119 -0.06028195 -0.052341804
0000c0 df 6a 66 bd 4c 78 b0 bd 90 e1 cf bd f0 82 cf bd
       -0.056254264 -0.08616695 -0.101504445 -0.10132396
0000d0 d4 e5 9f bd 42 29 34 bd d9 bf a4 bc 57 16 c5 bd
       -0.07807508 -0.04398466 -0.020111011 -0.096234016
0000e0 1a dc 70 bd 46 89 b7 bd 6f 58 ce bd 13 4f c3 bd
       -0.058803655 -0.0896173 -0.10075461 -0.095365666
0000f0 18 73 93 bd 21 48 14 bd 89 f4 8f bd c9 1a c0 bc
       -0.07199687 -0.0362016 -0.07029063 -0.023450272
000100 af 0a c7 bd 61 38 aa bd 98 97 db bd b5 0c e4 bd
       -0.097188346 -0.08311535 -0.107222736 -0.11135236
000110 b9 57 4e bd 10 b9 f0 bd 58 22 2a bd 26 f6 91 bd
       -0.050376628 -0.11754048 -0.04153666 -0.07127027
000120 bb 3b d7 bd b2 1a a4 bd e9 1f 68 bd 8d 54 a0 bc
       -0.105094396 -0.08012904 -0.056671057 -0.019571567
000130 2f 1c 9b bd 3a ed 85 bc 0d dd b4 bd 56 e3 2d bd
       -0.07573735 -0.01634847 -0.088312246 -0.042453133
000140 60 ce b2 bd 9d 86 c1 bd 37 a6 6b bd 62 f8 c0 bc
       -0.08730769 -0.094495036 -0.05753156 -0.023555938
000150 6a 59 af bc bb 95 c0 bd c3 24 a1 bc 81 44 5e bd
       -0.02140494 -0.09403559 -0.01967085 -0.05426455
000160 5f 9f cb bc 14 2a 8f bd 60 c5 b0 bc 6f f3 86 bd
       -0.024856267 -0.06990448 -0.02157849 -0.065894
000170 fa 1c b1 bd 0c 4c d2 bd 4b ff 47 bd 17 c6 ce bd
       -0.08648105 -0.10268411 -0.04882745 -0.100963764
000180 b7 fd 75 bd 94 46 40 bd 61 b4 80 bd 76 e3 aa bd
       -0.060056414 -0.04694231 -0.062844045 -0.08344166
000190 e4 8f 94 bd 71 36 8a bd 29 8a 01 bd c8 f7 c6 bd
       -0.072540075 -0.06748665 -0.0316259 -0.09715229
0001a0 5d 44 b0 bd d4 1c b4 bd 8b ec 96 bd 78 e1 a4 bd
       -0.08606789 -0.08794561 -0.07369336 -0.08050817
0001b0 a8 48 68 bd 6f 1e d2 bd 9f 14 c5 bd a5 1a fc bc
       -0.056709915 -0.10259711 -0.09623074 -0.030774424
0001c0 9a b3 6e bd ec 4d d6 bd cb e5 c5 bb 61 63 1b bc
       -0.05827675 -0.10464081 -0.0060393563 -0.009484143
0001d0 cd bb c2 bc c5 ea b5 bd 59 4a 56 bd bb 08 08 bd
       -0.023771191 -0.08882669 -0.052316997 -0.03321145
0001e0 55 68 a6 3c d2 26 c9 3c 03 99 28 bd 06 97 d8 bd
       0.020313421 0.024554644 -0.04116155 -0.105756804
0001f0 df 6f c6 bd e0 f5 b3 bd cb 4b 6b bd d4 20 e3 bd
       -0.096893065 -0.08787131 -0.05744533 -0.11090246
000200 af fb 9f bd 36 c4 cd bd c5 05 ab bd 9a 2e b0 bd
       -0.07811677 -0.1004719 -0.0835071 -0.086026385
000210 91 5c c6 bd af b4 b7 bd 46 19 6f bd 00 f5 cc bd
       -0.096856244 -0.089700095 -0.058373712 -0.100076675
000220 10 44 90 bd 13 0f b5 bd fa 97 04 bd 2a 89 c1 bd
       -0.07044232 -0.08840766 -0.0323715 -0.0944999
000230 fb 90 d5 bc 7a 07 b0 bd 4f 7f 89 bc 57 67 50 bd
       -0.026070109 -0.08595176 -0.016784338 -0.050879803
000240 ec b0 4e bd a4 0e 96 bd 20 ff b9 bd b2 a4 5d bd
       -0.050461695 -0.07327011 -0.09081864 -0.054112144
000250 90 13 60 bd 3e 5c a8 bd af f2 24 bd 72 91 bb bd
       -0.054706156 -0.08220719 -0.040270504 -0.09158601
000260 70 ac c3 bd 48 a8 28 bd 8e da 4d bd 1e 97 58 bd
       -0.09554374 -0.04117611 -0.050257258 -0.05287849
000270 aa 24 ca bd 7f e2 8c bd 7b 23 b0 bd f1 67 a2 bd
       -0.09870274 -0.06879138 -0.08600517 -0.079299815
000280 65 8f 9e bc b1 91 2a bd b7 3b c8 bc 32 d3 5b bd
       -0.019355485 -0.04164285 -0.024442537 -0.05366821
000290 c3 4f 82 bd b6 23 ab bd ca 8c 0c bd 13 20 a1 bd
       -0.063628696 -0.08356421 -0.034313954 -0.07867446
0002a0 38 83 85 bc 50 ef 90 bd 50 5f 53 bd c9 34 c9 bd
       -0.016297922 -0.07076895 -0.05160457 -0.09824521
0002b0 38 98 88 bc 6e 5f b8 bd fa db 46 bd a7 d1 aa bd
       -0.016674146 -0.09002577 -0.04854963 -0.08340769
0002c0 01 3c b4 bd 07 1c 04 bd 2e 1a 5c bd d0 36 b7 bd
       -0.08800507 -0.03225329 -0.053735904 -0.089460015
0002d0 3c 2b e6 bc ca f3 ae bd e1 2d 8b bd 8a fc ac bc
       -0.028096788 -0.08542593 -0.0679586 -0.021116514
0002e0 68 2c b9 bd 8d 2f c1 bc dd 01 8f bd 3c 67 d1 bd
       -0.09041673 -0.023582244 -0.06982777 -0.102247685
0002f0 d3 8f ba bc 73 67 ba bc ec 8d 50 bd fb bd 8b bd
       -0.022773659 -0.022754407 -0.050916597 -0.06823345
000300 2a f8 f1 bd 41 b2 5b bd 62 5d b1 bd 49 5a a2 bd
       -0.11814912 -0.053636793 -0.086603895 -0.07927377
000310 77 6d c9 bd b0 2f 01 be 42 42 9f bd 37 f8 bf bd
       -0.09835332 -0.12615848 -0.077763095 -0.09373515
000320 77 cc ac bd a5 34 3e bd 66 72 f4 bd 85 33 de bd
       -0.08437436 -0.046436924 -0.11935882 -0.1084967
000330 57 6c 8c bd f1 25 45 be 9a 82 03 be ac 08 30 bd
       -0.06856602 -0.19252755 -0.1284279 -0.04297702
000340 42 af 9e bd 0c c7 7b bd 3f 81 d9 bc c6 12 79 3c
       -0.077482715 -0.061469123 -0.026550887 0.01520223
000350 0b f6 df bc 43 b6 ce bd 41 09 0b bd 6b 3b 36 bd
       -0.027339002 -0.100933574 -0.033944372 -0.04449026
000360 33 f7 be bd e7 84 37 3d 06 90 a1 3c 25 a7 97 3c
       -0.09324493 0.04480448 0.019721996 0.018512318
000370 d0 05 b3 bd b4 05 70 bd 76 35 ac 3c 85 62 23 3d
       -0.08741343 -0.05859919 0.021021586 0.039888877
000380 cb dc 77 bd 60 5b ae bd bb 30 9d bd dc b2 98 bc
       -0.0605133 -0.08513522 -0.0767531 -0.018639974
000390 38 0f 71 bd 45 0b 03 bd 9c af 0c 3d f3 88 d2 bd
       -0.058852404 -0.03199317 0.03434716 -0.10280027
0003a0 a0 f7 75 bd b5 26 89 bd 8c e5 91 bd 4d b8 a7 bc
       -0.060050607 -0.06696836 -0.07123861 -0.020473624
0003b0 87 c2 53 bd 73 f0 a3 bd 6e 73 44 bd 6e 3a 5e bd
       -0.051699188 -0.080048464 -0.047961645 -0.05425494
0003c0 79 69 81 bd d4 7a 99 bc fe c0 75 bd 4a 15 89 bd
       -0.063189454 -0.018735327 -0.059998505 -0.06693514
0003d0 5a 36 2f bd 30 1f f9 bc 37 cd b9 bd ed 43 03 bd
       -0.042776443 -0.03041038 -0.09072345 -0.0320472
0003e0 32 0c 60 bd 2d 97 0a bd 9e c8 e0 bc 05 5a 6b bd
       -0.05469913 -0.03383558 -0.027439412 -0.057458896
0003f0 51 77 b6 bd 63 16 60 bd 45 5c 34 bd ed 65 ad bd
       -0.089094765 -0.05470885 -0.044033308 -0.084667064

encoder.conv3.bias f4 [32]
000000 eb 03 31 bc b7 58 18 be c8 1e 07 be 1f c1 cd bd
       -0.010804157 -0.14877592 -0.13195336 -0.100466006
000010 ac 0b 95 bd 93 87 47 be e6 c2 0c bc 79 d9 d2 bd
       -0.07277617 -0.19485311 -0.008591389 -0.10295386
000020 cb cd d0 bd a1 eb 68 be 0a cf 9b bd bc 80 b1 bd
       -0.10195502 -0.22746135 -0.07607849 -0.08667132
000030 1b dc 16 be d3 b3 35 be 78 54 11 be bf 95 0e be
       -0.14732401 -0.17744379 -0.14192379 -0.13924311
000040 c7 59 f2 bd 58 75 08 be 73 8e cd ba a2 e6 e9 bd
       -0.1183353 -0.13326013 -0.0015682712 -0.11420943
000050 f6 4f f3 bd cb a6 e9 bc 7b 9e ff bd 35 32 90 bd
       -0.11880486 -0.028521916 -0.124813996 -0.07040826
000060 c6 00 cc bd d9 58 57 be 46 02 93 bd 3b 66 ed bd
       -0.09961085 -0.21029986 -0.07178168 -0.115917645
000070 75 60 2f be e4 20 53 bd 7e 01 df bc 4c 6c 0e be
       -0.17126639 -0.05154504 -0.027222391 -0.139085

encoder.dense1.weight f4 [64, 2400]
000000 cc b1 a8 3d 45 17 2b 3d 03 3c 57 bd af a0 bc 3d
       0.08237037 0.04177024 -0.052547466 0.092103355
000010 f3 5f 50 bd bf 8e 11 bd ae 4b 48 3d 2b 44 5e 3d
       -0.050872754 -0.035536524 0.0489003 0.05426423
000020 a5 cd b5 3d ef 50 47 bd 3e 6d 9c bd 04 c4 ec 3c
       0.08877114 -0.04866117 -0.07638024 0.028902061
000030 c4 12 52 3d 03 f6 7c 3b 8d 01 b6 3d 1a ef 61 bd
       0.051287428 0.0038598783 0.088870145 -0.055159666
000040 54 0c 22 bd e1 8a 37 3d d6 c7 92 3d cb 2f 76 bd
       -0.03956254 0.04481018 0.07167022 -0.060104173
000050 c7 b5 78 bd 31 ce 5f 3d 4d ca 2b 3d f2 3c a7 3d
       -0.06072023 0.05464 0.041940976 0.08165921
000060 39 27 35 bd 1e 98 89 bd 72 d4 47 3d 65 84 51 3d
       -0.04422686 -0.06718467 0.048786588 0.051151652
000070 03 87 a2 3d 60 b8 76 bd 9f a7 31 bd bd 23 90 bd
       0.07935908 -0.060234427 -0.043372747 -0.070380665
000080 07 46 89 bd cc c0 07 3d c0 d6 79 3d ab 01 24 bd
       -0.0670281 0.03314285 0.060995817 -0.040040653
000090 e6 e7 30 bd d8 36 d6 3d b6 16 9a 3d 85 96 43 bd
       -0.043189906 0.10459679 0.07523863 -0.04775097
0000a0 0e 47 88 3d 6a b9 7d 3d 7e 4b 76 bd 00 0c be 3d
       0.066541776 0.061944403 -0.06013059 0.092796326
0000b0 a7 70 a2 bd f1 a1 63 bd ed 8a e0 3c b1 d0 7b 3d
       -0.07931643 -0.05557436 0.027409995 0.06147832
0000c0 8c 96 35 3d b7 0c 59 bd c3 25 2c bd bb 4d 1b 3c
       0.044333026 -0.05299064 -0.0420282 0.009478982
0000d0 2d 02 06 3a 9e b3 12 bd 7e d5 41 bd da f5 82 3d
       0.00051120186 -0.035815828 -0.047322743 0.06394549
0000e0 ff b1 83 bd eb 76 7a bd 2a 8b 92 bd d2 ab 95 bd
       -0.064304344 -0.061148565 -0.0715545 -0.07308163
0000f0 73 3a 3d bd 76 aa f4 b9 4c 98 85 bd ef 30 9e bd
       -0.04619832 -0.0004666631 -0.06523189 -0.07724177
000100 21 df 79 bd b2 f4 2c 3d 20 99 7b 3c 33 9a fc bc
       -0.061003808 0.042225547 0.015356332 -0.030835247
000110 0c 73 87 bd 0f c3 8a 3d ef c9 d8 bc 5c 28 ba 3d
       -0.0661374 0.06775486 -0.026463477 0.09089729
000120 11 12 15 3d d9 63 93 3c 1b 67 8e bd ca ff de a6
       0.036394183 0.017991947 -0.069532596 -1.5473676e-15
000130 fe bc 86 bd 7f 49 89 3d 8b 60 24 aa 4a 29 4d 3d
       -0.06579016 0.067034714 -1.4599621e-13 0.050088204
000140 69 e4 3e bd b9 17 77 a9 cd bc 23 a9 8a f2 88 3d
       -0.046604548 -5.4865594e-14 -3.635703e-14 0.06686886
000150 ad b0 38 bd a8 d4 56 3d cf 0e f5 a9 f4 82 93 bd
       -0.045090366 0.0524489 -1.08827545e-13 -0.07202712
000160 03 fe 4b bd 0b 72 95 29 85 0f a7 3c 07 80 2c 3d
       -0.04980279 6.6367125e-14 0.020393142 0.042114284
000170 46 da 2d bd f4 ff 97 3d 45 e0 6d bd 95 6a 9b 3d
       -0.04244449 0.07421866 -0.05807521 0.07588688
000180 06 e2 d5 3c b7 93 8f bd 76 dd 26 3d 51 9d 1d bd
       0.026108753 -0.07010596 0.040738545 -0.038480107
000190 e5 b9 44 bd db 42 2c 3d 3e 67 30 bd 57 b1 7e 3d
       -0.048028845 0.042055946 -0.04306721 0.062180843
0001a0 e6 2f 1d 3d cf c5 85 3d 6d 7e 6b 3d db 5f 91 bd
       0.038375758 0.065318696 0.057493616 -0.07098361
0001b0 75 d2 9b bd 9f 7e 2a 3d 53 0c 50 3d 89 a8 a9 3b
       -0.07608501 0.04162466 0.050793003 0.0051775617
0001c0 48 5e de 2c c7 64 4c 3d 79 74 2d bd 4f 3d f8 ba
       6.320087e-12 0.049900796 -0.042347405 -0.001893917
0001d0 a9 47 5c 3e a0 eb 1d 3e 95 bb 04 bd ba 45 9c 29
       0.21511711 0.15421915 -0.032405455 6.939887e-14
0001e0 88 09 ef 3a 19 14 3f bd 77 dc 8d bd f4 3e 19 bd
       0.0018237093 -0.046650026 -0.06926816 -0.037413552
0001f0 09 cc 5c bd 1c e3 8f 3d 18 76 98 bd ae b6 0f 3d
       -0.05390552 0.070257396 -0.074443996 0.035086326
000200 d9 3c 27 bd db b6 46 bc f3 15 4a bd fa 1a 1e 3d
       -0.040829513 -0.012128557 -0.04933734 0.038599946
000210 38 18 28 bd 4c c0 7e bd bd 1d 9b bd 55 51 96 bd
       -0.04103872 -0.062195107 -0.075740315 -0.073397316
000220 bd 22 1b 3d ba ab 77 bd 82 4a 87 bd 63 4d 47 bd
       0.037874926 -0.060466506 -0.06606008 -0.048657786
000230 62 e4 31 be ff 78 91 bd 5a be 15 3d da db 8c bd
       -0.17372277 -0.07103156 0.036558487 -0.06877871
000240 fd de 78 3c c3 dc 5d bd 00 d4 9d bd d5 fd 59 bd
       0.015189883 -0.054165613 -0.077064514 -0.05322059
000250 21 1e 03 be e5 fe 3c 3c fe 86 d3 bc 1f a4 d0 bd
       -0.12804462 0.011535381 -0.025821205 -0.101875536
000260 3c da f8 bb 0d 22 83 bc 5e 09 96 bd 4c db 9b bd
       -0.007594375 -0.016007448 -0.073260054 -0.07610187
000270 e3 18 9f bd 6c 7e 89 3c 5c 8d 55 bd 90 bf 86 3c
       -0.07768419 0.016783915 -0.052136764 0.016448766
000280 f9 cb d1 3c 7d 82 7e bc e3 4c 90 bd a0 c8 c1 bd
       0.025609957 -0.0155340405 -0.07045915 -0.09462094
000290 07 a7 0f bd 2d 00 86 bd 05 31 b7 bc d2 f5 3c bc
       -0.0350714 -0.06543002 -0.022362242 -0.0115332175
0002a0 0a 07 99 bd 28 86 44 bc 2a 7e 6d bd dc 50 aa bd
       -0.07472046 -0.011994876 -0.057981648 -0.08316204
0002b0 6c a3 b6 bc 17 58 91 bd 55 e7 89 bd 94 85 97 bd
       -0.022294722 -0.0709688 -0.06733576 -0.07398525
0002c0 58 b5 12 bc ba fc 5d bc cc 52 ac bc 7c 65 a8 3d
       -0.0089543685 -0.013549024 -0.021035574 0.082224816
0002d0 77 93 51 bd 90 54 99 bd 86 8b 89 bd 51 21 bd 3d
       -0.051166024 -0.07486832 -0.06716065 0.0923487
0002e0 60 97 87 bd 37 49 a8 bd 1e cc 17 bd ec 3a a3 bd
       -0.06620669 -0.082170896 -0.037059896 -0.07970223
0002f0 95 98 9f bd 73 0b b5 bd 67 7b 93 bd 32 bd bf bd
       -0.077927746 -0.088400744 -0.072012715 -0.09362258
000300 ec 7e 8e 3c 8b d5 0f bc 7b 7a 95 bd 61 36 57 3d
       0.017394505 -0.00877894 -0.07298752 0.052542094
000310 e1 f5 9d bd 3e 3e 63 bd f4 15 88 bd 67 73 8f bd
       -0.07712913 -0.05547928 -0.06644812 -0.07004433
000320 88 94 98 bd 75 9d 80 3c 97 07 14 3d b4 a8 4e bd
       -0.07450205 0.015700081 0.03614005 -0.050453857
000330 0f d5 d5 bc 9b 3d 82 3d 6c ab 7a bd d0 d8 3a 3d
       -0.02610257 0.063594066 -0.061198637 0.045616925
000340 3b ff 96 bd fc da 9c bd bd 79 53 bd 38 81 42 bd
       -0.073729 -0.076589555 -0.05162977 -0.047486514
000350 46 a9 89 bd c1 ab 87 bd 03 45 8a bd d4 13 86 bd
       -0.067217395 -0.06624556 -0.06751444 -0.06546751
000360 06 f1 a0 bd 77 39 29 bd de 3d 89 bd 2b 15 7b bd
       -0.078584716 -0.04131457 -0.06701253 -0.061299484
000370 86 cb 9f bd 3b bb 4b bd 5a c0 76 3d 92 f4 6c bd
       -0.07802491 -0.049739104 0.060242034 -0.057850428
000380 d3 f8 49 bd f7 c3 b0 bc 24 d4 b5 3b 01 85 f5 3c
       -0.049309563 -0.021577818 0.005548971 0.029970648
000390 61 50 ae bd fb fb b6 bd f4 17 db bc bf cd 87 bc
       -0.08511425 -0.0893478 -0.02674482 -0.0165776
0003a0 60 29 5c 3b de eb d1 bd 52 59 c5 bc a2 a5 1d bd
       0.0033593997 -0.10250066 -0.024090443 -0.038488038
0003b0 ec f2 86 bd f7 73 e2 bc a4 50 89 bd f5 82 18 bd
       -0.065893024 -0.027643187 -0.06704834 -0.037234265
0003c0 81 68 69 bd 67 df f3 ba 08 0a 87 bc a5 6d aa bd
       -0.05698443 -0.0018606008 -0.016484275 -0.08321694
0003d0 db 64 99 bd 38 3b 7c bd 29 30 c0 bd b5 74 c9 bd
       -0.0748994 -0.061579913 -0.09384186 -0.09836713
0003e0 6e 5f 93 bd ca 68 aa bd 1b b0 a9 bd 01 65 25 bd
       -0.07195936 -0.08320768 -0.082855426 -0.040379528
0003f0 d7 c5 f3 bb f7 b8 33 bc 0b b8 81 bc 6f 24 b0 bd
       -0.007439356 -0.010969392 -0.015834829 -0.08600699

encoder.dense1.bias f4 [64]
000000 12 e1 a9 3d 01 ff b3 3f 75 8d 29 3d 42 81 3c 3f
       0.08294882 1.4062196 0.04139467 0.7363473
000010 48 f9 2b 3d fb fc 8b 3f c9 72 86 3d 32 e8 2d 3e
       0.04198578 1.0936579 0.06564862 0.16983107
000020 3b 51 0f 3f 89 e6 cd bd 64 b4 68 3f 26 4e 0b 3e
       0.5598332 -0.10053737 0.90900254 0.1360403
000030 69 32 26 3f 43 eb 83 3f 00 20 60 be 0a 02 ba bd
       0.6492067 1.0306171 -0.21887207 -0.0908242
000040 4c 46 01 3f de a9 e0 3e d8 60 b8 3d ee e7 86 3f
       0.5049789 0.43879598 0.090028465 1.0539529
000050 3f 55 9d 3f 01 9f 88 3e 90 9d 86 3f bf 26 5c 3e
       1.229164 0.2668381 1.0516834 0.21499155
000060 40 7a 20 3e 16 75 b3 3d 5b cc 59 3e ab de f9 3d
       0.15671635 0.08762567 0.21269362 0.12200674
000070 62 50 24 3f 4b 0c 75 3f 33 e7 11 3f 34 d2 0f 3e
       0.64185154 0.9572188 0.56993407 0.1404503
000080 2f fe 0a be 6a f2 03 3f 6f ec b1 3e 2f ba 99 3f
       -0.13573526 0.5154177 0.34750697 1.2009944
000090 66 04 86 3f 85 be 20 3e b2 cd 92 3e 4c a8 2d 3d
       1.0470092 0.15697677 0.28672558 0.04239683
0000a0 7a 1f 6e 3f 31 8f ad 3f 6b b1 cd 3e de 61 8f 3f
       0.9301678 1.3559324 0.40174422 1.1201742
0000b0 a8 c7 27 3e 05 94 43 3e 5b 1c 3c 3f cf 74 17 3f
       0.16384757 0.19099434 0.73480767 0.5916261
0000c0 75 9c 5b 3f a1 df 39 bd 16 7c d4 3e ee 78 79 3f
       0.8578561 -0.045379285 0.4150092 0.9745015
0000d0 39 60 75 3f 33 5c e0 3e e4 0e 5f be 93 40 be 3e
       0.9584995 0.43820342 -0.21783024 0.3715864
0000e0 81 06 83 3f 38 d6 80 3f 89 0c 0b be 46 81 40 3f
       1.023636 1.0065374 -0.13579 0.75197256
0000f0 9d 02 ed 3e da b2 ba 3e 32 6c c8 3f 4d 85 7c 3f
       0.46291056 0.36464578 1.5658019 0.986409

encoder.encoder1.0.weight f4 [32, 1, 16]
000000 00 35 23 be 67 dd 69 bc e9 be 5d be 66 01 eb bd
       -0.15938187 -0.014273978 -0.21654858 -0.11474876
000010 40 ce 35 bd c7 3a ca bc 5f e4 ce 3d 1b d4 80 be
       -0.04438615 -0.02468623 0.10102152 -0.25161824
000020 21 53 1a bc 79 08 98 3c 09 53 52 bd b7 2a a0 be
       -0.009419234 0.018558728 -0.05134872 -0.3128259
000030 f8 a7 f1 bd cf 3b 89 be ab 13 f5 bd 00 0c 49 bd
       -0.117996156 -0.26803443 -0.11966642 -0.04908371
000040 cf 11 56 be ab c3 39 be 82 ce bc 3d b6 20 65 bd
       -0.20905231 -0.18141048 0.09219076 -0.0559394
000050 df cd f9 3d 9a b9 c8 bd 47 9a 97 be 76 7c 75 bd
       0.1219747 -0.09801026 -0.29609892 -0.05993315
000060 6b 61 c9 3d 42 0e e6 3d 78 24 ac bd 90 fc bf 3d
       0.09833034 0.11233188 -0.08405393 0.09374344
000070 db f0 78 be 5a 1b 1f be 4f b8 eb bd 44 90 de bd
       -0.24310629 -0.15537778 -0.115097634 -0.1086736
000080 54 7e 5c bd 1b 7b 63 be 3d 07 73 3d 93 33 c0 3d
       -0.053831413 -0.2221493 0.059333075 0.09384837
000090 a7 f0 ed 3d 94 4d 38 be ed 5d 90 be c2 e8 01 be
       0.116181664 -0.17998344 -0.2819666 -0.12686446
0000a0 2b 26 19 be ba ad d3 bd 30 f2 89 be cd 41 23 3c
       -0.14955966 -0.1033587 -0.26942587 0.009964419
0000b0 2a e3 77 bc c8 1d 83 3d ae 57 5b 3d 8a 55 e1 bd
       -0.015129844 0.06402165 0.053550415 -0.110026434
0000c0 9e 96 46 3d 6c 76 a2 3d 9d a5 82 bc b7 06 98 be
       0.048483483 0.079327434 -0.015948111 -0.29692623
0000d0 cb 55 fe bd ac b4 84 bd 9a e6 9f bc 28 da 48 3e
       -0.124187075 -0.06479773 -0.01951914 0.1961447
0000e0 9f 09 38 be 67 47 58 bc 57 f0 78 be 30 f5 33 bc
       -0.1797242 -0.013200617 -0.24310432 -0.01098375
0000f0 56 96 2f bc 21 c2 b3 3c ad 74 36 be a7 8e 9f bd
       -0.010716995 0.021943154 -0.17817946 -0.07790881
000100 95 f4 c8 bc a6 dd c1 be bc 63 82 be 43 ba b0 bc
       -0.024530688 -0.37864417 -0.25466716 -0.021573192
000110 4a 16 70 be e2 a6 d3 bd 82 2c d6 3d 6b 1b 55 bd
       -0.23446003 -0.10334565 0.10457708 -0.0520281
000120 8b 89 80 be be 73 b8 be 34 ce 23 be 35 cf 7b be
       -0.25104937 -0.36025804 -0.15996629 -0.24590762
000130 58 e2 a1 be 91 87 47 bd de d7 76 3d 16 b4 d7 3a
       -0.31618 -0.04871327 0.06026446 0.0016456868
000140 26 7c b9 3d 2c fd bd bd 7b 89 cb 3d fe 03 0c 3c
       0.090568826 -0.09276804 0.09938332 0.008545874
000150 b6 6f 96 bc f6 5e 41 be f0 44 a4 bd 85 72 b4 bd
       -0.018363815 -0.18883881 -0.08020961 -0.08810905
000160 68 41 53 be 23 28 45 3e 0a 11 2e be 28 41 86 be
       -0.20630419 0.19253592 -0.16998687 -0.26221585
000170 8c df 1a 3d 54 ef 5b 3e 00 72 c6 bd 49 67 72 be
       0.037810847 0.21478015 -0.096897125 -0.23672213
000180 a1 c5 7c be 28 9c e3 3d f4 1f 0f be a7 66 eb bb
       -0.24684764 0.11113769 -0.13977033 -0.007183868
000190 9b fb 0e 3b 86 46 8b bd 51 f3 93 3d 2f 2e 37 bd
       0.002181745 -0.06800561 0.07224143 -0.04472178
0001a0 ed e8 5f 3b be 24 17 bd e7 17 9d bd 6e de 4f bd
       0.0034165934 -0.036900274 -0.07670575 -0.050749235
0001b0 a7 3d 3f be 5b 93 9e be 57 11 db 3d f0 40 c0 3d
       -0.18675862 -0.30971798 0.10696667 0.09387386
0001c0 6a 87 9d be 44 7d 55 be 3b 37 65 3d 3e 38 40 be
       -0.30767375 -0.20848566 0.055960875 -0.18771455
0001d0 ce f6 0b bd 82 ce 3f 3c 6c 67 80 be 51 ed b5 bd
       -0.03417092 0.01170695 -0.25078905 -0.08883155
0001e0 dd 1c 72 bd 2b 26 00 be 0b 37 be 3c eb 1c bd 3d
       -0.059109557 -0.1251456 0.023219606 0.09234031
0001f0 e9 64 ec bd 8f 95 6f be 7d 0f ad bc 1c c1 4a be
       -0.115426846 -0.23396896 -0.02112555 -0.19800228
000200 98 e5 06 be e3 3b 69 be 60 46 fa 3d 93 2b 28 be
       -0.1317352 -0.22776751 0.12220454 -0.16422872
000210 08 3a d4 bd 4f 4e 55 bd d7 fa 34 be 5e 94 9a 3d
       -0.10362631 -0.052076634 -0.17673813 0.0754783
000220 97 36 9f 3d c5 fa 9a bd 7c 07 33 be 4d 44 55 be
       0.07774084 -0.07567362 -0.17483324 -0.20826836
000230 b6 4b 27 be 66 27 9e be 0c d5 ba be 45 c9 43 be
       -0.16337475 -0.30889434 -0.36490667 -0.19119747
000240 30 cf b7 bd df 09 75 be a8 30 b6 be ae 04 cc 3c
       -0.08975065 -0.23929547 -0.35583997 0.024904575
000250 a3 72 91 be a9 03 c0 bc c7 26 44 3d a2 d9 ab 3c
       -0.28407773 -0.023439245 0.047888543 0.020977799
000260 06 b5 a8 bd ea 1d 0f 3c f8 d9 fa bd 08 94 61 bd
       -0.082376525 0.008735159 -0.122486055 -0.055072814
000270 0f 59 89 3d 9a 96 8c be 22 1d ba be 25 a4 a4 be
       0.0670644 -0.2745865 -0.36350352 -0.32156482
000280 2d e0 ea bd 90 fd 2f be 49 a9 85 be 06 5a 84 3d
       -0.114685394 -0.1718657 -0.26105717 0.06462483
000290 7a ed 12 3e d4 84 85 bd 34 c1 e3 bd a2 19 7f bc
       0.14348403 -0.065194756 -0.11120835 -0.015570076
0002a0 e6 25 78 3b 0f d8 a8 bd 4f 9e 60 be 44 3a b5 bc
       0.0037864386 -0.08244335 -0.2193539 -0.02212251
0002b0 4b f1 33 be 12 72 de bd c2 86 84 3d d1 5b 58 be
       -0.17572515 -0.10861601 0.064710155 -0.21128775
0002c0 d2 76 87 be 29 33 1a bd d6 08 8b be 12 91 64 be
       -0.2645784 -0.037646446 -0.2715518 -0.22320965
0002d0 fb b9 97 be d8 0c 9b be d6 4f 37 3c e6 34 85 bb
       -0.2963408 -0.30283237 0.011188468 -0.004065144
0002e0 50 a0 ef bd 41 65 43 3d 19 92 52 be 49 86 5a bd
       -0.11700499 0.047703985 -0.20563544 -0.05335072
0002f0 cc 65 97 be 30 b8 a0 bd 27 49 0b be c5 be 27 bd
       -0.29569852 -0.07847631 -0.13602124 -0.040953416
000300 70 b9 d6 3b 6a e8 40 3e 11 f5 63 b9 18 c7 76 3e
       0.0065528676 0.18838659 -0.00021739701 0.24099386
000310 19 27 25 bd b2 e2 03 3d 4b d0 f5 bb 8e cb 42 bd
       -0.04032049 0.032198615 -0.007501637 -0.047557406
000320 c4 c9 14 3d 05 53 c2 bd a6 ab 85 3d bf b1 90 be
       0.03632523 -0.09488491 0.0652688 -0.2826061
000330 1c fb 38 bd 25 65 00 bd 65 29 86 be 49 1d c5 be
       -0.04516135 -0.03134646 -0.26203457 -0.38498905
000340 fa 2d c1 bd 73 d2 58 be 9c 46 ff bd 47 c2 f9 3c
       -0.094325975 -0.2117403 -0.124646395 0.030488146
000350 06 29 3c bd 26 77 7a be a1 89 85 3d a5 3f cd be
       -0.04593756 -0.24459514 0.06520391 -0.4008762
000360 43 4c 91 be d9 03 1f bd 2f 4e 35 be ac 50 69 3d
       -0.28378496 -0.03882203 -0.17705606 0.0569617
000370 b2 16 a0 bd 55 d6 26 be d5 f6 a2 3d 86 58 83 be
       -0.07816829 -0.16292699 0.07957236 -0.25653476
000380 bf 2f d1 bd 2a 56 8e be b0 b1 eb bd 71 cf 28 bd
       -0.10214185 -0.27800113 -0.115085006 -0.041213457
000390 8f d6 c6 be b1 fa ba be 3d 23 6e be 84 62 12 be
       -0.3883557 -0.36519387 -0.2325563 -0.14295393
0003a0 41 0d ea 3c 0f 60 57 be a9 e5 36 be 1d b6 3d bd
       0.028570773 -0.21032737 -0.17861046 -0.046316255
0003b0 48 98 2d 3d 13 21 9f 3d 84 23 08 be 22 31 1f be
       0.042381555 0.0776998 -0.13294798 -0.15546086
0003c0 90 ec 0e be 2f 86 6c be 67 d8 45 be de 25 f9 3c
       -0.13957429 -0.23098062 -0.19320832 0.030413564
0003d0 8d 0a d7 3d 84 15 13 be 23 fd ce 3d f9 16 52 be
       0.10500059 -0.14363676 0.10106876 -0.20516576
0003e0 9a 67 3d bd 53 85 8a 3d f1 c3 1a bb 7e 50 9c be
       -0.04624138 0.06763711 -0.0023615325 -0.3053016
0003f0 76 c7 0c 3d 66 32 a2 be 16 ba 41 be e9 c2 61 be
       0.03436991 -0.31679076 -0.18918642 -0.22047009

encoder.encoder1.0.bias f4 [32]
000000 1b 55 23 bf ea 1d 0c be b1 7b 9a be 28 dd 74 bf
       -0.63801736 -0.13683286 -0.30172494 -0.9564996
000010 97 df ca 3d 95 69 82 be 3c 83 d8 be ce 8d d2 be
       0.09905928 -0.25471178 -0.42287624 -0.41123813
000020 db 93 20 3f 65 33 87 be d9 4f 07 bf ae c1 c3 be
       0.6272561 -0.26406398 -0.5285621 -0.38233703
000030 c8 8d 9b bf 52 bd da be 96 2d 53 be 2e 50 dd be
       -1.2152643 -0.42722565 -0.20622858 -0.43225235
000040 30 be d5 3e 4d ad 6d be fe bb ec be 1f 50 b7 be
       0.41746664 -0.2321064 -0.46237177 -0.35803315
000050 ed 18 57 bf d0 31 fa 3d fb 6b 66 be 88 26 bb be
       -0.8402241 0.12216532 -0.22502129 -0.36552835
000060 63 0f f0 3d 21 f1 bd be 23 ec 80 be 1b 26 e6 be
       0.11721685 -0.3709803 -0.25180158 -0.44950947
000070 35 63 1d bf 9a 4e 95 be 13 dd 9c be 4b b8 2d be
       -0.614795 -0.2916153 -0.30637416 -0.16964833

encoder.encoder1.2.weight f4 [32, 32, 16]
000000 96 a3 58 bd 4e d0 52 3c 7f 24 90 3c cb 83 de bc
       -0.052890383 0.0128670465 0.017595528 -0.027162453
000010 a9 1b c9 bd 33 c3 20 3d 46 6f 1e bd a9 d9 15 bd
       -0.09819729 0.039248656 -0.038680337 -0.03658453
000020 c2 56 56 3d 91 0c d8 3c 3a 5a 02 bd 92 38 e3 bb
       0.052328832 0.02637318 -0.031824328 -0.006934234
000030 1d b1 4a bd 4f 96 23 bd cf 2c 8e 3d ac 03 49 bd
       -0.049485315 -0.039938267 0.0694214 -0.049075767
000040 f0 25 d8 3c 25 0b 68 3b d0 2d 94 bc 46 50 c9 3c
       0.026385278 0.0035407033 -0.018088251 0.02457441
000050 db 4c 77 bc 6c 68 e5 39 e7 43 2f bd 2b 60 3b bd
       -0.015094007 0.00043756084 -0.042789366 -0.04574601
000060 da 80 b1 3c b7 cc 34 3c 11 3b 9d bd 52 17 c5 bd
       0.021667887 0.011035136 -0.07677282 -0.096235886
000070 4a 43 4a bc 7c 53 33 bd 6d 4a c7 3b 1d 3e 48 bc
       -0.0123451445 -0.04378079 0.0060818703 -0.01222184
000080 7a 57 b3 bd c8 57 eb bd c9 9d 9a bd 11 35 02 bd
       -0.08756919 -0.11491352 -0.075496264 -0.03178889
000090 3b 15 cd bd 8f f8 c3 3b fd e7 90 3c 64 21 d1 bc
       -0.10013815 0.005980558 0.017688746 -0.025528617
0000a0 ca aa 1d bd 7e e7 54 bc 97 f4 27 3b 1c 4e b0 bc
       -0.038492955 -0.012994645 0.0025627965 -0.02152162
0000b0 8e 57 94 3b 1b ac ee bc 1d 5b 13 bd 54 12 c2 3c
       0.004527039 -0.0291348 -0.035975564 0.02369038
0000c0 52 59 9f bd 22 d3 b4 bd cf 1a 56 bd 87 87 b3 bd
       -0.077807084 -0.08829333 -0.05227166 -0.08766084
0000d0 97 24 e8 bd fa 30 8d bd 6c 00 0d bd bb f6 5a bd
       -0.11335104 -0.06894107 -0.03442423 -0.053457957
0000e0 c0 87 79 bd 66 fc cd 3c e5 52 19 ba c7 53 88 bc
       -0.060920477 0.025144767 -0.0005848839 -0.01664151
0000f0 c5 50 80 bd c7 a5 e0 bd fb 29 99 bd 2b 25 73 bb
       -0.062654056 -0.109691195 -0.0747871 -0.0037101011
000100 0e 8b 84 3d 52 b8 61 bd 01 27 cf bd 3d 76 1e bd
       0.06471835 -0.055107422 -0.10114861 -0.03868698
000110 cb c8 a2 bd e8 8e ea bc 76 4f bf bd 83 1a 1b bd
       -0.079484545 -0.028632596 -0.09341328 -0.03786708
000120 e0 ea 6c bd e6 9e 84 bd c2 5c ea bc 8f a2 5a bc
       -0.05784118 -0.0647562 -0.028608683 -0.013344421
000130 13 58 6f bc 4f 56 fe bb 46 6d 14 bd c5 e8 6f bd
       -0.014608401 -0.0077617536 -0.036237024 -0.058571596
000140 2c cc 9e bd 5a f2 34 bd ee 81 bf bd 78 06 d5 bc
       -0.077537864 -0.044176437 -0.09350954 -0.026004061
000150 84 bb a0 bd d9 f9 d2 bc 58 b6 b8 3b e0 05 84 bc
       -0.07848266 -0.025753902 0.0056369714 -0.016116083
000160 3b 35 3a bc f2 ed f9 bb 2d 98 8a bd 4c 47 ec 3c
       -0.01136523 -0.0076272422 -0.067673065 0.02884259
000170 93 5d 15 bd fb 00 91 bd 18 e2 78 3b fe e2 99 bd
       -0.036466192 -0.07080265 0.003797656 -0.075139984
000180 48 6b 30 bd 60 03 14 3c 06 c5 8d bb 2b d5 43 bd
       -0.04307106 0.009034008 -0.0043264655 -0.047810715
000190 3f ae 81 3c 08 d6 3b bd c3 0d 40 bd ec a8 93 bd
       0.015830157 -0.045858413 -0.046888124 -0.07209954
0001a0 ef 20 73 bd ae 0f 4b bd 23 14 4d bd d1 5f 9e bc
       -0.05935758 -0.0495755 -0.050068032 -0.019332798
0001b0 84 6d 7e bd 4a 20 1e bc 7d 2f ca bd 99 97 01 3d
       -0.06211616 -0.009651253 -0.09872339 0.031638715
0001c0 53 9a 80 3c 21 39 e1 bc 20 0f f5 bd 15 49 0a bd
       0.015698588 -0.027493061 -0.119657755 -0.033761103
0001d0 a9 88 a1 bd 00 d8 63 bc 70 6e 4b 3c 0e e8 27 bd
       -0.07887394 -0.013906479 0.012416467 -0.04099279
0001e0 a4 3f 37 bd 62 bb f6 bc 0f 2a 3b bd 30 03 89 bd
       -0.044738427 -0.030118648 -0.045694407 -0.06690061
0001f0 c5 c9 ad bc 02 46 ec 3c 62 bc 9d bd 33 fd 3c bd
       -0.021214375 0.028841976 -0.07701947 -0.046139907
000200 e6 42 16 bd 91 f3 32 bd f0 7c 7f 3c de 7e 10 bc
       -0.036684893 -0.043689314 0.015593752 -0.00881931
000210 a7 b6 6c bd 91 4f e7 bc 38 64 a5 bd fd c9 f4 bc
       -0.05779138 -0.028236182 -0.08075756 -0.029881472
000220 d7 30 34 3e 72 57 cf 3d cd e3 a6 3d 00 0b bc bc
       0.17596756 0.10124101 0.08148918 -0.022954464
000230 d3 69 37 bd 16 57 1a bc cd 1b c0 bd c2 31 35 bd
       -0.044778656 -0.009420177 -0.093803026 -0.044236906
000240 b8 f2 54 bd f9 e1 68 bd 6f 68 bc 3c 28 65 53 bd
       -0.051989287 -0.05685613 0.022999017 -0.051610142
000250 60 56 67 bd e8 32 2b bd 6c 39 ac bd 80 c6 0e 3d
       -0.056478858 -0.041796595 -0.0840939 0.034857273
000260 8a df 4f bd 28 3d 7a 3d dc 56 88 3a 4b 76 d0 bc
       -0.050750293 0.06109348 0.0010401863 -0.025447031
000270 0a 2d 32 bd 26 de 5c bd b8 4b ba bc e6 2b 45 bd
       -0.043499984 -0.053922795 -0.022741184 -0.048137568
000280 cd 04 8b bd da 6f 84 bc 5f 84 80 bd 14 b2 fd 3b
       -0.06788025 -0.016166616 -0.06275248 0.007742176
000290 e5 3e 20 3c 09 da 1a 3a 94 4f 99 bd 77 03 1a bd
       0.00978062 0.00059071236 -0.074858814 -0.03760096
0002a0 9e 53 7b bd 16 1d a0 3d 76 a8 29 3d e5 ce de bd
       -0.06135904 0.07818048 0.041420422 -0.10879306
0002b0 b6 bb 33 bc ca 3e 08 bd b6 02 91 bd 43 f5 bf bd
       -0.010970047 -0.033263005 -0.07080595 -0.09372952
0002c0 4a ae dd bb 8b 71 d2 3c 12 28 23 bc 3e 9b b1 39
       -0.0067651616 0.025688907 -0.009958284 0.00033875735
0002d0 2b e6 b5 3c 32 c3 d8 bb 73 f4 e4 bd c2 5b 92 3d
       0.02220448 -0.006615066 -0.111794375 0.07146408
0002e0 db 50 60 bd a9 78 14 bd ac c3 8f 3d 3c 7c 22 3d
       -0.05476461 -0.036247883 0.07019743 0.03966926
0002f0 c6 3b a4 bd 6b d9 9e bd 17 62 a9 bc 40 b9 16 bd
       -0.080192134 -0.07756313 -0.020676656 -0.036797762
000300 b5 52 ce 39 65 dc cd bc f6 7a 0f bd a9 b3 c4 bd
       0.00039353003 -0.025129506 -0.035029374 -0.0960458
000310 af ae d9 bc d6 e8 06 bd ed 92 c5 bd 21 c5 0e 3c
       -0.026572553 -0.032936893 -0.096471645 0.008713991
000320 ae 84 a5 bb be cf 36 3c 92 57 fe bc db ee 1d bb
       -0.005051217 0.011157928 -0.031047616 -0.0024098668
000330 5b ad af bd 18 d9 9c 3c e9 95 78 3c 2d bb 3d bd
       -0.08577987 0.019146487 0.01517246 -0.046321083
000340 da 20 3a bd bf fd 2e bd a1 5b af bc 82 42 5d bd
       -0.045441486 -0.04272246 -0.021405997 -0.054018505
000350 31 98 d0 bc d0 ce a4 bc 9d 19 4b bd 91 60 7d bd
       -0.025463196 -0.020118147 -0.049584974 -0.06185967
000360 06 2c 29 bd 46 af 31 bb 98 cf d9 bc cc 58 4d bd
       -0.04130175 -0.0027112528 -0.026588246 -0.05013351
000370 45 71 0a bd f5 15 01 3d cb 41 55 bd 5a 4f dd bc
       -0.03379943 0.03151508 -0.0520647 -0.027015377
000380 7e 69 30 bd fa 27 ca bd f0 3b ca bd 1b 47 01 be
       -0.043069355 -0.09870906 -0.098747134 -0.12624781
000390 8e 78 97 bb 2d c7 16 bd 52 30 dd bd 98 ab 45 bd
       -0.0046225255 -0.036811043 -0.10800232 -0.048259348
0003a0 97 48 86 bd 8e a4 2d 3c 49 64 ab 3c b5 59 89 3d
       -0.06556814 0.010598315 0.020921843 0.067065634
0003b0 a3 9a 9d 3c b2 c7 d7 3c 11 72 f7 3a cf a8 b2 bc
       0.019238776 0.02634034 0.0018878599 -0.02180901
0003c0 68 40 7d bc d0 5a 89 bc 19 ed df bc b9 61 6c bd
       -0.01545725 -0.016766936 -0.027334737 -0.057710383
0003d0 e6 9f 71 bc c7 1d 03 bd d1 ec cb bc a2 bd 99 bc
       -0.014747595 -0.03201082 -0.024893196 -0.018767182
0003e0 95 68 2f bd 8e 96 a5 bc f8 7a 64 bd 17 25 f0 bc
       -0.042824347 -0.020213392 -0.055781335 -0.02931456
0003f0 3f 33 a8 bd e2 c5 31 bd a1 f1 a5 bc 74 b6 9a bd
       -0.082128994 -0.043401606 -0.02025682 -0.075543314

encoder.encoder1.2.bias f4 [32]
000000 65 10 91 bc e5 98 89 bd 79 89 3a bd bf f2 c8 bd
       -0.017708013 -0.067186154 -0.04554126 -0.09811925
000010 e8 20 60 be 80 03 62 3e 35 a9 bf bd 5f 9a 86 be
       -0.21887553 0.22071648 -0.093584456 -0.2628965
000020 d8 2b 81 bd 39 f7 e4 bc ed 39 9a bd 3f 39 be bd
       -0.06307191 -0.027949916 -0.0753058 -0.092882626
000030 85 c2 43 bf be 5f b1 3d 8f b4 a3 bd 38 1c 9c bd
       -0.7646869 0.086608395 -0.07993423 -0.0762257
000040 a9 bb d5 bd 83 c5 9f bb 30 2e 23 be c9 2c 35 be
       -0.10436184 -0.00487584 -0.15935588 -0.17692865
000050 11 af eb bc 06 08 b7 be f8 d0 6f bd 68 7b b7 bd
       -0.028770002 -0.3574831 -0.058548898 -0.08959085
000060 d3 dd d1 be 68 e0 30 bd e9 c8 d5 bd 79 13 4a bf
       -0.4098955 -0.04318276 -0.10438711 -0.7893596
000070 97 c9 11 be 53 17 a4 bd 0e 28 b4 be 52 5d 59 be
       -0.14237057 -0.08012261 -0.3518681 -0.21227005
