CAC/DC/networks/weights/DC/DC_1_myTestCACclassifierCACLoss.pth (torch, 754052 bytes, 19 tensors)

anchors f8 [4, 4]
0	0x4024000000000000	10.0
1	0x0000000000000000	0.0
2	0x0000000000000000	0.0
3	0x0000000000000000	0.0
4	0x0000000000000000	0.0
5	0x4024000000000000	10.0
6	0x0000000000000000	0.0
7	0x0000000000000000	0.0
8	0x0000000000000000	0.0
9	0x0000000000000000	0.0
10	0x4024000000000000	10.0
11	0x0000000000000000	0.0
12	0x0000000000000000	0.0
13	0x0000000000000000	0.0
14	0x0000000000000000	0.0
15	0x4024000000000000	10.0

encoder.conv1.weight f4 [32, 1, 16]
0	0xbe1feeae	-0.15618393
1	0xbc41cb21	-0.011828215
2	0xbe51a79f	-0.20474099
3	0xbdf6e6cb	-0.12055739
4	0xbd6dc3b7	-0.058047976
5	0x3c76d86c	0.015066247
6	0x3e0bf66b	0.1366822
7	0xbe81f60a	-0.25383025
8	0xbc0469ac	-0.008081835
9	0x3c4657d3	0.0121059
10	0xbd5bf809	-0.05370334
11	0xbe8d2761	-0.27569106
12	0xbded3692	-0.11582674
13	0xbe884cd9	-0.2662113
14	0xbdf22a36	-0.11824457
15	0xbd292d80	-0.041303158
16	0xbe56e53c	-0.20985883
17	0xbe343807	-0.17599498
18	0x3dc6920d	0.09695826
19	0xbd413ec7	-0.04717901
20	0x3e0986e6	0.13430366
21	0xbdbaf108	-0.09128004
22	0xbe96ce6b	-0.2945436
23	0xbd5fce6c	-0.05464022
24	0x3dda1de6	0.10650234
25	0x3df838df	0.12120222
26	0xbd9d6e10	-0.076870084
27	0x3dcb5099	0.09927482
28	0xbe76c4d0	-0.24098516
29	0xbe1f8d31	-0.15581204
30	0xbde87c3d	-0.113518216
31	0xbdc06ddd	-0.09395955
32	0xbd25273d	-0.040320624
33	0xbe517b78	-0.20457256
34	0x3d8adf4b	0.06780871
35	0x3ddca75e	0.1077411
36	0x3e08f499	0.13374557
37	0xbe3145c6	-0.17311773
38	0xbe8e18a5	-0.27753177
39	0xbdfdccf0	-0.12392604
40	0xbe14ae1f	-0.14519547
41	0xbdb5c942	-0.088762775
42	0xbe87b2dc	-0.26503646
43	0x3c931b1e	0.017957266
44	0xbbf15b7e	-0.007365643
45	0x3d8a608a	0.067566946
46	0x3d52e4e7	0.05148783
47	0xbde76289	-0.11298091
48	0x3d71416e	0.05890029
49	0x3d9caf06	0.076505706
50	0xbcb8249a	-0.02247839
51	0xbe97db77	-0.29659626
52	0xbda34dec	-0.07973847
53	0xbca87c5b	-0.02056711
54	0x3d2799a6	0.040918015
55	0x3e719010	0.23590112
56	0xbe08dafc	-0.13364786
57	0xba786db6	-0.00094767974
58	0xbe734dfd	-0.23760219
59	0x3cd4b3ef	0.025964705
60	0x3bcb1d50	0.0061985627
61	0x3cb624b3	0.022234296
62	0xbdf5ca17	-0.12001436
63	0xbdbe7a5a	-0.093006805
64	0xbc973649	-0.018458502
65	0xbec2545a	-0.3795498
66	0xbe841d58	-0.25803638
67	0xbcb72f7a	-0.022361506
68	0xbe743a5b	-0.23850386
69	0xbdd4c021	-0.10388208
70	0x3df73a34	0.12071648
71	0xbd2e7278	-0.042589635
72	0xbe7adbc6	-0.244979
73	0xbeb15db3	-0.346418
74	0xbe2216ce	-0.15829012
75	0xbe76e0f1	-0.24109246
76	0xbea1168b	-0.3146251
77	0xbd32522d	-0.0435354
78	0x3d8064be	0.06269215
79	0x3a3c385c	0.0007180029
80	0x3dd25023	0.10269191
81	0xbdaf5d2c	-0.08562693
82	0x3dced915	0.10099999
83	0x3c5bb28a	0.013409266
84	0xbc9f1b41	-0.019422175
85	0xbe42a8c3	-0.1900969
86	0xbda7f667	-0.082012944
87	0xbdd54a2d	-0.104145385
88	0xbe5aba14	-0.21360046
89	0x3e426732	0.18984678
90	0xbe2eda8f	-0.17075561
91	0xbe888416	-0.26663274
92	0x3d1635c3	0.036672365
93	0x3e3cf8d0	0.1845429
94	0xbde49129	-0.111604996
95	0xbe73c014	-0.2380374
96	0xbe84648f	-0.2585797
97	0x3dc57962	0.096422926
98	0xbe148db0	-0.14507174
99	0xbc1d3da8	-0.0095972195
100	0xbb6c12ac	-0.0036021871
101	0xbd98a69c	-0.07453653
102	0x3d8b2e5a	0.0679595
103	0xbd4b98dd	-0.04970633
104	0x3b796aa3	0.0038057945
105	0xbd1e68f8	-0.038674325
106	0xbd9910f5	-0.074739374
107	0xbd5e8902	-0.05432988
108	0xbe3c0585	-0.1836148
109	0xbe9d105b	-0.3067654
110	0x3ddb6606	0.10712819
111	0x3dae6345	0.08515028
112	0xbe9da684	-0.30791104
113	0xbe55e886	-0.20889482
114	0x3d6fac4b	0.05851392
115	0xbe40241d	-0.18763776
116	0xbd0540f5	-0.03253265
117	0x3c067f21	0.008209021
118	0xbe80a248	-0.2512381
119	0xbdb54f8f	-0.08853065
120	0xbd727f2b	-0.059203308
121	0xbe034cab	-0.12822215
122	0x3c9249ea	0.01785751
123	0x3dae147f	0.08500003
124	0xbdeee82b	-0.11665376
125	0xbe6f2eeb	-0.23357742
126	0xbcba768f	-0.022761611
127	0xbe4aa883	-0.19790845
128	0xbe010036	-0.12597737
129	0xbe6c61b8	-0.23084152
130	0x3dc63607	0.09678274
131	0xbe2ec649	-0.17067827
132	0xbdd17480	-0.10227299
133	0xbd598547	-0.05310562
134	0xbe3ae30b	-0.18250673
135	0x3d8d9899	0.06913871
136	0x3d978f57	0.07400387
137	0xbd953615	-0.07285706
138	0xbe322be1	-0.17399551
139	0xbe50948f	-0.2036917
140	0xbe198196	-0.1499084
141	0xbea1e0ad	-0.31616727
142	0xbeb6f1db	-0.35731396
143	0xbe4cfe37	-0.2001885
144	0xbdc6c8d3	-0.09706273
145	0xbe7974a0	-0.24360895
146	0xbeb50239	-0.35353258
147	0x3c750509	0.014954814
148	0xbe91a56a	-0.28446513
149	0xbceda127	-0.029007507
150	0x3d1dbecf	0.038512047
151	0x3c470739	0.012147718
152	0xbda92fb1	-0.082610495
153	0x3c0d5ccf	0.008628084
154	0xbdfb15c9	-0.122600146
155	0xbd52e942	-0.051491983
156	0x3d8a7efb	0.06762501
157	0xbe8cf0c0	-0.27527428
158	0xbebc34f8	-0.36759162
159	0xbea5f9dd	-0.32417193
160	0xbde6e0d6	-0.11273353
161	0xbe2d23ba	-0.1690816
162	0xbe8483f5	-0.25881925
163	0x3d98dc6d	0.07463918
164	0x3e1e12d4	0.1543687
165	0xbd8c4cc0	-0.068505764
166	0xbdd5c7ef	-0.10438525
167	0xbc2f1656	-0.010686478
168	0x3c08d4e3	0.008351537
169	0xbda6d348	-0.081457675
170	0xbe5ed743	-0.21761803
171	0xbcb3bc57	-0.021940393
172	0xbe34f367	-0.17670976
173	0xbde28a77	-0.11061566
174	0x3d761e0d	0.060087252
175	0xbe64a6af	-0.2232921
176	0xbe8748c2	-0.26422697
177	0xbd1adde1	-0.037809256
178	0xbe8b80ce	-0.27246708
179	0xbe645f63	-0.22302012
180	0xbe976cad	-0.295751
181	0xbe9b1173	-0.3028675
182	0x3bc093c0	0.005876988
183	0xbba5e013	-0.005062112
184	0xbdf0460f	-0.117321126
185	0x3d39aa4c	0.045328423
186	0xbe529113	-0.20563154
187	0xbd5a8ba3	-0.053355824
188	0xbe97800e	-0.29589885
189	0xbda132fc	-0.078710526
190	0xbe0b90af	-0.13629411
191	0xbd2336b0	-0.039847076
192	0xbbf470c6	-0.0074597327
193	0x3e3215e0	0.17391157
194	0xbcb72887	-0.022358192
195	0x3e627deb	0.22118346
196	0xbd891bf5	-0.066947855
197	0x3c8cebf4	0.017202355
198	0x3c035a0b	0.008017073
199	0xbc801d2b	-0.015638908
200	0x3d9f10b7	0.0776686
201	0xbd97a065	-0.0740364
202	0x3da0e023	0.07855251
203	0xbe80c20e	-0.25148052
204	0xbd096cef	-0.033551153
205	0x3a28bdfb	0.00064370007
206	0xbe6f54d6	-0.23372206
207	0xbeb9d1e9	-0.3629296
208	0xbdb911c0	-0.09036589
209	0xbe598ad6	-0.21244368
210	0xbdf81bbf	-0.12114667
211	0x3d36d320	0.04463494
212	0xbd1fec45	-0.039043684
213	0xbe77fa1e	-0.24216506
214	0x3d385ab0	0.04500836
215	0xbecbf85a	-0.39837915
216	0xbe8fdd74	-0.28098643
217	0xbd1a1d14	-0.037625387
218	0xbe3584aa	-0.17726389
219	0x3d8f48c3	0.069963
220	0xbd9a2ace	-0.075276956
221	0xbe1e0bc5	-0.15434177
222	0x3dca5848	0.098801196
223	0xbe83ac34	-0.25717318
224	0xbdcc22bb	-0.09967562
225	0xbe8f9380	-0.2804222
226	0xbdf26573	-0.11835756
227	0xbd0d78cf	-0.03453904
228	0xbec505cd	-0.38480988
229	0xbebb5c51	-0.3659387
230	0xbe6ccf95	-0.23126061
231	0xbe0efb32	-0.13963011
232	0x3cdecd82	0.027197603
233	0xbe5770d4	-0.21039134
234	0xbe377e0c	-0.17919177
235	0xbd356992	-0.044290133
236	0x3d3f0388	0.046634227
237	0x3dad7ed0	0.08471453
238	0xbe07a748	-0.13247406
239	0xbe1e7a13	-0.15476255
240	0xbe0baaab	-0.13639323
241	0xbe68cd58	-0.22734582
242	0xbe42875f	-0.18996952
243	0x3d3fdf0f	0.046843585
244	0x3de34040	0.11096239
245	0xbe144d1b	-0.14482538
246	0x3dcc7506	0.09983258
247	0xbe531cc0	-0.20616436
248	0xbd40b995	-0.047051985
249	0x3d951fbc	0.072814435
250	0x3b8a6cb9	0.0042243865
251	0xbe9c1dcb	-0.3049148
252	0x3d0126ce	0.031531148
253	0xbea1fe2c	-0.3163923
254	0xbe3d9ddd	-0.18517251
255	0xbe6075d4	-0.21919948

encoder.conv1.bias f4 [32]
0	0xbf11da3c	-0.56973624
1	0xbe2bc79e	-0.16775367
2	0xbe963e15	-0.2934424
3	0xbf6cd710	-0.9251566
4	0x3de8c604	0.113658935
5	0xbe84274f	-0.2581124
6	0xbed47257	-0.41493484
7	0xbed2e031	-0.4118667
8	0x3f2416c7	0.64097255
9	0xbe90dbae	-0.28292602
10	0xbf005cec	-0.5014179
11	0xbec32227	-0.38111994
12	0xbf975d4a	-1.1825345
13	0xbed0710a	-0.40711242
14	0xbe55b9a1	-0.20871593
15	0xbecb3839	-0.39691332
16	0x3ec6cdca	0.3882888
17	0xbe768cd0	-0.24077153
18	0xbee62168	-0.44947362
19	0xbeae5e33	-0.34056243
20	0xbf513d30	-0.8173399
21	0x3df8ed9d	0.12154696
22	0xbe788e30	-0.2427299
23	0xbeaecb7f	-0.3413963
24	0x3ddf9dfe	0.109188065
25	0xbea3aaa3	-0.31966123
26	0xbe755f6a	-0.23962179
27	0xbed88044	-0.4228536
28	0xbf1258ba	-0.57166636
29	0xbe960b04	-0.2930528
30	0xbe92412d	-0.2856535
31	0xbe33f5dd	-0.17574258

encoder.conv2.weight f4 [32, 32, 16]
0	0xbd58ad4f	-0.052899655
1	0x3c529bee	0.012854559
2	0x3c905871	0.017620297
3	0xbcde48a2	-0.027134243
4	0xbdc920c3	-0.09820702
5	0x3d20c3f1	0.039249364
6	0xbd1e83d2	-0.038699932
7	0xbd1595cd	-0.036519814
8	0x3d565504	0.05232717
9	0x3cd80c6c	0.02637311
10	0xbd026fd7	-0.03184494
11	0xbbe3ce52	-0.0069520855
12	0xbd4ab69b	-0.049490552
13	0xbd238ea5	-0.03993096
14	0x3d8e30f9	0.069429345
15	0xbd490e06	-0.04908564
16	0x3cd83823	0.026393956
17	0x3b657cfa	0.0035017119
18	0xbc9742df	-0.018464504
19	0x3cc85f7b	0.024459591
20	0xbc78e7a1	-0.015191943
21	0x3a537d53	0.0008067686
22	0xbd2f9e74	-0.042875722
23	0xbd3bad81	-0.045819763
24	0x3cb1f59c	0.021723561
25	0x3c3228b8	0.010873966
26	0xbd9ceea3	-0.07662704
27	0xbdc4d558	-0.096110046
28	0xbc4be4d6	-0.012444695
29	0xbd33729b	-0.04381047
30	0x3bc77fc3	0.0060882284
31	0xbc47be1d	-0.012191323
32	0xbdb38394	-0.08765331
33	0xbdeb30a5	-0.114838876
34	0xbd9bbdb1	-0.0760454
35	0xbd0396b1	-0.032126132
36	0xbdcd373c	-0.10020301
37	0x3bc82f09	0.0061091227
38	0x3c911bb1	0.0177134
39	0xbcd16707	-0.025561823
40	0xbd1dbaa8	-0.038508087
41	0xbc55071a	-0.013002181
42	0x3b26e8c2	0.0025468324
43	0xbcb013c6	-0.021493804
44	0x3b93c17d	0.0045091496
45	0xbceed194	-0.029152669
46	0xbd135bad	-0.0359761
47	0x3cc210c5	0.023689637
48	0xbd9f7e50	-0.07787764
49	0xbdb4ff24	-0.08837727
50	0xbd5678f5	-0.052361447
51	0xbdb49af9	-0.08818621
52	0xbde84a86	-0.11342339
53	0xbd8d2679	-0.06892104
54	0xbd0cf968	-0.03441754
55	0xbd5b297a	-0.053506352
56	0xbd792a9d	-0.060831655
57	0x3ccd9621	0.025096001
58	0xba22a49a	-0.0006204337
59	0xbc87dfa6	-0.016586136
60	0xbd76a1ef	-0.060213026
61	0xbddf361c	-0.108989924
62	0xbd9931c2	-0.07480194
63	0xbb770aee	-0.0037695724
64	0x3d7fecb1	0.062481586
65	0xbd5f5acf	-0.05452996
66	0xbdce0788	-0.1006003
67	0xbd1d3069	-0.038376246
68	0xbda0ae02	-0.07845689
69	0xbce2d048	-0.027687207
70	0xbdbf6608	-0.09345633
71	0xbd1b00ee	-0.037842683
72	0xbd6cea43	-0.057840597
73	0xbd8486e0	-0.06471038
74	0xbceab85b	-0.02865236
75	0xbc5aa2fa	-0.013344521
76	0xbc6f52ca	-0.014607141
77	0xbbfe8d15	-0.007768283
78	0xbd1455b7	-0.036214557
79	0xbd5500ce	-0.05200272
80	0xbd9e7707	-0.077375464
81	0xbd361215	-0.044450838
82	0xbdbfaf08	-0.093595564
83	0xbcd5c584	-0.02609516
84	0xbda0dba7	-0.07854395
85	0xbcd3e3bb	-0.025865426
86	0x3bc34d7d	0.005960165
87	0xbc8475fb	-0.016169539
88	0xbc3a6296	-0.011376044
89	0xbbf96dec	-0.0076119807
90	0xbd89d21d	-0.06729529
91	0x3cefd830	0.02927789
92	0xbd141f79	-0.036162827
93	0xbd909fb1	-0.07061709
94	0x3b8417db	0.004031164
95	0xbd99e9ab	-0.07515272
96	0xbd306954	-0.0430692
97	0x3c13ded8	0.009025298
98	0xbb8e449f	-0.0043416764
99	0xbd43f58b	-0.04784159
100	0x3c82f688	0.015986696
101	0xbd3bdc0c	-0.04586415
102	0xbd4002d2	-0.04687769
103	0xbd93a2e8	-0.07208806
104	0xbd7309be	-0.059335463
105	0xbd49c1c3	-0.04925705
106	0xbd4cde66	-0.050016783
107	0xbc9e14ae	-0.01929697
108	0xbd7e98b0	-0.062157333
109	0xbc1f2e25	-0.009715592
110	0xbdc11dc0	-0.094295025
111	0x3d1dd0d8	0.038529247
112	0x3c8092af	0.015694944
113	0xbce134f6	-0.027491074
114	0xbdf50a59	-0.11964864
115	0xbd0a61cb	-0.03378467
116	0xbda18de7	-0.07888394
117	0xbc63e233	-0.013908911
118	0x3c4b93a8	0.012425341
119	0xbd27faa5	-0.041010518
120	0xbd371ee6	-0.0447072
121	0xbcf70da8	-0.030157879
122	0xbd3b3496	-0.045704447
123	0xbd890274	-0.06689921
124	0xbcae0576	-0.021242838
125	0x3ced64e1	0.028978767
126	0xbd9dbe22	-0.077022806
127	0xbd3cff83	-0.046142112
128	0xbd109372	-0.035296865
129	0xbd30e274	-0.043184713
130	0x3c83c998	0.016087338
131	0xbc10a91c	-0.008829381
132	0xbd6d0808	-0.057868987
133	0xbce801a7	-0.0283211
134	0xbda56b35	-0.08077089
135	0xbcf66369	-0.0300767
136	0x3e333575	0.17500861
137	0x3dcf2ad7	0.10115593
138	0x3da82cd6	0.08211677
139	0xbcb60981	-0.022221329
140	0xbd3aadcc	-0.045575902
141	0xbc1415c5	-0.009038393
142	0xbdc024eb	-0.093820415
143	0xbd3535ee	-0.044240884
144	0xbd54f472	-0.051990934
145	0xbd68e324	-0.056857243
146	0x3cbc5ef8	0.022994503
147	0xbd536b34	-0.05161591
148	0xbd675ca7	-0.056484845
149	0xbd2b3baf	-0.041804966
150	0xbdac3336	-0.08408205
151	0x3d1065dc	0.03525339
152	0xbd504095	-0.05084284
153	0x3d7a7892	0.06115014
154	0x3a8e4665	0.001085472
155	0xbcd06607	-0.025439275
156	0xbd31d71c	-0.043418035
157	0xbd5cd3a7	-0.053912785
158	0xbcba4d58	-0.022741958
159	0xbd452d56	-0.04813894
160	0xbd8af3e1	-0.067847975
161	0xbc844daa	-0.016150314
162	0xbd80f245	-0.06296209
163	0x3bfda586	0.007740679
164	0x3c203c14	0.009779949
165	0x3a1a4641	0.00058851024
166	0xbd996d4c	-0.0749155
167	0xbd1a67e0	-0.03769672
168	0xbd7b91cd	-0.061418343
169	0x3da06b05	0.07832912
170	0x3d294104	0.04132177
171	0xbddd9480	-0.1081934
172	0xbc3a010e	-0.0113527905
173	0xbd085ce8	-0.033291727
174	0xbd91062a	-0.07081254
175	0xbdbf74f2	-0.093484774
176	0xbbddb43c	-0.0067658704
177	0x3cd274b9	0.025690423
178	0xbc23298c	-0.009958636
179	0x39b14888	0.0003381411
180	0x3cb5fb16	0.022214454
181	0xbbd9f227	-0.0066511813
182	0xbde53edb	-0.11193629
183	0x3d9257e7	0.07145672
184	0xbd6098f6	-0.054833375
185	0xbd149062	-0.036270507
186	0x3d902e1b	0.07040044
187	0x3d22c46c	0.039738104
188	0xbda4568e	-0.080243215
189	0xbd9eebc6	-0.07759814
190	0xbca96874	-0.02067969
191	0xbd16beda	-0.036803104
192	0x39589dc0	0.00020658132
193	0xbcce61e6	-0.025193166
194	0xbd0ff763	-0.035148036
195	0xbdc4b5e1	-0.09605003
196	0xbcd8216f	-0.02638313
197	0xbd07f7f9	-0.03319547
198	0xbdc48aa3	-0.09596755
199	0x3c09d558	0.0084126815
200	0xbba84722	-0.005135433
201	0x3c2f9652	0.0107169915
202	0xbcff2efb	-0.031150332
203	0xbb1e4b5d	-0.0024153807
204	0xbdaf66cf	-0.08564531
205	0x3c9ee552	0.019396458
206	0x3c7617b0	0.015020296
207	0xbd3dc37d	-0.04632901
208	0xbd3a755a	-0.04552207
209	0xbd2f6806	-0.042823814
210	0xbca94246	-0.020661484
211	0xbd5d97de	-0.05409991
212	0xbcd16f26	-0.025565695
213	0xbca3b2bd	-0.01998269
214	0xbd4b3d02	-0.04961873
215	0xbd7ddfd8	-0.061981052
216	0xbd2913bc	-0.041278586
217	0xbb5bb54b	-0.0033524807
218	0xbcd92022	-0.02650458
219	0xbd4d2f0e	-0.050093703
220	0xbd0a7144	-0.033799425
221	0x3d01072b	0.031500977
222	0xbd55463e	-0.05206894
223	0xbcdd2ca4	-0.026998825
224	0xbd303526	-0.043019436
225	0xbdca2c77	-0.09871762
226	0xbdca4d07	-0.09877973
227	0xbe0171cf	-0.12641071
228	0xbb9bb300	-0.004751563
229	0xbd18ec0c	-0.037334487
230	0xbdd9a829	-0.10627777
231	0xbd45cefa	-0.04829309
232	0xbd863a85	-0.065541305
233	0x3c2db676	0.010602584
234	0x3cab44b0	0.020906776
235	0x3d8a120e	0.06741725
236	0x3c9d9c9d	0.019239718
237	0x3cd7c1b1	0.026337476
238	0x3af77321	0.0018878916
239	0xbcb2a99f	-0.021809397
240	0xbc7d51e0	-0.015461415
241	0xbc8977d6	-0.016780775
242	0xbce0dd6d	-0.027449334
243	0xbd6c60fd	-0.057709683
244	0xbc7190fd	-0.014744041
245	0xbd031073	-0.03199811
246	0xbccc097f	-0.024906872
247	0xbc99cd03	-0.018774515
248	0xbd2fb726	-0.042899273
249	0xbca60a0f	-0.020268468
250	0xbd66ac32	-0.056316562
251	0xbcf23064	-0.02956409
252	0xbda80993	-0.08204951
253	0xbd319984	-0.043359295
254	0xbca5fd7a	-0.020262469
255	0xbd9ab7b9	-0.075545736

encoder.conv2.bias f4 [32]
0	0xbc31eead	-0.010860127
1	0xbd89a497	-0.06720846
2	0xbd3a8cc6	-0.04554441
3	0xbdc8ebf7	-0.09810632
4	0xbe5de123	-0.21667914
5	0x3e5701ce	0.20996782
6	0xbdc1c072	-0.09460534
7	0xbe727eef	-0.23681234
8	0xbd7c43fa	-0.061588265
9	0xbd69d589	-0.05708841
10	0xbd9a7182	-0.07541181
11	0xbdbdeab0	-0.09273279
12	0xbf3f2828	-0.7467065
13	0x3dac759b	0.08420869
14	0xbda79562	-0.081827894
15	0xbdbe5cbf	-0.09295034
16	0xbddf6b36	-0.10909121
17	0xbb99960c	-0.0046870764
18	0xbe1ce621	-0.15322162
19	0xbe2babcc	-0.16764754
20	0xbce9fd8e	-0.028563287
21	0xbead887a	-0.33893186
22	0xbd6f64d7	-0.058445778
23	0xbdb78ab9	-0.08962006
24	0xbecb7ad4	-0.39742148
25	0xbd30f4fb	-0.04320238
26	0xbdd77add	-0.10521481
27	0xbf4e8876	-0.8067697
28	0xbe124c24	-0.14286858
29	0xbda43c8f	-0.08019363
30	0xbeb48323	-0.352563
31	0xbe4bb976	-0.19894966

encoder.conv3.weight f4 [32, 32, 16]
0	0xbd67f615	-0.056631166
1	0xbd98ce7e	-0.0746126
2	0xbdee5b9f	-0.11638569
3	0xbdb66681	-0.0890627
4	0xbd46d41c	-0.048542127
5	0xbd849fb4	-0.064757735
6	0xbd892961	-0.066973455
7	0x3ca3bd15	0.019987622
8	0x3df80121	0.1210959
9	0xbc0a91cd	-0.008457613
10	0x3d9252f1	0.07144726
11	0x3d3f96d0	0.046774685
12	0xbd8aa02a	-0.0676883
13	0xbcc1cfcd	-0.023658657
14	0xbd740d7d	-0.059583176
15	0xbdb41c3b	-0.08794447
16	0xbda9faba	-0.082997754
17	0xbd504664	-0.05084838
18	0xbda55822	-0.080734506
19	0xbd7579fa	-0.05993078
20	0xbcf20559	-0.029543566
21	0xbd6b1e7e	-0.057402126
22	0xbcb1ec42	-0.021719102
23	0xbd9c67ab	-0.076369606
24	0xbcee3795	-0.029079238
25	0xbc8e638b	-0.01738145
26	0xbd8bc137	-0.06823962
27	0xbce3c51c	-0.02780395
28	0xbdb10006	-0.086425826
29	0xbd52412b	-0.05133168
30	0xbcfa158c	-0.030527852
31	0x3dc41527	0.09574347
32	0xbdb4116c	-0.087923855
33	0xbd9335d6	-0.07188003
34	0xbd553709	-0.05205444
35	0xbdc3a539	-0.09552998
36	0xbd7b7991	-0.06139523
37	0xbdb19a68	-0.08672029
38	0xbcbca0d0	-0.0230259
39	0xbd5f6446	-0.054538988
40	0xbd52e262	-0.051485427
41	0xbca07e9b	-0.01959162
42	0xbd7aadf9	-0.06120107
43	0xbd590a93	-0.0529886
44	0xbd95d6cd	-0.073163606
45	0xbcde5dbc	-0.027144305
46	0xbd76ee2e	-0.06028574
47	0xbd566715	-0.0523444
48	0xbd666c84	-0.056255832
49	0xbdb079fc	-0.08617017
50	0xbdcfe2ef	-0.10150706
51	0xbdcf84d6	-0.10132758
52	0xbd9fe734	-0.0780777
53	0xbd342b18	-0.04398641
54	0xbca4c161	-0.020111741
55	0xbdc518d3	-0.096238755
56	0xbd70e5b8	-0.058812827
57	0xbdb78c8c	-0.08962354
58	0xbdce5bd6	-0.1007611
59	0xbdc355c0	-0.0953784
60	0xbd93762e	-0.07200275
61	0xbd144afa	-0.036204316
62	0xbd8ff606	-0.07029347
63	0xbcc01cbe	-0.023451205
64	0xbdc70f35	-0.097196974
65	0xbdaa3dac	-0.08312544
66	0xbddb9b50	-0.10722983
67	0xbde40e2b	-0.11135515
68	0xbd4e5869	-0.050377283
69	0xbdf0b990	-0.11754143
70	0xbd2a2298	-0.041536897
71	0xbd91f676	-0.07127087
72	0xbdd73cf8	-0.10509676
73	0xbda41f0f	-0.080137365
74	0xbd682893	-0.05667932
75	0xbca0634d	-0.0195786
76	0xbd9b29af	-0.0757631
77	0xbc85f267	-0.016350938
78	0xbdb4eab5	-0.08833829
79	0xbd2de8ba	-0.042458273
80	0xbdb2d588	-0.08732134
81	0xbdc190bc	-0.09451434
82	0xbd6baafd	-0.057536114
83	0xbcc0fb73	-0.0235574
84	0xbcaf5baf	-0.021406023
85	0xbdc098a3	-0.09404113
86	0xbca125fa	-0.019671429
87	0xbd5e47cf	-0.0542677
88	0xbccba37c	-0.024858229
89	0xbd8f2d7c	-0.06991097
90	0xbcb0c9ee	-0.021580663
91	0xbd86f716	-0.06590097
92	0xbdb12554	-0.08649698
93	0xbdd269f3	-0.102741145
94	0xbd4812e8	-0.048846155
95	0xbdcecb20	-0.10097337
96	0xbd7602cf	-0.060061272
97	0xbd404b6b	-0.046946924
98	0xbd80cdb7	-0.06289237
99	0xbdaaef46	-0.08346419
100	0xbd9497d2	-0.0725552
101	0xbd8a4724	-0.0675185
102	0xbd019809	-0.031639133
103	0xbdc70ccc	-0.09719238
104	0xbdb05953	-0.08610787
105	0xbdb43968	-0.08800012
106	0xbd973288	-0.07382685
107	0xbda4f7a5	-0.08055047
108	0xbd685528	-0.056721836
109	0xbdd22bc0	-0.10262251
110	0xbdc531fc	-0.096286744
111	0xbcfc2a1f	-0.030781804
112	0xbd6ebb2c	-0.05828397
113	0xbdd64f8d	-0.10464392
114	0xbbc64830	-0.006051086
115	0xbc1ba4fb	-0.009499784
116	0xbcc2729c	-0.02373629
117	0xbdb5f1b5	-0.088839926
118	0xbd56561b	-0.05232821
119	0xbd0888e4	-0.033333674
120	0x3c9d82de	0.019227441
121	0x3cc35ccd	0.023847962
122	0xbd2a0fd7	-0.041519012
123	0xbdd8cf0a	-0.105863646
124	0xbdc671f6	-0.09689705
125	0xbdb3f620	-0.08787179
126	0xbd6b4c14	-0.0574456
127	0xbde32538	-0.11091083
128	0xbda0016b	-0.078127705
129	0xbdcdc928	-0.10048133
130	0xbdab0fea	-0.08352645
131	0xbdb03c1e	-0.086052164
132	0xbdc69b19	-0.09697551
133	0xbdb7bf04	-0.0897198
134	0xbd6f2411	-0.058384005
135	0xbdcd03c5	-0.100104846
136	0xbd904a61	-0.07045437
137	0xbdb515ce	-0.088420495
138	0xbd049c30	-0.032375515
139	0xbdc1928f	-0.09451782
140	0xbcd59b57	-0.026075048
141	0xbdb00e8c	-0.085965246
142	0xbc898a28	-0.01678951
143	0xbd508a99	-0.050913427
144	0xbd4eb367	-0.05046406
145	0xbd96103a	-0.07327314
146	0xbdba01f6	-0.09082405
147	0xbd5da6a2	-0.05411399
148	0xbd601586	-0.054708026
149	0xbda86020	-0.082214594
150	0xbd24f45c	-0.0402721
151	0xbdbb95ff	-0.09159469
152	0xbdc3af68	-0.095549405
153	0xbd28ce39	-0.041212294
154	0xbd4dddde	-0.050260417
155	0xbd589e48	-0.052885324
156	0xbdca3bba	-0.09874673
157	0xbd8ce87c	-0.068802804
158	0xbdb0287a	-0.0860147
159	0xbda27168	-0.07931787
160	0xbc9e928a	-0.019356985
161	0xbd2a94c0	-0.041645765
162	0xbcc83f95	-0.02444438
163	0xbd5be631	-0.053686325
164	0xbd82551a	-0.06363888
165	0xbdab2e96	-0.08358495
166	0xbd0c926b	-0.034319323
167	0xbda12d79	-0.07870001
168	0xbc858a72	-0.016301367
169	0xbd90f401	-0.0707779
170	0xbd536f83	-0.051620018
171	0xbdc94021	-0.09826685
172	0xbc88ab71	-0.016683312
173	0xbdb8756a	-0.0900677
174	0xbd46feff	-0.048583027
175	0xbdaad866	-0.08342056
176	0xbdb44154	-0.08801523
177	0xbd041dde	-0.032255046
178	0xbd5c1d5b	-0.053738933
179	0xbdb738c6	-0.089463755
180	0xbce63043	-0.028099185
181	0xbdaef72e	-0.085432395
182	0xbd8b3069	-0.06796343
183	0xbcad00e1	-0.021118583
184	0xbdb9317d	-0.09042642
185	0xbcc13ab2	-0.023587558
186	0xbd8f075f	-0.06983828
187	0xbdd16ba2	-0.102256075
188	0xbcba98c1	-0.022777917
189	0xbcba69f2	-0.022755597
190	0xbd509293	-0.050921034
191	0xbd8bc2d8	-0.06824273
192	0xbdf20d26	-0.11818914
193	0xbd5b8b9f	-0.05359995
194	0xbdb175a5	-0.08665017
195	0xbda1fa34	-0.079090506
196	0xbdc92df4	-0.09823218
197	0xbe01259e	-0.12612006
198	0xbd9f3d2c	-0.077753395
199	0xbdbfed6a	-0.09371455
200	0xbdac8c6c	-0.08425221
201	0xbd3e3809	-0.046440158
202	0xbdf3d04f	-0.11904966
203	0xbdedaad9	-0.11604852
204	0xbd8819f9	-0.06645579
205	0xbe4559d7	-0.19272552
206	0xbe03630f	-0.12830757
207	0xbd303e69	-0.04302827
208	0xbd9ebcc6	-0.077508494
209	0xbd7cb131	-0.06169242
210	0xbcdc769c	-0.026912026
211	0x3ccdad6b	0.025107106
212	0xbce01ccb	-0.02735748
213	0xbdcef8c6	-0.101060435
214	0xbd0b3d54	-0.033994034
215	0xbd3a26ed	-0.04544728
216	0xbdbf4691	-0.09339631
217	0x3d382287	0.044954803
218	0x3ca1a1c6	0.01973046
219	0x3c97e9f0	0.018544167
220	0xbdb31bd3	-0.087455414
221	0xbd704042	-0.05865503
222	0x3cac589c	0.021038346
223	0x3d237860	0.03990972
224	0xbd77deab	-0.060515087
225	0xbdae5fa8	-0.08514339
226	0xbd9d3473	-0.076760195
227	0xbc98b94b	-0.018643042
228	0xbd712d7e	-0.058881275
229	0xbd03bcc5	-0.032162447
230	0x3d0cb5cd	0.034353066
231	0xbdd2a5c8	-0.102855265
232	0xbd765e20	-0.06014836
233	0xbd892fc8	-0.06698567
234	0xbd91ead7	-0.0712487
235	0xbca7be43	-0.020476466
236	0xbd53c55c	-0.05170189
237	0xbda3f358	-0.080053985
238	0xbd447832	-0.04796619
239	0xbd5e3f5e	-0.05425965
240	0xbd816ff4	-0.063201815
241	0xbc997dd4	-0.018736757
242	0xbd75c448	-0.06000164
243	0xbd8917fa	-0.06694026
244	0xbd2f3843	-0.042778265
245	0xbcf92335	-0.030412296
246	0xbdb9cecb	-0.09072646
247	0xbd03452d	-0.032048393
248	0xbd600e52	-0.054701157
249	0xbd0a990e	-0.03383737
250	0xbce0cbb2	-0.02744088
251	0xbd6b6035	-0.057464797
252	0xbdb67d53	-0.089106224
253	0xbd601a51	-0.054712597
254	0xbd3462ee	-0.04403966
255	0xbdad6a15	-0.08467499

encoder.conv3.bias f4 [32]
0	0xbccd4ad7	-0.0250601
1	0xbe1fd5fb	-0.15608971
2	0xbe03dd2f	-0.12877344
3	0xbdcbff80	-0.09960842
4	0xbdbe0514	-0.09278312
5	0xbe38ff54	-0.1806615
6	0xbc7d91c9	-0.015476652
7	0xbdd03824	-0.10166958
8	0xbdcd79ff	-0.100330345
9	0xbe67bfbb	-0.22631733
10	0xbd9d665c	-0.07685539
11	0xbd897bbb	-0.06713053
12	0xbe11c3f1	-0.14234902
13	0xbe31d2a7	-0.17365514
14	0xbe0d055d	-0.13771577
15	0xbe17c4cc	-0.14821166
16	0xbdd3abdf	-0.10335516
17	0xbe041f8a	-0.12902656
18	0xbb9df7b4	-0.0048207883
19	0xbde924b9	-0.113839574
20	0xbdea8c95	-0.11452595
21	0xbc5e42b9	-0.013565713
22	0xbdfb57c5	-0.122726
23	0xbda08337	-0.07837527
24	0xbdc2a816	-0.09504716
25	0xbe69ad30	-0.22819972
26	0xbdacc18d	-0.084353544
27	0xbdeaa0bc	-0.11456439
28	0xbe2f7a1b	-0.17136423
29	0xbcd6bcd5	-0.026213089
30	0xbbb09488	-0.0053888
31	0xbdbf20eb	-0.093324505

encoder.dense1.weight f4 [64, 2400]
0	0x3da8fada	0.08250971
1	0x3d2b40ed	0.041809965
2	0xbd576cbb	-0.052593928
3	0x3dbca99e	0.092120394
4	0xbd5072e9	-0.050890837
5	0xbd119cab	-0.0355498
6	0x3d485ae6	0.048914813
7	0x3d5e5688	0.05428174
8	0x3db5e90e	0.08882342
9	0xbd475797	-0.048667517
10	0xbd9c7646	-0.07639746
11	0x3cf6cd1f	0.030127106
12	0x3d52274e	0.051307015
13	0x3b7d09e4	0.0038610632
14	0x3db63c72	0.08898248
15	0xbd632aa2	-0.05546058
16	0xbd224f88	-0.03962663
17	0x3d3795e8	0.044820696
18	0x3d92cdea	0.07168181
19	0xbd7661fd	-0.060152043
20	0xbd78eb27	-0.060771134
21	0x3d600763	0.054694545
22	0x3d2bfc80	0.04198885
23	0x3da752a8	0.08170062
24	0xbd3536ba	-0.044241644
25	0xbd89a0fc	-0.067201585
26	0x3d4825eb	0.048864286
27	0x3d519349	0.051165853
28	0x3da28ebe	0.07937382
29	0xbd76ddef	-0.060270246
30	0xbd31ad4d	-0.043378163
31	0xbd9031b3	-0.070407294
32	0xbd895c90	-0.06707108
33	0x3d07d97f	0.033166405
34	0x3d7a357c	0.061086163
35	0xbd2450bd	-0.04011606
36	0xbd30eff4	-0.043197587
37	0x3dd652c4	0.10465005
38	0x3d9a232f	0.07526242
39	0xbd43bc12	-0.04778678
40	0x3d885f56	0.06658809
41	0x3d8328b7	0.0640425
42	0xbd767012	-0.060165472
43	0x3dbe1448	0.09281212
44	0xbda28271	-0.07935036
45	0xbd63b3fb	-0.055591565
46	0x3ce7785d	0.028255636
47	0x3d7f2026	0.06228652
48	0x3d369e74	0.044584706
49	0xbd5922eb	-0.053011816
50	0xbd2c317b	-0.042039376
51	0x3c1b58ff	0.009481668
52	0x3a063d93	0.00051208696
53	0xbd163f5a	-0.03668151
54	0xbd415c17	-0.047206964
55	0x3d834836	0.064102575
56	0xbd84b7ac	-0.06480345
57	0xbd7a8e58	-0.061170906
58	0xbd931193	-0.071810864
59	0xbdad7fd3	-0.08471646
60	0xbd4083b2	-0.047000594
61	0xb9f53471	-0.00046769113
62	0xbd85b98c	-0.06529531
63	0xbd9e4067	-0.077271275
64	0xbd7a2e16	-0.061079107
65	0x3d2d2b6b	0.042277735
66	0x3c8779ff	0.016537664
67	0xbd0285d0	-0.031865895
68	0xbd896b59	-0.06709928
69	0x3d8a8e17	0.06765383
70	0xbce58b6b	-0.028020581
71	0x3dba32f5	0.090917505
72	0x3d183820	0.0371629
73	0x3c9a920b	0.018868467
74	0xbd8e6f33	-0.06954803
75	0xa9ba9d60	-8.2873595e-14
76	0xbd86df0e	-0.06585513
77	0x3d896869	0.06709368
78	0x2ac928bc	3.5733038e-13
79	0x3d4d5dd0	0.050138295
80	0xbd3f3631	-0.04668254
81	0x2ab4211b	3.1997395e-13
82	0xa945e9b2	-4.3945486e-14
83	0x3d89d7ba	0.067306
84	0xbd390754	-0.045173004
85	0x3d56f89f	0.052483197
86	0x2adc484b	3.9130014e-13
87	0xbd93c4c3	-0.07215264
88	0xbd4c1e08	-0.049833328
89	0xaa607e6a	-1.9939055e-13
90	0x3cad55f6	0.021159153
91	0x3d2cbeba	0.04217408
92	0xbd2e1de1	-0.042508963
93	0x3d981b49	0.07427079
94	0xbd6e920f	-0.05824476
95	0x3d9bd281	0.0760851
96	0x3ce27686	0.027644407
97	0xbd9003e8	-0.07031995
98	0x3d2aa2d3	0.041659188
99	0xbd1df4c4	-0.038563505
100	0xbd45424e	-0.048158936
101	0x3d2d4359	0.042300556
102	0xbd307623	-0.043081414
103	0x3d7ec573	0.06220002
104	0x3d1d8823	0.03845991
105	0x3d85d22b	0.06534227
106	0x3d6bf38a	0.057605304
107	0xbd91a61c	-0.07111761
108	0xbd9be96d	-0.07612882
109	0x3d2aefe8	0.0417327
110	0x3d5074a3	0.050892483
111	0x3bc13eba	0.00589737
112	0x2e470dbb	4.5259557e-11
113	0x3d4d3ca5	0.050106663
114	0xbd2d83f2	-0.04236216
115	0xbb13c2eb	-0.00225466
116	0x3e5ca942	0.21548942
117	0x3e1f24dc	0.15541404
118	0xbd085c16	-0.033290945
119	0xa9acf100	-7.680141e-14
120	0x3b113df1	0.0022162164
121	0xbd43dc2e	-0.0478174
122	0xbd8df941	-0.06932307
123	0xbd1d6432	-0.03842563
124	0xbd6272c9	-0.05528525
125	0x3d90cccc	0.07070312
126	0xbd988baa	-0.07448514
127	0x3d12ba95	0.03582247
128	0xbd275a37	-0.04085752
129	0xbcaa30bf	-0.020775197
130	0xbd37a120	-0.044831395
131	0x3d374a7e	0.044748776
132	0xbd238d4b	-0.03992967
133	0xbd53b445	-0.05168559
134	0xbd9846b0	-0.074353576
135	0xbd96a541	-0.073557384
136	0x3d1d4487	0.03839543
137	0xbd78142c	-0.060566112
138	0xbd878cd9	-0.066186614
139	0xbd475a00	-0.048669815
140	0xbe322b9a	-0.17399445
141	0xbd9186c6	-0.07105784
142	0x3d16a0da	0.036774494
143	0xbd8d4dbe	-0.06899594
144	0x3ccd2620	0.025042593
145	0xbd5f8272	-0.05456776
146	0xbd9e1a85	-0.07719902
147	0xbd4fb515	-0.050709803
148	0xbe047e9f	-0.12938927
149	0x3c45e695	0.012078901
150	0xbcd38f74	-0.02582524
151	0xbdd0a77a	-0.101881936
152	0xbbf8dec1	-0.0075949137
153	0xbc8323e9	-0.016008334
154	0xbd960cdf	-0.07326674
155	0xbd9bde97	-0.07610815
156	0xbd9f1b68	-0.07768899
157	0x3c897fe6	0.01678462
158	0xbd5597ac	-0.0521466
159	0x3c86c1e9	0.016449885
160	0x3cd1cf0b	0.025611421
161	0xbc7e85f7	-0.015534869
162	0xbd905015	-0.070465244
163	0xbdc1cb50	-0.09462607
164	0xbd0fee93	-0.03513963
165	0xbd860312	-0.06543554
166	0xbcb73857	-0.022365732
167	0xbc3cfbb4	-0.01153462
168	0xbd990eca	-0.07473524
169	0xbc448963	-0.011995646
170	0xbd6d88c3	-0.057991754
171	0xbdaa587c	-0.08317658
172	0xbcb6b076	-0.02230094
173	0xbd915a54	-0.07097307
174	0xbd89ea3d	-0.067341305
175	0xbd9789c0	-0.073993206
176	0xbc12b9c0	-0.008955419
177	0xbc5e02aa	-0.01355044
178	0xbcac558c	-0.021036886
179	0x3da87203	0.08224871
180	0xbd51972d	-0.051169563
181	0xbd996090	-0.07489121
182	0xbd8993c2	-0.06717636
183	0x3dbd3280	0.09238148
184	0xbd879b33	-0.06621399
185	0xbda84bc8	-0.08217579
186	0xbd17d018	-0.037063688
187	0xbda35ea6	-0.07977037
188	0xbd9f9dc2	-0.07793762
189	0xbdb514f8	-0.0884189
190	0xbd937f41	-0.07202006
191	0xbdbfc458	-0.093636215
192	0x3c8e863e	0.017397996
193	0xbc0fe908	-0.008783586
194	0xbd958e2f	-0.0730251
195	0x3d573f55	0.052550633
196	0xbd9e0c4e	-0.07717191
197	0xbd6358f6	-0.05550476
198	0xbd8869f9	-0.06660838
199	0xbd8f7630	-0.07004964
200	0xbd989c46	-0.07451682
201	0x3c80ce8d	0.015723491
202	0x3d1425ef	0.03616899
203	0xbd4f9bcf	-0.0506857
204	0xbcd64167	-0.026154233
205	0x3d8250eb	0.0636309
206	0xbd7e347e	-0.06206178
207	0x3d3b0cf8	0.045666665
208	0xbd970ea3	-0.073758386
209	0xbd9ce1bb	-0.07660242
210	0xbd538062	-0.051636107
211	0xbd42875a	-0.047492363
212	0xbd89ac1c	-0.067222804
213	0xbd87b804	-0.06626895
214	0xbd8a62d5	-0.06757132
215	0xbd86297b	-0.065508805
216	0xbda1115e	-0.07864641
217	0xbd29b622	-0.04143346
218	0xbd894336	-0.067022726
219	0xbd7bc06d	-0.06146281
220	0xbd9fe4ee	-0.07807337
221	0xbd4c7d54	-0.04992421
222	0x3d77e8b4	0.060524657
223	0xbd6cf91f	-0.057854768
224	0xbd49fe75	-0.049314935
225	0xbcb0c6d3	-0.021579182
226	0x3bb5d684	0.005549254
227	0x3cf589c8	0.029972926
228	0xbdae558c	-0.085124105
229	0xbdb6ff65	-0.089354314
230	0xbcdb1af2	-0.026746247
231	0xbc87d12c	-0.016579233
232	0x3b5c2f66	0.0033597588
233	0xbdd1ef2c	-0.102506965
234	0xbcc55c11	-0.024091752
235	0xbd1da9b9	-0.03849194
236	0xbd86f553	-0.06589761
237	0xbce277ac	-0.027644955
238	0xbd8951e6	-0.06705074
239	0xbd1885f5	-0.037237126
240	0xbd6970c1	-0.056992296
241	0xbaf3e4bd	-0.0018607598
242	0xbc870dee	-0.016486134
243	0xbdaa708a	-0.083222464
244	0xbd996756	-0.07490413
245	0xbd7c3f4d	-0.061583806
246	0xbdc03c6b	-0.09386524
247	0xbdc97985	-0.09837631
248	0xbd9362fa	-0.07196613
249	0xbdaa6bdb	-0.08321353
250	0xbda9b356	-0.08286159
251	0xbd256761	-0.040381793
252	0xbbf3c97c	-0.0074397903
253	0xbc33bba2	-0.010970028
254	0xbc81ba0b	-0.015835783
255	0xbdb0298a	-0.08601673

encoder.dense1.bias f4 [64]
0	0x3d9ec846	0.07753043
1	0x3fb3b0d6	1.4038341
2	0x3cc977e2	0.024593297
3	0x3f31afdb	0.6940896
4	0x3c9e1d8b	0.019301197
5	0x3f89c8c3	1.0764393
6	0x3d89c759	0.06727476
7	0x3e223b66	0.15842971
8	0x3f088d57	0.5334067
9	0xbdce1f45	-0.10064558
10	0x3f6644c0	0.89948654
11	0x3e132b52	0.14371994
12	0x3f2c5eab	0.6733195
13	0x3f7c10de	0.9846324
14	0xbe611c2c	-0.21983403
15	0xbdb8639e	-0.090033755
16	0x3f098758	0.53722143
17	0x3edb6bf7	0.42855808
18	0x3de7bcae	0.11315285
19	0x3f84c956	1.0373943
20	0x3f9882c6	1.1914909
21	0x3e7fcc8d	0.24980374
22	0x3f802f02	1.0014346
23	0x3e4094bd	0.18806739
24	0x3e15be73	0.14623432
25	0x3d8a1497	0.067422085
26	0x3e34b5db	0.17647497
27	0x3db49de7	0.0881918
28	0x3f131a3a	0.57461894
29	0x3f6a8d7d	0.91622144
30	0x3f0b20b7	0.54346794
31	0x3e069cbb	0.13145725
32	0xbe274e3d	-0.1633844
33	0x3eebbf66	0.46044463
34	0x3eb0cce4	0.3453132
35	0x3f96e969	1.1789981
36	0x3f7bd244	0.98367715
37	0x3e0eb3f1	0.1393583
38	0x3e8fbc78	0.28073478
39	0x3d44261f	0.047887918
40	0x3f681727	0.9066033
41	0x3fa5af91	1.2944204
42	0x3ec5ea86	0.3865549
43	0x3f8e1c0f	1.1102313
44	0x3e3a0713	0.18166761
45	0x3e408892	0.18802097
46	0x3f359fac	0.70946765
47	0x3f0e7b62	0.5565702
48	0x3f53bbb7	0.82708305
49	0xbc849ecc	-0.016189002
50	0x3ec83b23	0.39107618
51	0x3f7151e9	0.9426561
52	0x3f6680cf	0.90040296
53	0x3ecd1fd2	0.4006334
54	0xbe5ddef3	-0.2166708
55	0x3eb84f02	0.35997778
56	0x3f8288f9	1.0198051
57	0x3f7c1010	0.9846201
58	0xbe10d212	-0.14142635
59	0x3f370954	0.7149861
60	0x3eed8230	0.46388388
61	0x3ebf9ce6	0.37424392
62	0x3fc219e7	1.5164155
63	0x3f6b8a3f	0.9200782

encoder.encoder1.0.weight f4 [32, 1, 16]
0	0xbe1feeae	-0.15618393
1	0xbc41cb21	-0.011828215
2	0xbe51a79f	-0.20474099
3	0xbdf6e6cb	-0.12055739
4	0xbd6dc3b7	-0.058047976
5	0x3c76d86c	0.015066247
6	0x3e0bf66b	0.1366822
7	0xbe81f60a	-0.25383025
8	0xbc0469ac	-0.008081835
9	0x3c4657d3	0.0121059
10	0xbd5bf809	-0.05370334
11	0xbe8d2761	-0.27569106
12	0xbded3692	-0.11582674
13	0xbe884cd9	-0.2662113
14	0xbdf22a36	-0.11824457
15	0xbd292d80	-0.041303158
16	0xbe56e53c	-0.20985883
17	0xbe343807	-0.17599498
18	0x3dc6920d	0.09695826
19	0xbd413ec7	-0.04717901
20	0x3e0986e6	0.13430366
21	0xbdbaf108	-0.09128004
22	0xbe96ce6b	-0.2945436
23	0xbd5fce6c	-0.05464022
24	0x3dda1de6	0.10650234
25	0x3df838df	0.12120222
26	0xbd9d6e10	-0.076870084
27	0x3dcb5099	0.09927482
28	0xbe76c4d0	-0.24098516
29	0xbe1f8d31	-0.15581204
30	0xbde87c3d	-0.113518216
31	0xbdc06ddd	-0.09395955
32	0xbd25273d	-0.040320624
33	0xbe517b78	-0.20457256
34	0x3d8adf4b	0.06780871
35	0x3ddca75e	0.1077411
36	0x3e08f499	0.13374557
37	0xbe3145c6	-0.17311773
38	0xbe8e18a5	-0.27753177
39	0xbdfdccf0	-0.12392604
40	0xbe14ae1f	-0.14519547
41	0xbdb5c942	-0.088762775
42	0xbe87b2dc	-0.26503646
43	0x3c931b1e	0.017957266
44	0xbbf15b7e	-0.007365643
45	0x3d8a608a	0.067566946
46	0x3d52e4e7	0.05148783
47	0xbde76289	-0.11298091
48	0x3d71416e	0.05890029
49	0x3d9caf06	0.076505706
50	0xbcb8249a	-0.02247839
51	0xbe97db77	-0.29659626
52	0xbda34dec	-0.07973847
53	0xbca87c5b	-0.02056711
54	0x3d2799a6	0.040918015
55	0x3e719010	0.23590112
56	0xbe08dafc	-0.13364786
57	0xba786db6	-0.00094767974
58	0xbe734dfd	-0.23760219
59	0x3cd4b3ef	0.025964705
60	0x3bcb1d50	0.0061985627
61	0x3cb624b3	0.022234296
62	0xbdf5ca17	-0.12001436
63	0xbdbe7a5a	-0.093006805
64	0xbc973649	-0.018458502
65	0xbec2545a	-0.3795498
66	0xbe841d58	-0.25803638
67	0xbcb72f7a	-0.022361506
68	0xbe743a5b	-0.23850386
69	0xbdd4c021	-0.10388208
70	0x3df73a34	0.12071648
71	0xbd2e7278	-0.042589635
72	0xbe7adbc6	-0.244979
73	0xbeb15db3	-0.346418
74	0xbe2216ce	-0.15829012
75	0xbe76e0f1	-0.24109246
76	0xbea1168b	-0.3146251
77	0xbd32522d	-0.0435354
78	0x3d8064be	0.06269215
79	0x3a3c385c	0.0007180029
80	0x3dd25023	0.10269191
81	0xbdaf5d2c	-0.08562693
82	0x3dced915	0.10099999
83	0x3c5bb28a	0.013409266
84	0xbc9f1b41	-0.019422175
85	0xbe42a8c3	-0.1900969
86	0xbda7f667	-0.082012944
87	0xbdd54a2d	-0.104145385
88	0xbe5aba14	-0.21360046
89	0x3e426732	0.18984678
90	0xbe2eda8f	-0.17075561
91	0xbe888416	-0.26663274
92	0x3d1635c3	0.036672365
93	0x3e3cf8d0	0.1845429
94	0xbde49129	-0.111604996
95	0xbe73c014	-0.2380374
96	0xbe84648f	-0.2585797
97	0x3dc57962	0.096422926
98	0xbe148db0	-0.14507174
99	0xbc1d3da8	-0.0095972195
100	0xbb6c12ac	-0.0036021871
101	0xbd98a69c	-0.07453653
102	0x3d8b2e5a	0.0679595
103	0xbd4b98dd	-0.04970633
104	0x3b796aa3	0.0038057945
105	0xbd1e68f8	-0.038674325
106	0xbd9910f5	-0.074739374
107	0xbd5e8902	-0.05432988
108	0xbe3c0585	-0.1836148
109	0xbe9d105b	-0.3067654
110	0x3ddb6606	0.10712819
111	0x3dae6345	0.08515028
112	0xbe9da684	-0.30791104
113	0xbe55e886	-0.20889482
114	0x3d6fac4b	0.05851392
115	0xbe40241d	-0.18763776
116	0xbd0540f5	-0.03253265
117	0x3c067f21	0.008209021
118	0xbe80a248	-0.2512381
119	0xbdb54f8f	-0.08853065
120	0xbd727f2b	-0.059203308
121	0xbe034cab	-0.12822215
122	0x3c9249ea	0.01785751
123	0x3dae147f	0.08500003
124	0xbdeee82b	-0.11665376
125	0xbe6f2eeb	-0.23357742
126	0xbcba768f	-0.022761611
127	0xbe4aa883	-0.19790845
128	0xbe010036	-0.12597737
129	0xbe6c61b8	-0.23084152
130	0x3dc63607	0.09678274
131	0xbe2ec649	-0.17067827
132	0xbdd17480	-0.10227299
133	0xbd598547	-0.05310562
134	0xbe3ae30b	-0.18250673
135	0x3d8d9899	0.06913871
136	0x3d978f57	0.07400387
137	0xbd953615	-0.07285706
138	0xbe322be1	-0.17399551
139	0xbe50948f	-0.2036917
140	0xbe198196	-0.1499084
141	0xbea1e0ad	-0.31616727
142	0xbeb6f1db	-0.35731396
143	0xbe4cfe37	-0.2001885
144	0xbdc6c8d3	-0.09706273
145	0xbe7974a0	-0.24360895
146	0xbeb50239	-0.35353258
147	0x3c750509	0.014954814
148	0xbe91a56a	-0.28446513
149	0xbceda127	-0.029007507
150	0x3d1dbecf	0.038512047
151	0x3c470739	0.012147718
152	0xbda92fb1	-0.082610495
153	0x3c0d5ccf	0.008628084
154	0xbdfb15c9	-0.122600146
155	0xbd52e942	-0.051491983
156	0x3d8a7efb	0.06762501
157	0xbe8cf0c0	-0.27527428
158	0xbebc34f8	-0.36759162
159	0xbea5f9dd	-0.32417193
160	0xbde6e0d6	-0.11273353
161	0xbe2d23ba	-0.1690816
162	0xbe8483f5	-0.25881925
163	0x3d98dc6d	0.07463918
164	0x3e1e12d4	0.1543687
165	0xbd8c4cc0	-0.068505764
166	0xbdd5c7ef	-0.10438525
167	0xbc2f1656	-0.010686478
168	0x3c08d4e3	0.008351537
169	0xbda6d348	-0.081457675
170	0xbe5ed743	-0.21761803
171	0xbcb3bc57	-0.021940393
172	0xbe34f367	-0.17670976
173	0xbde28a77	-0.11061566
174	0x3d761e0d	0.060087252
175	0xbe64a6af	-0.2232921
176	0xbe8748c2	-0.26422697
177	0xbd1adde1	-0.037809256
178	0xbe8b80ce	-0.27246708
179	0xbe645f63	-0.22302012
180	0xbe976cad	-0.295751
181	0xbe9b1173	-0.3028675
182	0x3bc093c0	0.005876988
183	0xbba5e013	-0.005062112
184	0xbdf0460f	-0.117321126
185	0x3d39aa4c	0.045328423
186	0xbe529113	-0.20563154
187	0xbd5a8ba3	-0.053355824
188	0xbe97800e	-0.29589885
189	0xbda132fc	-0.078710526
190	0xbe0b90af	-0.13629411
191	0xbd2336b0	-0.039847076
192	0xbbf470c6	-0.0074597327
193	0x3e3215e0	0.17391157
194	0xbcb72887	-0.022358192
195	0x3e627deb	0.22118346
196	0xbd891bf5	-0.066947855
197	0x3c8cebf4	0.017202355
198	0x3c035a0b	0.008017073
199	0xbc801d2b	-0.015638908
200	0x3d9f10b7	0.0776686
201	0xbd97a065	-0.0740364
202	0x3da0e023	0.07855251
203	0xbe80c20e	-0.25148052
204	0xbd096cef	-0.033551153
205	0x3a28bdfb	0.00064370007
206	0xbe6f54d6	-0.23372206
207	0xbeb9d1e9	-0.3629296
208	0xbdb911c0	-0.09036589
209	0xbe598ad6	-0.21244368
210	0xbdf81bbf	-0.12114667
211	0x3d36d320	0.04463494
212	0xbd1fec45	-0.039043684
213	0xbe77fa1e	-0.24216506
214	0x3d385ab0	0.04500836
215	0xbecbf85a	-0.39837915
216	0xbe8fdd74	-0.28098643
217	0xbd1a1d14	-0.037625387
218	0xbe3584aa	-0.17726389
219	0x3d8f48c3	0.069963
220	0xbd9a2ace	-0.075276956
221	0xbe1e0bc5	-0.15434177
222	0x3dca5848	0.098801196
223	0xbe83ac34	-0.25717318
224	0xbdcc22bb	-0.09967562
225	0xbe8f9380	-0.2804222
226	0xbdf26573	-0.11835756
227	0xbd0d78cf	-0.03453904
228	0xbec505cd	-0.38480988
229	0xbebb5c51	-0.3659387
230	0xbe6ccf95	-0.23126061
231	0xbe0efb32	-0.13963011
232	0x3cdecd82	0.027197603
233	0xbe5770d4	-0.21039134
234	0xbe377e0c	-0.17919177
235	0xbd356992	-0.044290133
236	0x3d3f0388	0.046634227
237	0x3dad7ed0	0.08471453
238	0xbe07a748	-0.13247406
239	0xbe1e7a13	-0.15476255
240	0xbe0baaab	-0.13639323
241	0xbe68cd58	-0.22734582
242	0xbe42875f	-0.18996952
243	0x3d3fdf0f	0.046843585
244	0x3de34040	0.11096239
245	0xbe144d1b	-0.14482538
246	0x3dcc7506	0.09983258
247	0xbe531cc0	-0.20616436
248	0xbd40b995	-0.047051985
249	0x3d951fbc	0.072814435
250	0x3b8a6cb9	0.0042243865
251	0xbe9c1dcb	-0.3049148
252	0x3d0126ce	0.031531148
253	0xbea1fe2c	-0.3163923
254	0xbe3d9ddd	-0.18517251
255	0xbe6075d4	-0.21919948

encoder.encoder1.0.bias f4 [32]
0	0xbf11da3c	-0.56973624
1	0xbe2bc79e	-0.16775367
2	0xbe963e15	-0.2934424
3	0xbf6cd710	-0.9251566
4	0x3de8c604	0.113658935
5	0xbe84274f	-0.2581124
6	0xbed47257	-0.41493484
7	0xbed2e031	-0.4118667
8	0x3f2416c7	0.64097255
9	0xbe90dbae	-0.28292602
10	0xbf005cec	-0.5014179
11	0xbec32227	-0.38111994
12	0xbf975d4a	-1.1825345
13	0xbed0710a	-0.40711242
14	0xbe55b9a1	-0.20871593
15	0xbecb3839	-0.39691332
16	0x3ec6cdca	0.3882888
17	0xbe768cd0	-0.24077153
18	0xbee62168	-0.44947362
19	0xbeae5e33	-0.34056243
20	0xbf513d30	-0.8173399
21	0x3df8ed9d	0.12154696
22	0xbe788e30	-0.2427299
23	0xbeaecb7f	-0.3413963
24	0x3ddf9dfe	0.109188065
25	0xbea3aaa3	-0.31966123
26	0xbe755f6a	-0.23962179
27	0xbed88044	-0.4228536
28	0xbf1258ba	-0.57166636
29	0xbe960b04	-0.2930528
30	0xbe92412d	-0.2856535
31	0xbe33f5dd	-0.17574258

encoder.encoder1.2.weight f4 [32, 32, 16]
0	0xbd58ad4f	-0.052899655
1	0x3c529bee	0.012854559
2	0x3c905871	0.017620297
3	0xbcde48a2	-0.027134243
4	0xbdc920c3	-0.09820702
5	0x3d20c3f1	0.039249364
6	0xbd1e83d2	-0.038699932
7	0xbd1595cd	-0.036519814
8	0x3d565504	0.05232717
9	0x3cd80c6c	0.02637311
10	0xbd026fd7	-0.03184494
11	0xbbe3ce52	-0.0069520855
12	0xbd4ab69b	-0.049490552
13	0xbd238ea5	-0.03993096
14	0x3d8e30f9	0.069429345
15	0xbd490e06	-0.04908564
16	0x3cd83823	0.026393956
17	0x3b657cfa	0.0035017119
18	0xbc9742df	-0.018464504
19	0x3cc85f7b	0.024459591
20	0xbc78e7a1	-0.015191943
21	0x3a537d53	0.0008067686
22	0xbd2f9e74	-0.042875722
23	0xbd3bad81	-0.045819763
24	0x3cb1f59c	0.021723561
25	0x3c3228b8	0.010873966
26	0xbd9ceea3	-0.07662704
27	0xbdc4d558	-0.096110046
28	0xbc4be4d6	-0.012444695
29	0xbd33729b	-0.04381047
30	0x3bc77fc3	0.0060882284
31	0xbc47be1d	-0.012191323
32	0xbdb38394	-0.08765331
33	0xbdeb30a5	-0.114838876
34	0xbd9bbdb1	-0.0760454
35	0xbd0396b1	-0.032126132
36	0xbdcd373c	-0.10020301
37	0x3bc82f09	0.0061091227
38	0x3c911bb1	0.0177134
39	0xbcd16707	-0.025561823
40	0xbd1dbaa8	-0.038508087
41	0xbc55071a	-0.013002181
42	0x3b26e8c2	0.0025468324
43	0xbcb013c6	-0.021493804
44	0x3b93c17d	0.0045091496
45	0xbceed194	-0.029152669
46	0xbd135bad	-0.0359761
47	0x3cc210c5	0.023689637
48	0xbd9f7e50	-0.07787764
49	0xbdb4ff24	-0.08837727
50	0xbd5678f5	-0.052361447
51	0xbdb49af9	-0.08818621
52	0xbde84a86	-0.11342339
53	0xbd8d2679	-0.06892104
54	0xbd0cf968	-0.03441754
55	0xbd5b297a	-0.053506352
56	0xbd792a9d	-0.060831655
57	0x3ccd9621	0.025096001
58	0xba22a49a	-0.0006204337
59	0xbc87dfa6	-0.016586136
60	0xbd76a1ef	-0.060213026
61	0xbddf361c	-0.108989924
62	0xbd9931c2	-0.07480194
63	0xbb770aee	-0.0037695724
64	0x3d7fecb1	0.062481586
65	0xbd5f5acf	-0.05452996
66	0xbdce0788	-0.1006003
67	0xbd1d3069	-0.038376246
68	0xbda0ae02	-0.07845689
69	0xbce2d048	-0.027687207
70	0xbdbf6608	-0.09345633
71	0xbd1b00ee	-0.037842683
72	0xbd6cea43	-0.057840597
73	0xbd8486e0	-0.06471038
74	0xbceab85b	-0.02865236
75	0xbc5aa2fa	-0.013344521
76	0xbc6f52ca	-0.014607141
77	0xbbfe8d15	-0.007768283
78	0xbd1455b7	-0.036214557
79	0xbd5500ce	-0.05200272
80	0xbd9e7707	-0.077375464
81	0xbd361215	-0.044450838
82	0xbdbfaf08	-0.093595564
83	0xbcd5c584	-0.02609516
84	0xbda0dba7	-0.07854395
85	0xbcd3e3bb	-0.025865426
86	0x3bc34d7d	0.005960165
87	0xbc8475fb	-0.016169539
88	0xbc3a6296	-0.011376044
89	0xbbf96dec	-0.0076119807
90	0xbd89d21d	-0.06729529
91	0x3cefd830	0.02927789
92	0xbd141f79	-0.036162827
93	0xbd909fb1	-0.07061709
94	0x3b8417db	0.004031164
95	0xbd99e9ab	-0.07515272
96	0xbd306954	-0.0430692
97	0x3c13ded8	0.009025298
98	0xbb8e449f	-0.0043416764
99	0xbd43f58b	-0.04784159
100	0x3c82f688	0.015986696
101	0xbd3bdc0c	-0.04586415
102	0xbd4002d2	-0.04687769
103	0xbd93a2e8	-0.07208806
104	0xbd7309be	-0.059335463
105	0xbd49c1c3	-0.04925705
106	0xbd4cde66	-0.050016783
107	0xbc9e14ae	-0.01929697
108	0xbd7e98b0	-0.062157333
109	0xbc1f2e25	-0.009715592
110	0xbdc11dc0	-0.094295025
111	0x3d1dd0d8	0.038529247
112	0x3c8092af	0.015694944
113	0xbce134f6	-0.027491074
114	0xbdf50a59	-0.11964864
115	0xbd0a61cb	-0.03378467
116	0xbda18de7	-0.07888394
117	0xbc63e233	-0.013908911
118	0x3c4b93a8	0.012425341
119	0xbd27faa5	-0.041010518
120	0xbd371ee6	-0.0447072
121	0xbcf70da8	-0.030157879
122	0xbd3b3496	-0.045704447
123	0xbd890274	-0.06689921
124	0xbcae0576	-0.021242838
125	0x3ced64e1	0.028978767
126	0xbd9dbe22	-0.077022806
127	0xbd3cff83	-0.046142112
128	0xbd109372	-0.035296865
129	0xbd30e274	-0.043184713
130	0x3c83c998	0.016087338
131	0xbc10a91c	-0.008829381
132	0xbd6d0808	-0.057868987
133	0xbce801a7	-0.0283211
134	0xbda56b35	-0.08077089
135	0xbcf66369	-0.0300767
136	0x3e333575	0.17500861
137	0x3dcf2ad7	0.10115593
138	0x3da82cd6	0.08211677
139	0xbcb60981	-0.022221329
140	0xbd3aadcc	-0.045575902
141	0xbc1415c5	-0.009038393
142	0xbdc024eb	-0.093820415
143	0xbd3535ee	-0.044240884
144	0xbd54f472	-0.051990934
145	0xbd68e324	-0.056857243
146	0x3cbc5ef8	0.022994503
147	0xbd536b34	-0.05161591
148	0xbd675ca7	-0.056484845
149	0xbd2b3baf	-0.041804966
150	0xbdac3336	-0.08408205
151	0x3d1065dc	0.03525339
152	0xbd504095	-0.05084284
153	0x3d7a7892	0.06115014
154	0x3a8e4665	0.001085472
155	0xbcd06607	-0.025439275
156	0xbd31d71c	-0.043418035
157	0xbd5cd3a7	-0.053912785
158	0xbcba4d58	-0.022741958
159	0xbd452d56	-0.04813894
160	0xbd8af3e1	-0.067847975
161	0xbc844daa	-0.016150314
162	0xbd80f245	-0.06296209
163	0x3bfda586	0.007740679
164	0x3c203c14	0.009779949
165	0x3a1a4641	0.00058851024
166	0xbd996d4c	-0.0749155
167	0xbd1a67e0	-0.03769672
168	0xbd7b91cd	-0.061418343
169	0x3da06b05	0.07832912
170	0x3d294104	0.04132177
171	0xbddd9480	-0.1081934
172	0xbc3a010e	-0.0113527905
173	0xbd085ce8	-0.033291727
174	0xbd91062a	-0.07081254
175	0xbdbf74f2	-0.093484774
176	0xbbddb43c	-0.0067658704
177	0x3cd274b9	0.025690423
178	0xbc23298c	-0.009958636
179	0x39b14888	0.0003381411
180	0x3cb5fb16	0.022214454
181	0xbbd9f227	-0.0066511813
182	0xbde53edb	-0.11193629
183	0x3d9257e7	0.07145672
184	0xbd6098f6	-0.054833375
185	0xbd149062	-0.036270507
186	0x3d902e1b	0.07040044
187	0x3d22c46c	0.039738104
188	0xbda4568e	-0.080243215
189	0xbd9eebc6	-0.07759814
190	0xbca96874	-0.02067969
191	0xbd16beda	-0.036803104
192	0x39589dc0	0.00020658132
193	0xbcce61e6	-0.025193166
194	0xbd0ff763	-0.035148036
195	0xbdc4b5e1	-0.09605003
196	0xbcd8216f	-0.02638313
197	0xbd07f7f9	-0.03319547
198	0xbdc48aa3	-0.09596755
199	0x3c09d558	0.0084126815
200	0xbba84722	-0.005135433
201	0x3c2f9652	0.0107169915
202	0xbcff2efb	-0.031150332
203	0xbb1e4b5d	-0.0024153807
204	0xbdaf66cf	-0.08564531
205	0x3c9ee552	0.019396458
206	0x3c7617b0	0.015020296
207	0xbd3dc37d	-0.04632901
208	0xbd3a755a	-0.04552207
209	0xbd2f6806	-0.042823814
210	0xbca94246	-0.020661484
211	0xbd5d97de	-0.05409991
212	0xbcd16f26	-0.025565695
213	0xbca3b2bd	-0.01998269
214	0xbd4b3d02	-0.04961873
215	0xbd7ddfd8	-0.061981052
216	0xbd2913bc	-0.041278586
217	0xbb5bb54b	-0.0033524807
218	0xbcd92022	-0.02650458
219	0xbd4d2f0e	-0.050093703
220	0xbd0a7144	-0.033799425
221	0x3d01072b	0.031500977
222	0xbd55463e	-0.05206894
223	0xbcdd2ca4	-0.026998825
224	0xbd303526	-0.043019436
225	0xbdca2c77	-0.09871762
226	0xbdca4d07	-0.09877973
227	0xbe0171cf	-0.12641071
228	0xbb9bb300	-0.004751563
229	0xbd18ec0c	-0.037334487
230	0xbdd9a829	-0.10627777
231	0xbd45cefa	-0.04829309
232	0xbd863a85	-0.065541305
233	0x3c2db676	0.010602584
234	0x3cab44b0	0.020906776
235	0x3d8a120e	0.06741725
236	0x3c9d9c9d	0.019239718
237	0x3cd7c1b1	0.026337476
238	0x3af77321	0.0018878916
239	0xbcb2a99f	-0.021809397
240	0xbc7d51e0	-0.015461415
241	0xbc8977d6	-0.016780775
242	0xbce0dd6d	-0.027449334
243	0xbd6c60fd	-0.057709683
244	0xbc7190fd	-0.014744041
245	0xbd031073	-0.03199811
246	0xbccc097f	-0.024906872
247	0xbc99cd03	-0.018774515
248	0xbd2fb726	-0.042899273
249	0xbca60a0f	-0.020268468
250	0xbd66ac32	-0.056316562
251	0xbcf23064	-0.02956409
252	0xbda80993	-0.08204951
253	0xbd319984	-0.043359295
254	0xbca5fd7a	-0.020262469
255	0xbd9ab7b9	-0.075545736

encoder.encoder1.2.bias f4 [32]
0	0xbc31eead	-0.010860127
1	0xbd89a497	-0.06720846
2	0xbd3a8cc6	-0.04554441
3	0xbdc8ebf7	-0.09810632
4	0xbe5de123	-0.21667914
5	0x3e5701ce	0.20996782
6	0xbdc1c072	-0.09460534
7	0xbe727eef	-0.23681234
8	0xbd7c43fa	-0.061588265
9	0xbd69d589	-0.05708841
10	0xbd9a7182	-0.07541181
11	0xbdbdeab0	-0.09273279
12	0xbf3f2828	-0.7467065
13	0x3dac759b	0.08420869
14	0xbda79562	-0.081827894
15	0xbdbe5cbf	-0.09295034
16	0xbddf6b36	-0.10909121
17	0xbb99960c	-0.0046870764
18	0xbe1ce621	-0.15322162
19	0xbe2babcc	-0.16764754
20	0xbce9fd8e	-0.028563287
21	0xbead887a	-0.33893186
22	0xbd6f64d7	-0.058445778
23	0xbdb78ab9	-0.08962006
24	0xbecb7ad4	-0.39742148
25	0xbd30f4fb	-0.04320238
26	0xbdd77add	-0.10521481
27	0xbf4e8876	-0.8067697
28	0xbe124c24	-0.14286858
29	0xbda43c8f	-0.08019363
30	0xbeb48323	-0.352563
31	0xbe4bb976	-0.19894966
