CAC/DC/networks/weights/DC/DC_2_myTestCACclassifierAnchorLoss.pth (torch, 754052 bytes, 19 tensors)

anchors f8 [4, 4]
0	0x4024000000000000	10.0
1	0x0000000000000000	0.0
2	0x0000000000000000	0.0
3	0x0000000000000000	0.0
4	0x0000000000000000	0.0
5	0x4024000000000000	10.0
6	0x0000000000000000	0.0
7	0x0000000000000000	0.0
8	0x0000000000000000	0.0
9	0x0000000000000000	0.0
10	0x4024000000000000	10.0
11	0x0000000000000000	0.0
12	0x0000000000000000	0.0
13	0x0000000000000000	0.0
14	0x0000000000000000	0.0
15	0x4024000000000000	10.0

encoder.conv1.weight f4 [32, 1, 16]
0	0xbe1bd3b0	-0.15217471
1	0xbd9d9a90	-0.07695496
2	0x3d0078f2	0.031365342
3	0x3e262240	0.16224003
4	0xbd10dc99	-0.03536663
5	0xbe20ba39	-0.15696038
6	0xbe2b48f7	-0.16727053
7	0x3c7a30f5	0.015270461
8	0xbd7bd6ff	-0.061484333
9	0xbe7a06a7	-0.244166
10	0xbca0cf42	-0.019630078
11	0xbe08c94d	-0.1335804
12	0x3e33b9dd	0.1755137
13	0xbcd750d6	-0.026283663
14	0xbe06606f	-0.13122724
15	0x3d79857b	0.060918313
16	0xbe15b115	-0.14618333
17	0xbe955562	-0.29166704
18	0xbda45a68	-0.08025056
19	0xbe842cdc	-0.25815475
20	0xbdd96b1f	-0.10616135
21	0x3e3664ab	0.1781184
22	0xbea36780	-0.31914902
23	0xbe1a3668	-0.15059817
24	0xbe6c92d4	-0.23102885
25	0xbe08eb31	-0.13370968
26	0x3ddfbc00	0.1092453
27	0x3b949da6	0.0045353947
28	0x3de044bd	0.10950611
29	0x3cc94776	0.024570208
30	0x3d23acb8	0.03995964
31	0xbd5fdd47	-0.054654386
32	0xbe74f0bd	-0.2391996
33	0xbe437fc0	-0.19091702
34	0xbed120a0	-0.40845203
35	0xbe37812c	-0.17920369
36	0xbeb76af2	-0.3582378
37	0xbe877311	-0.26454976
38	0xbf13e0ca	-0.57764876
39	0x3d2806ee	0.041022234
40	0x3e13339e	0.14375159
41	0x3c1b11bc	0.009464677
42	0xbe5b1bc3	-0.21397309
43	0xbe783e48	-0.24242508
44	0xbe496e21	-0.19670917
45	0x3e16fb0f	0.14744209
46	0x3d97d458	0.07413548
47	0x3d587807	0.052848842
48	0xbcdce606	-0.026965152
49	0xbd6fd012	-0.05854804
50	0x3e620ab7	0.220744
51	0xbdfd8bb8	-0.12380165
52	0xbbc57996	-0.006026457
53	0x3d9a3365	0.07529334
54	0x3d69b456	0.057056747
55	0xbe977ce1	-0.29587463
56	0xbe0e43ee	-0.138931
57	0x3cedf487	0.029047264
58	0xbe26bc8c	-0.16282862
59	0x3e033100	0.12811661
60	0x3d6a89a6	0.057260178
61	0xbe5c2419	-0.21498145
62	0xbeb9ec69	-0.3631318
63	0xbd50dbed	-0.050990988
64	0xbe509834	-0.20370561
65	0xbd8b6940	-0.06807184
66	0xbee7ab5e	-0.4524793
67	0xbe81f43b	-0.25381646
68	0xbd1a0738	-0.03760454
69	0x3e327574	0.17427617
70	0xbe90827a	-0.28224546
71	0x3daaded3	0.083432816
72	0x3d9c4c9a	0.07631798
73	0x3e2895e9	0.16463436
74	0xbe5689ac	-0.20950955
75	0xbe40ce04	-0.18828589
76	0x3dd5e8ef	0.10444819
77	0x3e0727e7	0.13198815
78	0x3d81e630	0.06342733
79	0xbe107588	-0.14107335
80	0xbe26f114	-0.16302902
81	0xbe98cc07	-0.2984316
82	0x3c76cc52	0.015063362
83	0xbe36aa19	-0.17838325
84	0x3e1b05e0	0.1513896
85	0xbe5457ef	-0.20736669
86	0xbe2ec4a0	-0.17067194
87	0x3d9c38e9	0.07628042
88	0x3e1af21a	0.15131417
89	0xbe6c7763	-0.23092417
90	0xbe0a2578	-0.13490856
91	0x3df72524	0.12067631
92	0xbe4f62cd	-0.20252533
93	0x3e064f4d	0.13116188
94	0x3d04c4b0	0.03241414
95	0xbe240d45	-0.16020687
96	0xbd97f817	-0.07420366
97	0xbd1f44fa	-0.03888414
98	0x3cb42c4e	0.021993782
99	0x3d4901b9	0.04907391
100	0x3d93600f	0.07196056
101	0x3d2559c8	0.040368825
102	0x3de1890f	0.1101247
103	0xbd82cc11	-0.06386579
104	0xbe8d059d	-0.27543345
105	0xbe81ad9b	-0.25327763
106	0xbe95a811	-0.29229787
107	0xbe122441	-0.14271642
108	0xbeae2664	-0.34013665
109	0xbb87d8b6	-0.004145707
110	0xbe8b9599	-0.2726257
111	0xbdda05c3	-0.1064563
112	0xbe41bb69	-0.18919148
113	0x3c3c0532	0.011475848
114	0xbe234452	-0.15944031
115	0x3e1636b5	0.14669307
116	0x3e190d8d	0.14946575
117	0xbd854c52	-0.065086976
118	0x3d15b7f4	0.036552384
119	0x3dc75958	0.09733838
120	0x3c8f926a	0.01752587
121	0xbe9c83c1	-0.3056927
122	0xbe694ad9	-0.22782458
123	0xbe64a053	-0.22326784
124	0xbe616bd2	-0.22013786
125	0xbe4487a8	-0.19192374
126	0xbe18eabe	-0.14933297
127	0xbe81e602	-0.25370795
128	0x3e3a6282	0.1820164
129	0x3dfe7ba7	0.124259286
130	0x3e1a5d37	0.15074621
131	0x3cd16b2c	0.025563799
132	0xbe64c75b	-0.22341673
133	0xbdd0a9ab	-0.101886116
134	0xbe04fb0c	-0.12986392
135	0xbe9accfa	-0.3023451
136	0xbd91acdb	-0.07113048
137	0xbcd8a07e	-0.026443716
138	0x3d3232d0	0.04350549
139	0x3e317987	0.17331515
140	0xbe01c6dc	-0.12673515
141	0xbc16fb8a	-0.009215245
142	0xbc1678ac	-0.009184044
143	0xbe34de92	-0.17663029
144	0x3e04ac74	0.1295641
145	0xbe160648	-0.14650834
146	0x3dbe50b0	0.09292734
147	0xbe1e53dd	-0.15461679
148	0xbd1d7d97	-0.03844985
149	0xbde24917	-0.11049097
150	0x3deb8bf4	0.11501303
151	0xbe8e3952	-0.27778107
152	0x3e242c37	0.16032492
153	0x3e2a4fab	0.16631953
154	0xbcc63420	-0.024194777
155	0x3cc93147	0.02455963
156	0xbe28fc63	-0.16502528
157	0x3e2f9c7e	0.17149541
158	0xbd8756c0	-0.06608343
159	0x3df97a4f	0.12181532
160	0xbe365c37	-0.17808615
161	0xbe895457	-0.2682216
162	0xbcb3dda1	-0.021956267
163	0x3c433320	0.011914045
164	0x3d8cc331	0.06873167
165	0x3cb0f374	0.021600462
166	0xbe478841	-0.1948557
167	0xbd94f1f0	-0.072727084
168	0xbe1d063a	-0.15334406
169	0x3d1a79e6	0.037713908
170	0x3e337fd9	0.17529239
171	0x3d2cbe1c	0.04217349
172	0xbe27db81	-0.16392328
173	0xbe93dd92	-0.28879982
174	0xbd6bf1f7	-0.057603803
175	0xbe677f51	-0.22607161
176	0xbe17da5b	-0.1482939
177	0xbdfaa9bd	-0.12239406
178	0xbdf8bb22	-0.12145068
179	0xbda168bc	-0.078813046
180	0xbdd9f3fd	-0.1064224
181	0x3e03387d	0.12814517
182	0x3de9c996	0.114154026
183	0xbdd2d1be	-0.102939114
184	0xbda90232	-0.08252372
185	0xbe6b4013	-0.22973661
186	0xbe08311c	-0.13299984
187	0xbd8de83f	-0.06929063
188	0xbdc9b361	-0.09848667
189	0xbe3031cb	-0.17206495
190	0xbd36a5e3	-0.044591796
191	0xbd80fc93	-0.06298175
192	0x3d1a9f5a	0.037749626
193	0x3d295deb	0.041349333
194	0xbe67e85b	-0.2264723
195	0xbe275efc	-0.16344827
196	0x3dec79d4	0.11546674
197	0x3d707c9a	0.05871258
198	0x3dd8855d	0.10572312
199	0xbd7d5ac5	-0.061854143
200	0xbe39bfc1	-0.18139555
201	0xbd718c99	-0.058971975
202	0x3d75f565	0.06004848
203	0xbd24e611	-0.04025847
204	0xbe329476	-0.17439446
205	0xbd60aceb	-0.054852407
206	0x3dcc803a	0.09985395
207	0xbe0bb5f0	-0.13643622
208	0xbe562629	-0.20912994
209	0xbdfc3cd1	-0.12316287
210	0xbdd42af3	-0.103597544
211	0x3e06b22e	0.13153908
212	0xbeb8a1f7	-0.3606107
213	0xbdfd411b	-0.123659335
214	0xbe8efa4a	-0.2792533
215	0xbda3f792	-0.08006205
216	0x3e07df14	0.13268691
217	0xbe91442c	-0.28372324
218	0xbdd7cee5	-0.10537509
219	0xbdc33d9c	-0.095332354
220	0x3dc9a934	0.09846726
221	0x3d8c3405	0.068458594
222	0xbcb11b29	-0.021619396
223	0xbd7b3824	-0.061332837
224	0x3e331452	0.1748822
225	0xbe2ca8a4	-0.16861206
226	0xbe29fa89	-0.16599478
227	0x3db88b49	0.090109415
228	0x3da533b9	0.08066506
229	0xbdfce769	-0.123488255
230	0xbe14aa7b	-0.14518158
231	0xbe064a08	-0.13114178
232	0xbdd753c8	-0.10514027
233	0xbe0f66b2	-0.14004019
234	0x3df70e3a	0.120632604
235	0x3d96e448	0.0736776
236	0x3cd4d736	0.025981527
237	0xbe12753d	-0.14302535
238	0xbd724bec	-0.059154436
239	0xbdaab640	-0.08335543
240	0x3d9d407a	0.076783136
241	0xbe3af7c7	-0.18258582
242	0xbde8e1a1	-0.1137116
243	0xbd7343e0	-0.059390903
244	0xbdb89cc6	-0.09014277
245	0xbd830882	-0.06398107
246	0xbd46b8a0	-0.048515916
247	0xbd82daae	-0.06389366
248	0x3e33ac83	0.17546277
249	0xbe8903bf	-0.2676067
250	0xbe1cbcfc	-0.15306467
251	0x3d9fe70f	0.07807743
252	0x3e08b832	0.13351515
253	0xbbcc2ac7	-0.0062306854
254	0xbd513dd6	-0.051084362
255	0xbd8996ff	-0.06718253

encoder.conv1.bias f4 [32]
0	0xbea960c0	-0.33081627
1	0x3e146220	0.14490557
2	0xbd99573c	-0.07487342
3	0x3cc960e5	0.024582336
4	0xbc0e69dd	-0.008692232
5	0xbe475286	-0.19465074
6	0xbf41913f	-0.7561225
7	0x3d253ad4	0.040339306
8	0xbf466417	-0.77496475
9	0xbeb555b8	-0.3541696
10	0xbdf17e72	-0.11791696
11	0x3db7c1b9	0.089724965
12	0xbea52bd1	-0.32259992
13	0xbe0807f0	-0.13284278
14	0x3ea38b2e	0.31942123
15	0xbea58af0	-0.32332563
16	0xbe7308e6	-0.23733863
17	0xbe68618c	-0.22693461
18	0x3c347b17	0.011015675
19	0xbf349518	-0.7054
20	0x3dacbe2e	0.084347114
21	0xbf01c7a2	-0.5069524
22	0xbdab0ea6	-0.08352403
23	0xbd942f1a	-0.072355464
24	0x3c53c40d	0.01292516
25	0x3db344c3	0.0875335
26	0x3b52b8fa	0.0032153712
27	0xbed91cb0	-0.424047
28	0xbf0e6c21	-0.5563374
29	0x3c99cb3d	0.01877367
30	0xbec747b2	-0.38921887
31	0x3d877a58	0.06615132

encoder.conv2.weight f4 [32, 32, 16]
0	0xbd22c533	-0.039738845
1	0xbdc619ae	-0.09672867
2	0xbdc2f3da	-0.09519167
3	0xbd5b797e	-0.05358266
4	0xbdc875a3	-0.097880624
5	0xbdaa6f65	-0.08322028
6	0xbda462c8	-0.080266535
7	0xbdb662f2	-0.08905591
8	0xbd121a11	-0.03566939
9	0xbd392579	-0.045201752
10	0xbdc857ac	-0.09782347
11	0xbdb39f3c	-0.08770606
12	0xbd76db30	-0.060267627
13	0xbdaa6fdd	-0.083221175
14	0xbdb115fe	-0.08646773
15	0xbc65ed31	-0.014033602
16	0xbdb2d249	-0.08731515
17	0xbcb4b905	-0.02206088
18	0xbcad9382	-0.021188501
19	0xbcf7f75e	-0.030269321
20	0xbd99a3a9	-0.07501919
21	0xbd9fb04d	-0.077972986
22	0xbc2d030d	-0.010559809
23	0xbd9f393f	-0.07774591
24	0xbdbdaf41	-0.09261943
25	0xbd9b248a	-0.07575329
26	0xbc449ccc	-0.012000274
27	0xbd46b40b	-0.048511546
28	0xbd966c07	-0.07344823
29	0xbdc36b86	-0.09541993
30	0xbdab08f7	-0.08351319
31	0xbd36cd23	-0.044629227
32	0xbd3e0dc1	-0.046399835
33	0xbd86f929	-0.06590492
34	0xbda6e88c	-0.081498235
35	0xbd33b54b	-0.043874066
36	0xbdaf0eed	-0.08547769
37	0xbde5394b	-0.111925684
38	0xbd6cee70	-0.05784458
39	0xbcb930fc	-0.022606365
40	0xbcfa5630	-0.030558676
41	0xbd33c760	-0.04389131
42	0xbd9c77f8	-0.0764007
43	0xbcdfe78f	-0.027332095
44	0xbd8d7153	-0.069063805
45	0xbd35d5ec	-0.044393465
46	0xbdaf2efe	-0.08553885
47	0xbdecfddd	-0.11571858
48	0xbd2f8891	-0.04285485
49	0xbd9fb45d	-0.077980734
50	0xbd962dd8	-0.07332963
51	0xbd8f732a	-0.07004388
52	0xbd4d502a	-0.05012528
53	0xbdb105aa	-0.086436585
54	0xbc974617	-0.018466039
55	0xbd832c39	-0.06404919
56	0xbc8d5316	-0.017251533
57	0xbd9d86d1	-0.0769173
58	0xbd7f9b98	-0.062404245
59	0xbd1dbb38	-0.038508624
60	0xbd0cef21	-0.03440774
61	0xbd77312e	-0.060349636
62	0xbccdedff	-0.0251379
63	0xbdafe7b1	-0.085891135
64	0xbcd9ca7b	-0.026585808
65	0xbdd2e69d	-0.10297892
66	0xbcd8d2db	-0.026467731
67	0xbd492048	-0.04910305
68	0xbc84a589	-0.016192215
69	0xbd8f32aa	-0.06992085
70	0xbdcb8b9f	-0.0993874
71	0xbd1f3ada	-0.038874485
72	0xbd82b8ed	-0.06382928
73	0xbd167ebb	-0.036741953
74	0xbd9bc094	-0.07605091
75	0xbd207c43	-0.039181005
76	0xbdab2fd0	-0.08358729
77	0xbd968a4e	-0.07350598
78	0xbd4a2303	-0.049349796
79	0xbd25a8b0	-0.040444076
80	0xbdbeee5f	-0.093228094
81	0xbd986636	-0.0744137
82	0xbdce74c1	-0.10080863
83	0xbd05e779	-0.032691453
84	0xbdb54084	-0.08850196
85	0xbdb1b7b3	-0.08677616
86	0xbde3f2f1	-0.11130322
87	0xbd9d62ca	-0.07684858
88	0xbdb43dc3	-0.088008426
89	0xbdabb754	-0.083845764
90	0xbd435709	-0.047690425
91	0xbca4ef74	-0.020133711
92	0xbdb12537	-0.08649676
93	0xbd1b7e46	-0.03796222
94	0xbd45e6d8	-0.048315853
95	0xbd086423	-0.033298623
96	0xbdb810c0	-0.0898757
97	0xbda0266a	-0.07819827
98	0xbd312bc2	-0.04325462
99	0xbd95fc3a	-0.07323499
100	0xbd590ba1	-0.052989606
101	0xbdc12c67	-0.09432297
102	0xbd8956c1	-0.06706
103	0xbdcc4f67	-0.09976082
104	0xbd812334	-0.063055426
105	0xbdc2b187	-0.09506517
106	0xbd36f75d	-0.044669498
107	0xbd2d96a3	-0.042379986
108	0xbd7a7001	-0.06114197
109	0xbd701442	-0.05861307
110	0xbcd9bc96	-0.026579183
111	0xbd94eadc	-0.07271358
112	0xbdb6321f	-0.088962786
113	0xbd865395	-0.06558911
114	0xbd64917a	-0.0558028
115	0xbd9cedcb	-0.07662543
116	0xbcb6ba68	-0.022305682
117	0xbdacbdd4	-0.08434644
118	0xbd18bb98	-0.03728828
119	0xbce6de07	-0.028182043
120	0xbd1d8508	-0.038456947
121	0xbda21d98	-0.07915801
122	0xbcb68f5c	-0.022285156
123	0xbd2cdc88	-0.042202502
124	0xbd8759c3	-0.066089176
125	0xbc54404f	-0.0129547855
126	0xbd5b90c1	-0.053604845
127	0xbd27182b	-0.040794533
128	0xbcd5b766	-0.026088428
129	0xbd11ea60	-0.035623908
130	0xbcf916d7	-0.030406399
131	0xbda47146	-0.08029418
132	0xbd8ae28b	-0.06781491
133	0xbd42c7db	-0.04755388
134	0xbd1ec813	-0.038765024
135	0xbd0a3f1c	-0.033751592
136	0xbd4c6a4c	-0.04990606
137	0xbd3dc543	-0.0463307
138	0xbd14e2f3	-0.03634925
139	0xbda1e629	-0.07905228
140	0xbda6b8c4	-0.0814071
141	0xbda28d85	-0.07937149
142	0xbdccd78c	-0.1000205
143	0xbd9d7c16	-0.07689683
144	0xbd636147	-0.055512693
145	0xbdbdaa96	-0.09261052
146	0xbd043c10	-0.032283843
147	0xbc9515e8	-0.018198922
148	0xbdadb8f0	-0.0848254
149	0xbdb75645	-0.089520015
150	0xbd807b62	-0.062735334
151	0xbc797f07	-0.01522804
152	0xbdb6f963	-0.089342855
153	0xbcade3ce	-0.02122679
154	0xbcb80907	-0.022465242
155	0xbd8b0c5a	-0.06789465
156	0xbdcc9f43	-0.09991314
157	0xbd6d3aac	-0.057917282
158	0xbd744c56	-0.059643112
159	0xbda3b848	-0.07994133
160	0xbd12a91e	-0.035805814
161	0xbdab47fd	-0.0836334
162	0xbd54515f	-0.051835414
163	0xbca439b2	-0.020047043
164	0xbcc2a5a4	-0.023760624
165	0xbd99e105	-0.07513622
166	0xbd19929f	-0.037493344
167	0xbd5106b0	-0.05103177
168	0xbd3a073d	-0.04541706
169	0xbd6d3bc7	-0.057918336
170	0xbde909ea	-0.11378844
171	0xbdb9d3a2	-0.09073569
172	0xbd7d84c7	-0.061894204
173	0xbd81a7bd	-0.06330822
174	0xbd349eea	-0.044096865
175	0xbdaac5a2	-0.08338477
176	0xbcd130b0	-0.025535911
177	0xbd23ee17	-0.040021982
178	0xbd31dfcd	-0.043426324
179	0xbce411dc	-0.027840547
180	0xbd4346fd	-0.04767512
181	0xbd980e71	-0.074246295
182	0xbda9cd09	-0.082910605
183	0xbd9b956a	-0.07596858
184	0xbd874479	-0.06604857
185	0xbdcc9001	-0.09988404
186	0xbd9dceb9	-0.07705445
187	0xbda9d16a	-0.08291896
188	0xbd4cb5f1	-0.0499782
189	0xbcc6eb9d	-0.024282271
190	0xbd51d6eb	-0.051230352
191	0xbd3186ea	-0.043341555
192	0xbcf40742	-0.029788617
193	0xbda52896	-0.08064382
194	0xbd49bb07	-0.04925063
195	0xbcfc1dfc	-0.030776016
196	0xbd87b9a6	-0.066272065
197	0xbd2cc9f2	-0.042184778
198	0xbd51e252	-0.051241226
199	0xbd4420e2	-0.047882922
200	0xbdaf3849	-0.085556574
201	0xbc842ca8	-0.016134575
202	0xbd471a36	-0.04860898
203	0xbc9db4b2	-0.019251201
204	0xbdcb2c5d	-0.09920571
205	0xbda4aecf	-0.080411546
206	0xbd10307e	-0.035202496
207	0xbd413c7a	-0.047176816
208	0xbd8c1d84	-0.06841567
209	0xbdad2f04	-0.08456233
210	0xbd87df1d	-0.06634352
211	0xbcca8148	-0.02471985
212	0xbd920032	-0.071289435
213	0xbd04a0d0	-0.032379925
214	0xbd42dfde	-0.047576778
215	0xbca02e36	-0.019553285
216	0xbd56d452	-0.05244858
217	0xbc95891f	-0.018253861
218	0xbd277fac	-0.04089324
219	0xbd5d6e42	-0.05406023
220	0xbc9c2847	-0.019062174
221	0xbd5586f4	-0.052130654
222	0xbd794a2a	-0.060861744
223	0xbc8d7100	-0.017265797
224	0xbdee4fdb	-0.11636325
225	0xbd5eb6cc	-0.054373547
226	0xbd6f7837	-0.058464255
227	0xbd0bfa7d	-0.03417443
228	0xbdd9c195	-0.10632626
229	0xbd868182	-0.065676704
230	0xbdc59e6f	-0.096493594
231	0xbdb96d98	-0.090541065
232	0xbd3f1467	-0.046650317
233	0xbd169958	-0.036767334
234	0xbd606331	-0.054782096
235	0xbdad0e7c	-0.08450028
236	0xbdc29b57	-0.09502285
237	0xbdd83b3e	-0.105581746
238	0xbdaadb4d	-0.083426096
239	0xbd89eccb	-0.06734618
240	0xbd1940ba	-0.037415244
241	0xbcfeb9ab	-0.031094393
242	0xbcd99b5e	-0.026563343
243	0xbdabd176	-0.08389561
244	0xbd1863a0	-0.037204385
245	0xbd75aa5b	-0.059976917
246	0xbdb91d2a	-0.09038766
247	0xbd229816	-0.03969582
248	0xbcb70a61	-0.022343816
249	0xbd9082ae	-0.07056175
250	0xbdb7b384	-0.08969787
251	0xbdb2b5c6	-0.08726077
252	0xbdca1c4d	-0.09868679
253	0xbd1231b2	-0.035691924
254	0xbd8d7026	-0.06906156
255	0xbce8403e	-0.028350946

encoder.conv2.bias f4 [32]
0	0xbdc5d24c	-0.096592516
1	0xbdd15f68	-0.102232754
2	0xbdfebc40	-0.124382496
3	0xbdc69439	-0.0969624
4	0xbda21464	-0.079140455
5	0xbd062bcb	-0.032756608
6	0xbd7bc0a3	-0.06146301
7	0xbded14de	-0.11576246
8	0xbd363390	-0.044482768
9	0xbc7c62e1	-0.015404434
10	0xbdab7fcb	-0.08373984
11	0xbdb8d4c4	-0.09024957
12	0xbd49835f	-0.04919755
13	0xbd962caa	-0.07332738
14	0xbd89ba13	-0.06724944
15	0xbd8a6606	-0.06757741
16	0xbd445760	-0.04793489
17	0xbdf7ebaf	-0.121055
18	0xbd93dcdc	-0.0721986
19	0xbd2d70d1	-0.04234392
20	0xbd536403	-0.05160905
21	0xbd6bc0d7	-0.057556953
22	0xbd56f3b7	-0.05247852
23	0xbdce80be	-0.100831494
24	0xbd06c012	-0.032898016
25	0xbd3b3def	-0.04571336
26	0xbd48383f	-0.048881765
27	0xbc855f61	-0.016280832
28	0xbc989bde	-0.01862901
29	0xbd867f34	-0.06567231
30	0x3eb82037	0.35962078
31	0xbd1b64ea	-0.037938036

encoder.conv3.weight f4 [32, 32, 16]
0	0xbdca63c5	-0.09882311
1	0xbce4a5de	-0.027911123
2	0xbd82c869	-0.063858815
3	0xbdbfb5e5	-0.093608655
4	0xbc8da865	-0.01729221
5	0xbd0dfca2	-0.034664758
6	0xbd6a85dd	-0.05725657
7	0xbd27c42a	-0.04095856
8	0xbd629d78	-0.055325955
9	0xbdc491b7	-0.095981054
10	0xbd3eacbb	-0.046551447
11	0xbd38012a	-0.044922985
12	0xbda65ea5	-0.08123521
13	0x3df34712	0.1187879
14	0xbdb7eeb1	-0.08981074
15	0x3d2e00c0	0.042481184
16	0xbd3f98af	-0.04677647
17	0xbcce9776	-0.025218707
18	0xbd537c12	-0.051631995
19	0xbda5863d	-0.080822445
20	0xbda5b17c	-0.08090493
21	0xbd5bc94f	-0.05365878
22	0xbd261d4b	-0.04055528
23	0xbd6a880e	-0.057258658
24	0xbdb6cdf1	-0.08925999
25	0x3dc8a7bd	0.097976185
26	0x3cd2667c	0.025683634
27	0x3d7061ff	0.058687206
28	0x3d0a00b5	0.03369208
29	0x3d57b04f	0.052658375
30	0xbd28dfe5	-0.041229147
31	0x3cbaf3ee	0.022821393
32	0xbd17a149	-0.037019048
33	0xbcbe42d6	-0.02322523
34	0xbdab2bf0	-0.0835799
35	0xbdb083aa	-0.08618863
36	0xbd571381	-0.052508835
37	0xbcf78325	-0.030213902
38	0xbce8f0e9	-0.028435187
39	0xbd359fc8	-0.044341832
40	0xbca1ce93	-0.019751823
41	0xbdd09b1b	-0.10185834
42	0xbd96c54f	-0.073618524
43	0x3e3965bc	0.18105215
44	0xbd8e3b99	-0.06944961
45	0x3d7a64a0	0.06113112
46	0x3a10fc71	0.0005530781
47	0xbcc7915f	-0.02436131
48	0xbd8c84e2	-0.06861283
49	0xbd637242	-0.055528887
50	0xbcc6775b	-0.024226835
51	0xbdbb3e2d	-0.091427185
52	0x3dcc3258	0.0997054
53	0xbd0d2562	-0.03445948
54	0xbcb130a0	-0.021629632
55	0xbdb93cb4	-0.09044781
56	0xbda63da0	-0.08117223
57	0xbd630be1	-0.05543125
58	0xbd3fc1da	-0.04681573
59	0xbd1203c9	-0.03564814
60	0xbdafe514	-0.08588615
61	0xbcc5bc93	-0.02413777
62	0xbcea53fc	-0.0286045
63	0xbd908880	-0.07057285
64	0xbca1306e	-0.019676413
65	0xbd28d460	-0.04121816
66	0xbda4c635	-0.080456175
67	0xbdd36ed3	-0.103238724
68	0xbd261462	-0.040546782
69	0xbd228ce1	-0.039685134
70	0xbcd5fba9	-0.026120977
71	0x3c903770	0.01760456
72	0xbdc4cfd7	-0.09609955
73	0xbd5362ec	-0.05160801
74	0xbc9eeace	-0.019399073
75	0xbd0def60	-0.034652114
76	0xbd0e3fea	-0.034728922
77	0xbdbdef61	-0.092741735
78	0xbdb34a5f	-0.087544195
79	0xbdce2ed7	-0.10067528
80	0xbcc9448d	-0.02456882
81	0xbcd10e02	-0.025519375
82	0x3cb933d1	0.022607716
83	0xbd5d56e8	-0.05403796
84	0xbda5b7e0	-0.08091712
85	0xbd8f15d6	-0.06986587
86	0xbc5cbef8	-0.013473265
87	0xbd96d7ee	-0.07365404
88	0xbdd9aa5d	-0.10628197
89	0xbdc442e2	-0.095830694
90	0xbce1e959	-0.02757709
91	0xbd75a8f7	-0.05997559
92	0xbd89d681	-0.067303665
93	0xbd8095a9	-0.062785454
94	0xbc4d0370	-0.012513027
95	0xbdb09cf7	-0.08623689
96	0xbd5e5035	-0.05427571
97	0xbd850968	-0.06495935
98	0xbd77f966	-0.06054058
99	0xbd43d643	-0.047811758
100	0xbdb2360b	-0.08701714
101	0xbd20d2ec	-0.03926365
102	0xbd7c520e	-0.06160169
103	0xbd05fdd7	-0.032712784
104	0xbdcf133f	-0.10111093
105	0xbca669f4	-0.020314194
106	0x3ca9e410	0.020738631
107	0xbd52151a	-0.051289655
108	0xbd8852dd	-0.0665643
109	0xbdb9db92	-0.09075083
110	0xbc98bb1d	-0.01864391
111	0xbdc99f3f	-0.09844827
112	0x3d914ea5	0.070950784
113	0x3d4588b4	0.048226073
114	0xbd540752	-0.051764794
115	0xbdade090	-0.084900975
116	0x3d9e26f1	0.07722271
117	0x3caf48fc	0.021397106
118	0xbda4e83c	-0.08052108
119	0xbd572e35	-0.0525343
120	0xbccbdc98	-0.02488546
121	0xbd6ff477	-0.05858275
122	0xbc88a89c	-0.016681962
123	0xbdbe8fa5	-0.09304742
124	0xbd58c0e1	-0.05291832
125	0xbdbfd5cf	-0.09366953
126	0xbd5377ac	-0.0516278
127	0xbda9887d	-0.08277986
128	0xbdc729e0	-0.09724784
129	0x3d47261a	0.04862032
130	0xbd82a2c1	-0.06378699
131	0xbdd4398a	-0.10362537
132	0xbdbf2dc5	-0.09334902
133	0xbd1e5b89	-0.038661513
134	0xbd6f3da7	-0.058408406
135	0xbd4a2be1	-0.049358252
136	0xbca629d9	-0.020283626
137	0xbdbde468	-0.09272081
138	0xbdcd0761	-0.10011173
139	0xbd2c7af4	-0.042109445
140	0x3c8e7d4c	0.01739373
141	0xbd59bb43	-0.053157102
142	0xbdbda652	-0.09260239
143	0xbdbb69a4	-0.09151009
144	0xbda6cfc7	-0.08145099
145	0xbd0a62bf	-0.033785578
146	0xbd8b0977	-0.06788915
147	0x3da75ade	0.081716284
148	0x3d91bb7f	0.0711584
149	0xbda385ac	-0.0798448
150	0xbd82f8ae	-0.06395088
151	0xbcd6dc1f	-0.026228009
152	0xbda46728	-0.08027488
153	0xbd55bf51	-0.052184407
154	0xbcfbe4b3	-0.0307487
155	0xbd8a5336	-0.067541525
156	0x3d964a4f	0.07338392
157	0xbdcc5eca	-0.09979017
158	0xbdc525fe	-0.09626387
159	0xbd3a4ede	-0.04548537
160	0xbcc7dd89	-0.024397628
161	0xbdb7b0bf	-0.089692585
162	0xbdaa3230	-0.08310354
163	0xbdc51e4f	-0.096249215
164	0x3da49c6b	0.08037647
165	0x3d8b2dce	0.06795846
166	0xbd9310d8	-0.07180947
167	0x3db3f577	0.08787053
168	0xbdbb8d3e	-0.09157799
169	0xbd1751d2	-0.036943264
170	0xbdd44cf8	-0.10366243
171	0x3d9eb18a	0.07748707
172	0x3db4ddbe	0.088313565
173	0x3d962b4b	0.07332476
174	0x3cf43f95	0.029815475
175	0xbdb31d9e	-0.087458834
176	0xbd7aa499	-0.06119213
177	0xbdbcd206	-0.09219746
178	0xbd7083ff	-0.05871963
179	0xbca9eed7	-0.02074377
180	0xbca8522f	-0.020547
181	0xbdb37eda	-0.087644294
182	0xbda62eeb	-0.08114418
183	0x3d8cfde7	0.068843655
184	0x3d6ff31a	0.05858145
185	0x3d8c5e68	0.06853944
186	0x3cefb20f	0.02925971
187	0x3d8a7566	0.06760673
188	0x3d571e28	0.052518994
189	0x3d7df553	0.062001538
190	0x3dc6bbd7	0.09703796
191	0x3d3aee8f	0.045637663
192	0x3b7e777f	0.003882855
193	0x3d31e6f4	0.043433145
194	0xbd90800d	-0.07055674
195	0x3b209dc7	0.0024508105
196	0x3d0f42f6	0.03497597
197	0x3c41512a	0.011799136
198	0xbd40cc41	-0.04706979
199	0xbd5edfc6	-0.054412626
200	0xbcbd02a3	-0.023072546
201	0x3c464150	0.012100533
202	0x3cb1920f	0.021676091
203	0xbc27630d	-0.010216487
204	0x3d992c24	0.07479122
205	0xbdccd36d	-0.10001264
206	0xbd9e5654	-0.077313095
207	0xbd6386a6	-0.055548333
208	0xbd806e8b	-0.062710844
209	0xbdce269b	-0.10065957
210	0xbd41c303	-0.04730512
211	0xbdd5b2fc	-0.10434529
212	0xbb48c5ff	-0.0030635593
213	0xbde18df5	-0.11013404
214	0xbdb658eb	-0.089036785
215	0xbdef54a4	-0.11686066
216	0xbcb5e97e	-0.022206064
217	0x3c06b3bb	0.008221562
218	0xba8a2faf	-0.0010542775
219	0x3c844f8c	0.016151212
220	0xbcb6857e	-0.02228045
221	0xbc0f0ecf	-0.008731558
222	0xbd2655f2	-0.040609308
223	0xbd9cdfe1	-0.07659889
224	0xbdaaed51	-0.08346046
225	0xbd65058f	-0.055913504
226	0xbd7d5b72	-0.061854787
227	0xbcec3c97	-0.028837485
228	0xbdad1cc7	-0.084527545
229	0xbdaa3716	-0.08311288
230	0xbdc10d9a	-0.094264224
231	0xbd3df72d	-0.046378303
232	0xbd8588ed	-0.06520257
233	0x3d38a7c5	0.045081872
234	0xbd8ddc1b	-0.069267474
235	0xbdcd0eff	-0.10012626
236	0xbc301719	-0.010747694
237	0x3dd4fc14	0.103996426
238	0x3d8d90ff	0.069124214
239	0x3ca69e2a	0.02033909
240	0xbd9f5f7a	-0.077818826
241	0xbd20058b	-0.039067786
242	0xbd5984c4	-0.05310513
243	0xbdcf1418	-0.101112545
244	0xbcac65fa	-0.02104472
245	0xbd560e13	-0.052259516
246	0xbc8e179d	-0.017345244
247	0xbd9f30f3	-0.07773008
248	0xbd619170	-0.05507034
249	0xbdc076ba	-0.09397645
250	0xbcfc263b	-0.030779948
251	0xbdce0377	-0.100592546
252	0xbd474676	-0.04865118
253	0xbc98cb96	-0.018651765
254	0xbd263721	-0.04057992
255	0xbd706e0c	-0.0586987

encoder.conv3.bias f4 [32]
0	0xbcbbe89e	-0.022938069
1	0xbd7c96cc	-0.06166725
2	0xbdaf264f	-0.08552229
3	0xbd462062	-0.048370726
4	0xbc9c9533	-0.019114112
5	0xbc867e38	-0.016417608
6	0xbdcf3075	-0.10116664
7	0xbdbd4bcc	-0.09242973
8	0xbe1bcc9a	-0.15214768
9	0xbdf7d5eb	-0.121013485
10	0xbd78172c	-0.060568973
11	0xbd949b17	-0.072561435
12	0xbcada1e7	-0.021195365
13	0xbdad24c3	-0.08454277
14	0xbe22d634	-0.15902025
15	0xbcf0a234	-0.02937422
16	0xbdab458a	-0.08362873
17	0xbda644c9	-0.081185885
18	0x3ddac3ed	0.10681901
19	0xbddd84f7	-0.10816377
20	0xbdb852c1	-0.09000159
21	0xbd895216	-0.0670511
22	0xbdb23590	-0.087016225
23	0xbe2a6e63	-0.16643672
24	0xbcd2f3fd	-0.025751108
25	0xbcea75b3	-0.028620576
26	0xbe21aa37	-0.15787588
27	0xbbf1039d	-0.007355167
28	0x3d8d7443	0.06906941
29	0xbe316b94	-0.17326194
30	0xbe038052	-0.12841919
31	0xbdc6e51c	-0.09711668

encoder.dense1.weight f4 [64, 2400]
0	0xbd9680a3	-0.07348754
1	0xbda21c48	-0.079155505
2	0xbd8a8a76	-0.067646906
3	0xbd82d852	-0.06388916
4	0xbd35a72e	-0.044348888
5	0xbd9731c9	-0.07382543
6	0xbd8b9f72	-0.06817521
7	0xbd25fd54	-0.040524796
8	0xbd6aaeeb	-0.05729572
9	0xbd5e12ad	-0.05421703
10	0xbd7787ea	-0.060432352
11	0xbd66c95d	-0.05634438
12	0xbd9fc8f5	-0.078020014
13	0xbd2ef4ca	-0.042713918
14	0xbd2b8be1	-0.041881446
15	0xbd5ea2d3	-0.0543545
16	0xbd82013a	-0.0634789
17	0xbd9ad269	-0.07559664
18	0xbd8f9d01	-0.07012368
19	0xbd43bdb1	-0.047788326
20	0xbd5d9250	-0.054094613
21	0xbd571968	-0.052514464
22	0xbd7fd67d	-0.06246041
23	0xbd4479a4	-0.047967568
24	0xbd82e30e	-0.063909635
25	0xbd8981ea	-0.06714232
26	0xbd8da91a	-0.06917019
27	0xbd83398f	-0.06407463
28	0xbd557797	-0.052116003
29	0xbd30db68	-0.043177992
30	0xbda46d49	-0.08028657
31	0xbd3d8d45	-0.046277303
32	0xbd8370c5	-0.064179935
33	0xbd4a0a87	-0.049326446
34	0xbd26d315	-0.040728647
35	0xbd657c60	-0.056026816
36	0xbd9fc962	-0.078020826
37	0xbd87d97c	-0.06633279
38	0xbd48d845	-0.049034376
39	0xbd831375	-0.064001955
40	0xbd565e13	-0.05233581
41	0xbd69bc6c	-0.05706446
42	0xbd454965	-0.048165698
43	0xbd8d20ce	-0.068910226
44	0xbd4504d0	-0.048100293
45	0xbd82c881	-0.06385899
46	0xbd9fc639	-0.0780148
47	0xbd87dc1a	-0.06633778
48	0xbd1ea09a	-0.03872738
49	0xbd28c8b2	-0.041207023
50	0xbd210a10	-0.039316237
51	0xbd68d500	-0.056843758
52	0xbd6b6512	-0.057469435
53	0xbd31f35b	-0.043444972
54	0xbda34c2f	-0.07973515
55	0xbd7a383f	-0.061088797
56	0xbd883589	-0.06650836
57	0xbd659960	-0.056054473
58	0xbd845b12	-0.06462683
59	0xbd5944ce	-0.053044133
60	0xbd297f23	-0.041381013
61	0xbd9110b6	-0.070832655
62	0xbd834db8	-0.06411308
63	0xbd946431	-0.072456725
64	0xbd9a2dc4	-0.0752826
65	0xbd2e4a65	-0.042551417
66	0xbd95ab2e	-0.073080406
67	0xbd71129e	-0.058855645
68	0xbd6b6dc3	-0.057477724
69	0xbd9df7cc	-0.07713279
70	0xbd3a24e0	-0.045445323
71	0xbd9927b4	-0.07478276
72	0xbd287903	-0.04113103
73	0xbd9f2aa0	-0.07771802
74	0xbd5c635f	-0.053805705
75	0xbd549f79	-0.051909897
76	0xbd692ce3	-0.056927573
77	0xbd92a32a	-0.07160027
78	0xbd9a08f5	-0.0752124
79	0x3c85350b	0.016260644
80	0xbd5bd75a	-0.053672172
81	0xbd6dc8ea	-0.058052935
82	0xbd684c4f	-0.0567134
83	0xbd2a7ee3	-0.041624915
84	0xbd0ad4d7	-0.033894386
85	0xbd3d52fb	-0.046221714
86	0xbd28e5f2	-0.041234918
87	0xbd4bea84	-0.0497842
88	0xbd7c38b1	-0.061577503
89	0xbd3dce48	-0.046339303
90	0xbd1de827	-0.038551476
91	0x3d288b42	0.04114843
92	0xbd45c8c4	-0.04828717
93	0xbd912acc	-0.07088241
94	0xbd292928	-0.041299015
95	0xbd5c9360	-0.053851485
96	0xbd462c73	-0.048382234
97	0xbd98fbc4	-0.074698955
98	0xbd44531a	-0.047930814
99	0xbd574447	-0.05255535
100	0xbd6c20e1	-0.057648543
101	0xbd7662bb	-0.06015275
102	0xbd857c5f	-0.065178625
103	0x3d58163f	0.05275559
104	0xae298d7a	-3.8551808e-11
105	0xbd443ea5	-0.047911305
106	0xbd90de74	-0.070736796
107	0xbda05c7d	-0.07830141
108	0xbd217c90	-0.039425433
109	0xabe1c5db	-1.6042127e-12
110	0xbd3b1a09	-0.045679126
111	0xbd89085d	-0.06691048
112	0xbd6909d4	-0.05689414
113	0xbce045e8	-0.027377084
114	0x2bf412a1	1.7342413e-12
115	0xbd2bb64e	-0.041921906
116	0xbd82d67e	-0.063885674
117	0x3c372a0b	0.011179457
118	0xbd693cf0	-0.05694288
119	0xbd94482f	-0.072403304
120	0xbd88a675	-0.06672374
121	0xbd2130fa	-0.03935335
122	0xbd95d404	-0.073158294
123	0xbcc0e5cd	-0.023547078
124	0xbd93d028	-0.07217437
125	0xbd27c1aa	-0.040956177
126	0x2b6686dc	8.189957e-13
127	0xbd402905	-0.04691412
128	0xbd3cb83a	-0.04607413
129	0xab9ad884	-1.1002453e-12
130	0xbd972107	-0.07379346
131	0xbd0e5e1b	-0.034757715
132	0x2a894c90	2.4389215e-13
133	0xbd378e24	-0.04481329
134	0xbd863dc7	-0.06554752
135	0xa9a0fcf8	-7.1493104e-14
136	0xbd2ba756	-0.04190763
137	0x2f56e018	1.9542801e-10
138	0xaec82af5	-9.102578e-11
139	0x29b637b3	8.092086e-14
140	0xbd5a392b	-0.053277176
141	0xaad904a8	-3.8550174e-13
142	0xbbe7d184	-0.0070745368
143	0xbd6710d6	-0.05641254
144	0xbd306a98	-0.043070406
145	0xbd346f54	-0.044051483
146	0xbd997011	-0.07492078
147	0xbd1fd300	-0.039019585
148	0xbd1d91ee	-0.038469248
149	0xb295b49e	-1.7428018e-08
150	0xbd23be46	-0.03997638
151	0xbda11f8e	-0.07867347
152	0xbd639d7d	-0.055570114
153	0xbd8f2f32	-0.06991424
154	0xbd9e5085	-0.07730202
155	0xbd7a7a11	-0.061151568
156	0xbd593cc7	-0.053036477
157	0xbd6a04bf	-0.057133432
158	0xbd9d4c6c	-0.07680592
159	0x3d2765bc	0.040868506
160	0xbd2c42c0	-0.042055845
161	0xbd92371b	-0.07139417
162	0xbd6cfbfe	-0.057857506
163	0xbd879a68	-0.066212475
164	0xbd271797	-0.04079398
165	0xbd6c924b	-0.057756703
166	0xbd988f98	-0.07449263
167	0xbd97036a	-0.07373698
168	0xbd875b6d	-0.06609235
169	0xbd77225e	-0.06033551
170	0xbd91c956	-0.0711848
171	0xbd6cceb0	-0.0578143
172	0xbd874a89	-0.06606013
173	0xbd41e5ba	-0.047338225
174	0xbd8929d0	-0.06697428
175	0xbd550371	-0.052005235
176	0xbd948e33	-0.07253685
177	0xbd887d7c	-0.06664559
178	0xbd6e7307	-0.058215167
179	0xbd33f69f	-0.043936368
180	0xbd457980	-0.048211575
181	0xbd9db82a	-0.07701142
182	0xbd9056a7	-0.070477776
183	0xbd4bd190	-0.0497604
184	0xbd74bf78	-0.05975291
185	0xbd89e136	-0.06732409
186	0xbd56db6a	-0.052455343
187	0xbd396297	-0.04526004
188	0xbd9b3451	-0.07578338
189	0xbd980df3	-0.074245356
190	0xbd846a65	-0.06465606
191	0xbd9d918f	-0.07693779
192	0xbd38c08b	-0.0451055
193	0xbd86124d	-0.06546459
194	0xbbe1fcfd	-0.0068966136
195	0xbd75eb14	-0.06003864
196	0xbd2d1742	-0.04225851
197	0xbd6e1c61	-0.058132533
198	0xbd4fbad3	-0.05071528
199	0xbd829510	-0.06376088
200	0xbd8f92ee	-0.070104465
201	0xbd606f3c	-0.05479358
202	0xbda1f20e	-0.079074964
203	0xbd833f0d	-0.0640851
204	0xbd8694b1	-0.065713294
205	0xbd84f948	-0.06492859
206	0xbcc8bac4	-0.02450312
207	0xbd708dac	-0.05872886
208	0xbd84cf53	-0.064848565
209	0xbd83ec6d	-0.06441579
210	0xbd51873c	-0.05115436
211	0xbd8d471a	-0.06898327
212	0xbd498f31	-0.049208824
213	0xbd71cbbf	-0.059032198
214	0xbd4d1d3c	-0.05007671
215	0xbd4523bb	-0.04812978
216	0xbd289a72	-0.041162916
217	0xbd766f7b	-0.06016491
218	0xbd82ceb2	-0.0638708
219	0xbd32bf14	-0.043639258
220	0xbd41fa94	-0.04735811
221	0xbd805e55	-0.062679924
222	0xbd2ac0b0	-0.041687667
223	0xbd3c1b19	-0.04592428
224	0xbd872f50	-0.06600821
225	0x2b0aca5f	4.9308295e-13
226	0xaa5dbf76	-1.969517e-13
227	0xbd7d51ea	-0.061845697
228	0xbd5c23ed	-0.0537452
229	0x3d387292	0.045031138
230	0x3d84c73a	0.06483312
231	0x2b5557ce	7.5794655e-13
232	0xbd2b82d5	-0.041872818
233	0xbd91d0fd	-0.071199395
234	0xbd87997a	-0.0662107
235	0xaa299c17	-1.506437e-13
236	0xbd56f7bf	-0.052482363
237	0xbd2d3758	-0.042289108
238	0xbd7feebf	-0.062483545
239	0xbd8dab29	-0.06917412
240	0xbd9c2b8e	-0.07625495
241	0xbd360b32	-0.04444427
242	0x3c765e94	0.015037198
243	0xbd5665c5	-0.05234315
244	0xbd972bc4	-0.073813945
245	0xaaa4764f	-2.9214345e-13
246	0xbd98e633	-0.07465782
247	0xbd4d1bb8	-0.050075263
248	0xbd4d971a	-0.05019293
249	0xbd25b82c	-0.040458843
250	0xbd46fea1	-0.048582677
251	0xbd81768f	-0.063214414
252	0xbda100c5	-0.07861475
253	0xbd250b77	-0.040294137
254	0xab39417c	-6.581608e-13
255	0xabb6248c	-1.2942022e-12

encoder.dense1.bias f4 [64]
0	0xbd2c34a6	-0.042042397
1	0xbd3db51e	-0.046315305
2	0xbcba9f41	-0.022781016
3	0x3eca8c36	0.39560097
4	0xbd501690	-0.050802767
5	0x3ee3dd4b	0.4450477
6	0x3ef4843e	0.47757143
7	0xbd5d3285	-0.054003257
8	0x3e2019ee	0.15634891
9	0xbdcbe124	-0.099550515
10	0x3ebeb70d	0.37249032
11	0xbd9faa61	-0.07796169
12	0x3d5abd2c	0.053403065
13	0xbd954f43	-0.072905086
14	0x3c857b7e	0.016294237
15	0x3f19eb5a	0.60124743
16	0xbd28c7d4	-0.041206196
17	0xbc883824	-0.016628332
18	0xbddb583d	-0.107101895
19	0x3ecd473e	0.40093416
20	0xbe2f0cf3	-0.17094783
21	0x3da8f6cf	0.082502
22	0xbd8c6bdd	-0.06856511
23	0x3f0a0f8b	0.53929967
24	0xbd468d86	-0.04847481
25	0x3f086fff	0.5329589
26	0x3c526a90	0.012842789
27	0x3ea0828c	0.313496
28	0xbcbc9fe7	-0.023025466
29	0xbd88e31f	-0.06683945
30	0x3de62f9c	0.112395495
31	0xbcab8178	-0.020935759
32	0xbd72eeff	-0.059309956
33	0xbd0aa8b8	-0.03385231
34	0xbd486390	-0.048923075
35	0xbe268ec5	-0.162654
36	0x3eddad01	0.43296054
37	0xbd7b7cdb	-0.06139837
38	0x3f0ee04d	0.55811006
39	0xbe18baf1	-0.14915062
40	0xba3fa1d0	-0.0007310184
41	0xbe183672	-0.14864519
42	0x3e7325e7	0.23744927
43	0xbd8c9d0c	-0.06865892
44	0x3e0cc99b	0.13748781
45	0x3d5ccc90	0.053906024
46	0xba781ba7	-0.000946457
47	0x3eb3c3c7	0.35110304
48	0x3eedc35d	0.46438113
49	0xbdc62cb4	-0.09676495
50	0xbd728db2	-0.059217162
51	0x3f436717	0.7632918
52	0xbe9ecf4d	-0.31017533
53	0x3ed012b7	0.40639278
54	0x3e9d024e	0.3066582
55	0xbd85b694	-0.06528965
56	0xbd4cea55	-0.050028164
57	0x3db8ce42	0.090237156
58	0x3e6a3a9b	0.22873919
59	0x3d581474	0.05275388
60	0x3ea151aa	0.31507617
61	0xbc035bb3	-0.008017468
62	0x3e1d8f9c	0.15386814
63	0x3e80efc9	0.25182942

encoder.encoder1.0.weight f4 [32, 1, 16]
0	0xbe1bd3b0	-0.15217471
1	0xbd9d9a90	-0.07695496
2	0x3d0078f2	0.031365342
3	0x3e262240	0.16224003
4	0xbd10dc99	-0.03536663
5	0xbe20ba39	-0.15696038
6	0xbe2b48f7	-0.16727053
7	0x3c7a30f5	0.015270461
8	0xbd7bd6ff	-0.061484333
9	0xbe7a06a7	-0.244166
10	0xbca0cf42	-0.019630078
11	0xbe08c94d	-0.1335804
12	0x3e33b9dd	0.1755137
13	0xbcd750d6	-0.026283663
14	0xbe06606f	-0.13122724
15	0x3d79857b	0.060918313
16	0xbe15b115	-0.14618333
17	0xbe955562	-0.29166704
18	0xbda45a68	-0.08025056
19	0xbe842cdc	-0.25815475
20	0xbdd96b1f	-0.10616135
21	0x3e3664ab	0.1781184
22	0xbea36780	-0.31914902
23	0xbe1a3668	-0.15059817
24	0xbe6c92d4	-0.23102885
25	0xbe08eb31	-0.13370968
26	0x3ddfbc00	0.1092453
27	0x3b949da6	0.0045353947
28	0x3de044bd	0.10950611
29	0x3cc94776	0.024570208
30	0x3d23acb8	0.03995964
31	0xbd5fdd47	-0.054654386
32	0xbe74f0bd	-0.2391996
33	0xbe437fc0	-0.19091702
34	0xbed120a0	-0.40845203
35	0xbe37812c	-0.17920369
36	0xbeb76af2	-0.3582378
37	0xbe877311	-0.26454976
38	0xbf13e0ca	-0.57764876
39	0x3d2806ee	0.041022234
40	0x3e13339e	0.14375159
41	0x3c1b11bc	0.009464677
42	0xbe5b1bc3	-0.21397309
43	0xbe783e48	-0.24242508
44	0xbe496e21	-0.19670917
45	0x3e16fb0f	0.14744209
46	0x3d97d458	0.07413548
47	0x3d587807	0.052848842
48	0xbcdce606	-0.026965152
49	0xbd6fd012	-0.05854804
50	0x3e620ab7	0.220744
51	0xbdfd8bb8	-0.12380165
52	0xbbc57996	-0.006026457
53	0x3d9a3365	0.07529334
54	0x3d69b456	0.057056747
55	0xbe977ce1	-0.29587463
56	0xbe0e43ee	-0.138931
57	0x3cedf487	0.029047264
58	0xbe26bc8c	-0.16282862
59	0x3e033100	0.12811661
60	0x3d6a89a6	0.057260178
61	0xbe5c2419	-0.21498145
62	0xbeb9ec69	-0.3631318
63	0xbd50dbed	-0.050990988
64	0xbe509834	-0.20370561
65	0xbd8b6940	-0.06807184
66	0xbee7ab5e	-0.4524793
67	0xbe81f43b	-0.25381646
68	0xbd1a0738	-0.03760454
69	0x3e327574	0.17427617
70	0xbe90827a	-0.28224546
71	0x3daaded3	0.083432816
72	0x3d9c4c9a	0.07631798
73	0x3e2895e9	0.16463436
74	0xbe5689ac	-0.20950955
75	0xbe40ce04	-0.18828589
76	0x3dd5e8ef	0.10444819
77	0x3e0727e7	0.13198815
78	0x3d81e630	0.06342733
79	0xbe107588	-0.14107335
80	0xbe26f114	-0.16302902
81	0xbe98cc07	-0.2984316
82	0x3c76cc52	0.015063362
83	0xbe36aa19	-0.17838325
84	0x3e1b05e0	0.1513896
85	0xbe5457ef	-0.20736669
86	0xbe2ec4a0	-0.17067194
87	0x3d9c38e9	0.07628042
88	0x3e1af21a	0.15131417
89	0xbe6c7763	-0.23092417
90	0xbe0a2578	-0.13490856
91	0x3df72524	0.12067631
92	0xbe4f62cd	-0.20252533
93	0x3e064f4d	0.13116188
94	0x3d04c4b0	0.03241414
95	0xbe240d45	-0.16020687
96	0xbd97f817	-0.07420366
97	0xbd1f44fa	-0.03888414
98	0x3cb42c4e	0.021993782
99	0x3d4901b9	0.04907391
100	0x3d93600f	0.07196056
101	0x3d2559c8	0.040368825
102	0x3de1890f	0.1101247
103	0xbd82cc11	-0.06386579
104	0xbe8d059d	-0.27543345
105	0xbe81ad9b	-0.25327763
106	0xbe95a811	-0.29229787
107	0xbe122441	-0.14271642
108	0xbeae2664	-0.34013665
109	0xbb87d8b6	-0.004145707
110	0xbe8b9599	-0.2726257
111	0xbdda05c3	-0.1064563
112	0xbe41bb69	-0.18919148
113	0x3c3c0532	0.011475848
114	0xbe234452	-0.15944031
115	0x3e1636b5	0.14669307
116	0x3e190d8d	0.14946575
117	0xbd854c52	-0.065086976
118	0x3d15b7f4	0.036552384
119	0x3dc75958	0.09733838
120	0x3c8f926a	0.01752587
121	0xbe9c83c1	-0.3056927
122	0xbe694ad9	-0.22782458
123	0xbe64a053	-0.22326784
124	0xbe616bd2	-0.22013786
125	0xbe4487a8	-0.19192374
126	0xbe18eabe	-0.14933297
127	0xbe81e602	-0.25370795
128	0x3e3a6282	0.1820164
129	0x3dfe7ba7	0.124259286
130	0x3e1a5d37	0.15074621
131	0x3cd16b2c	0.025563799
132	0xbe64c75b	-0.22341673
133	0xbdd0a9ab	-0.101886116
134	0xbe04fb0c	-0.12986392
135	0xbe9accfa	-0.3023451
136	0xbd91acdb	-0.07113048
137	0xbcd8a07e	-0.026443716
138	0x3d3232d0	0.04350549
139	0x3e317987	0.17331515
140	0xbe01c6dc	-0.12673515
141	0xbc16fb8a	-0.009215245
142	0xbc1678ac	-0.009184044
143	0xbe34de92	-0.17663029
144	0x3e04ac74	0.1295641
145	0xbe160648	-0.14650834
146	0x3dbe50b0	0.09292734
147	0xbe1e53dd	-0.15461679
148	0xbd1d7d97	-0.03844985
149	0xbde24917	-0.11049097
150	0x3deb8bf4	0.11501303
151	0xbe8e3952	-0.27778107
152	0x3e242c37	0.16032492
153	0x3e2a4fab	0.16631953
154	0xbcc63420	-0.024194777
155	0x3cc93147	0.02455963
156	0xbe28fc63	-0.16502528
157	0x3e2f9c7e	0.17149541
158	0xbd8756c0	-0.06608343
159	0x3df97a4f	0.12181532
160	0xbe365c37	-0.17808615
161	0xbe895457	-0.2682216
162	0xbcb3dda1	-0.021956267
163	0x3c433320	0.011914045
164	0x3d8cc331	0.06873167
165	0x3cb0f374	0.021600462
166	0xbe478841	-0.1948557
167	0xbd94f1f0	-0.072727084
168	0xbe1d063a	-0.15334406
169	0x3d1a79e6	0.037713908
170	0x3e337fd9	0.17529239
171	0x3d2cbe1c	0.04217349
172	0xbe27db81	-0.16392328
173	0xbe93dd92	-0.28879982
174	0xbd6bf1f7	-0.057603803
175	0xbe677f51	-0.22607161
176	0xbe17da5b	-0.1482939
177	0xbdfaa9bd	-0.12239406
178	0xbdf8bb22	-0.12145068
179	0xbda168bc	-0.078813046
180	0xbdd9f3fd	-0.1064224
181	0x3e03387d	0.12814517
182	0x3de9c996	0.114154026
183	0xbdd2d1be	-0.102939114
184	0xbda90232	-0.08252372
185	0xbe6b4013	-0.22973661
186	0xbe08311c	-0.13299984
187	0xbd8de83f	-0.06929063
188	0xbdc9b361	-0.09848667
189	0xbe3031cb	-0.17206495
190	0xbd36a5e3	-0.044591796
191	0xbd80fc93	-0.06298175
192	0x3d1a9f5a	0.037749626
193	0x3d295deb	0.041349333
194	0xbe67e85b	-0.2264723
195	0xbe275efc	-0.16344827
196	0x3dec79d4	0.11546674
197	0x3d707c9a	0.05871258
198	0x3dd8855d	0.10572312
199	0xbd7d5ac5	-0.061854143
200	0xbe39bfc1	-0.18139555
201	0xbd718c99	-0.058971975
202	0x3d75f565	0.06004848
203	0xbd24e611	-0.04025847
204	0xbe329476	-0.17439446
205	0xbd60aceb	-0.054852407
206	0x3dcc803a	0.09985395
207	0xbe0bb5f0	-0.13643622
208	0xbe562629	-0.20912994
209	0xbdfc3cd1	-0.12316287
210	0xbdd42af3	-0.103597544
211	0x3e06b22e	0.13153908
212	0xbeb8a1f7	-0.3606107
213	0xbdfd411b	-0.123659335
214	0xbe8efa4a	-0.2792533
215	0xbda3f792	-0.08006205
216	0x3e07df14	0.13268691
217	0xbe91442c	-0.28372324
218	0xbdd7cee5	-0.10537509
219	0xbdc33d9c	-0.095332354
220	0x3dc9a934	0.09846726
221	0x3d8c3405	0.068458594
222	0xbcb11b29	-0.021619396
223	0xbd7b3824	-0.061332837
224	0x3e331452	0.1748822
225	0xbe2ca8a4	-0.16861206
226	0xbe29fa89	-0.16599478
227	0x3db88b49	0.090109415
228	0x3da533b9	0.08066506
229	0xbdfce769	-0.123488255
230	0xbe14aa7b	-0.14518158
231	0xbe064a08	-0.13114178
232	0xbdd753c8	-0.10514027
233	0xbe0f66b2	-0.14004019
234	0x3df70e3a	0.120632604
235	0x3d96e448	0.0736776
236	0x3cd4d736	0.025981527
237	0xbe12753d	-0.14302535
238	0xbd724bec	-0.059154436
239	0xbdaab640	-0.08335543
240	0x3d9d407a	0.076783136
241	0xbe3af7c7	-0.18258582
242	0xbde8e1a1	-0.1137116
243	0xbd7343e0	-0.059390903
244	0xbdb89cc6	-0.09014277
245	0xbd830882	-0.06398107
246	0xbd46b8a0	-0.048515916
247	0xbd82daae	-0.06389366
248	0x3e33ac83	0.17546277
249	0xbe8903bf	-0.2676067
250	0xbe1cbcfc	-0.15306467
251	0x3d9fe70f	0.07807743
252	0x3e08b832	0.13351515
253	0xbbcc2ac7	-0.0062306854
254	0xbd513dd6	-0.051084362
255	0xbd8996ff	-0.06718253

encoder.encoder1.0.bias f4 [32]
0	0xbea960c0	-0.33081627
1	0x3e146220	0.14490557
2	0xbd99573c	-0.07487342
3	0x3cc960e5	0.024582336
4	0xbc0e69dd	-0.008692232
5	0xbe475286	-0.19465074
6	0xbf41913f	-0.7561225
7	0x3d253ad4	0.040339306
8	0xbf466417	-0.77496475
9	0xbeb555b8	-0.3541696
10	0xbdf17e72	-0.11791696
11	0x3db7c1b9	0.089724965
12	0xbea52bd1	-0.32259992
13	0xbe0807f0	-0.13284278
14	0x3ea38b2e	0.31942123
15	0xbea58af0	-0.32332563
16	0xbe7308e6	-0.23733863
17	0xbe68618c	-0.22693461
18	0x3c347b17	0.011015675
19	0xbf349518	-0.7054
20	0x3dacbe2e	0.084347114
21	0xbf01c7a2	-0.5069524
22	0xbdab0ea6	-0.08352403
23	0xbd942f1a	-0.072355464
24	0x3c53c40d	0.01292516
25	0x3db344c3	0.0875335
26	0x3b52b8fa	0.0032153712
27	0xbed91cb0	-0.424047
28	0xbf0e6c21	-0.5563374
29	0x3c99cb3d	0.01877367
30	0xbec747b2	-0.38921887
31	0x3d877a58	0.06615132

encoder.encoder1.2.weight f4 [32, 32, 16]
0	0xbd22c533	-0.039738845
1	0xbdc619ae	-0.09672867
2	0xbdc2f3da	-0.09519167
3	0xbd5b797e	-0.05358266
4	0xbdc875a3	-0.097880624
5	0xbdaa6f65	-0.08322028
6	0xbda462c8	-0.080266535
7	0xbdb662f2	-0.08905591
8	0xbd121a11	-0.03566939
9	0xbd392579	-0.045201752
10	0xbdc857ac	-0.09782347
11	0xbdb39f3c	-0.08770606
12	0xbd76db30	-0.060267627
13	0xbdaa6fdd	-0.083221175
14	0xbdb115fe	-0.08646773
15	0xbc65ed31	-0.014033602
16	0xbdb2d249	-0.08731515
17	0xbcb4b905	-0.02206088
18	0xbcad9382	-0.021188501
19	0xbcf7f75e	-0.030269321
20	0xbd99a3a9	-0.07501919
21	0xbd9fb04d	-0.077972986
22	0xbc2d030d	-0.010559809
23	0xbd9f393f	-0.07774591
24	0xbdbdaf41	-0.09261943
25	0xbd9b248a	-0.07575329
26	0xbc449ccc	-0.012000274
27	0xbd46b40b	-0.048511546
28	0xbd966c07	-0.07344823
29	0xbdc36b86	-0.09541993
30	0xbdab08f7	-0.08351319
31	0xbd36cd23	-0.044629227
32	0xbd3e0dc1	-0.046399835
33	0xbd86f929	-0.06590492
34	0xbda6e88c	-0.081498235
35	0xbd33b54b	-0.043874066
36	0xbdaf0eed	-0.08547769
37	0xbde5394b	-0.111925684
38	0xbd6cee70	-0.05784458
39	0xbcb930fc	-0.022606365
40	0xbcfa5630	-0.030558676
41	0xbd33c760	-0.04389131
42	0xbd9c77f8	-0.0764007
43	0xbcdfe78f	-0.027332095
44	0xbd8d7153	-0.069063805
45	0xbd35d5ec	-0.044393465
46	0xbdaf2efe	-0.08553885
47	0xbdecfddd	-0.11571858
48	0xbd2f8891	-0.04285485
49	0xbd9fb45d	-0.077980734
50	0xbd962dd8	-0.07332963
51	0xbd8f732a	-0.07004388
52	0xbd4d502a	-0.05012528
53	0xbdb105aa	-0.086436585
54	0xbc974617	-0.018466039
55	0xbd832c39	-0.06404919
56	0xbc8d5316	-0.017251533
57	0xbd9d86d1	-0.0769173
58	0xbd7f9b98	-0.062404245
59	0xbd1dbb38	-0.038508624
60	0xbd0cef21	-0.03440774
61	0xbd77312e	-0.060349636
62	0xbccdedff	-0.0251379
63	0xbdafe7b1	-0.085891135
64	0xbcd9ca7b	-0.026585808
65	0xbdd2e69d	-0.10297892
66	0xbcd8d2db	-0.026467731
67	0xbd492048	-0.04910305
68	0xbc84a589	-0.016192215
69	0xbd8f32aa	-0.06992085
70	0xbdcb8b9f	-0.0993874
71	0xbd1f3ada	-0.038874485
72	0xbd82b8ed	-0.06382928
73	0xbd167ebb	-0.036741953
74	0xbd9bc094	-0.07605091
75	0xbd207c43	-0.039181005
76	0xbdab2fd0	-0.08358729
77	0xbd968a4e	-0.07350598
78	0xbd4a2303	-0.049349796
79	0xbd25a8b0	-0.040444076
80	0xbdbeee5f	-0.093228094
81	0xbd986636	-0.0744137
82	0xbdce74c1	-0.10080863
83	0xbd05e779	-0.032691453
84	0xbdb54084	-0.08850196
85	0xbdb1b7b3	-0.08677616
86	0xbde3f2f1	-0.11130322
87	0xbd9d62ca	-0.07684858
88	0xbdb43dc3	-0.088008426
89	0xbdabb754	-0.083845764
90	0xbd435709	-0.047690425
91	0xbca4ef74	-0.020133711
92	0xbdb12537	-0.08649676
93	0xbd1b7e46	-0.03796222
94	0xbd45e6d8	-0.048315853
95	0xbd086423	-0.033298623
96	0xbdb810c0	-0.0898757
97	0xbda0266a	-0.07819827
98	0xbd312bc2	-0.04325462
99	0xbd95fc3a	-0.07323499
100	0xbd590ba1	-0.052989606
101	0xbdc12c67	-0.09432297
102	0xbd8956c1	-0.06706
103	0xbdcc4f67	-0.09976082
104	0xbd812334	-0.063055426
105	0xbdc2b187	-0.09506517
106	0xbd36f75d	-0.044669498
107	0xbd2d96a3	-0.042379986
108	0xbd7a7001	-0.06114197
109	0xbd701442	-0.05861307
110	0xbcd9bc96	-0.026579183
111	0xbd94eadc	-0.07271358
112	0xbdb6321f	-0.088962786
113	0xbd865395	-0.06558911
114	0xbd64917a	-0.0558028
115	0xbd9cedcb	-0.07662543
116	0xbcb6ba68	-0.022305682
117	0xbdacbdd4	-0.08434644
118	0xbd18bb98	-0.03728828
119	0xbce6de07	-0.028182043
120	0xbd1d8508	-0.038456947
121	0xbda21d98	-0.07915801
122	0xbcb68f5c	-0.022285156
123	0xbd2cdc88	-0.042202502
124	0xbd8759c3	-0.066089176
125	0xbc54404f	-0.0129547855
126	0xbd5b90c1	-0.053604845
127	0xbd27182b	-0.040794533
128	0xbcd5b766	-0.026088428
129	0xbd11ea60	-0.035623908
130	0xbcf916d7	-0.030406399
131	0xbda47146	-0.08029418
132	0xbd8ae28b	-0.06781491
133	0xbd42c7db	-0.04755388
134	0xbd1ec813	-0.038765024
135	0xbd0a3f1c	-0.033751592
136	0xbd4c6a4c	-0.04990606
137	0xbd3dc543	-0.0463307
138	0xbd14e2f3	-0.03634925
139	0xbda1e629	-0.07905228
140	0xbda6b8c4	-0.0814071
141	0xbda28d85	-0.07937149
142	0xbdccd78c	-0.1000205
143	0xbd9d7c16	-0.07689683
144	0xbd636147	-0.055512693
145	0xbdbdaa96	-0.09261052
146	0xbd043c10	-0.032283843
147	0xbc9515e8	-0.018198922
148	0xbdadb8f0	-0.0848254
149	0xbdb75645	-0.089520015
150	0xbd807b62	-0.062735334
151	0xbc797f07	-0.01522804
152	0xbdb6f963	-0.089342855
153	0xbcade3ce	-0.02122679
154	0xbcb80907	-0.022465242
155	0xbd8b0c5a	-0.06789465
156	0xbdcc9f43	-0.09991314
157	0xbd6d3aac	-0.057917282
158	0xbd744c56	-0.059643112
159	0xbda3b848	-0.07994133
160	0xbd12a91e	-0.035805814
161	0xbdab47fd	-0.0836334
162	0xbd54515f	-0.051835414
163	0xbca439b2	-0.020047043
164	0xbcc2a5a4	-0.023760624
165	0xbd99e105	-0.07513622
166	0xbd19929f	-0.037493344
167	0xbd5106b0	-0.05103177
168	0xbd3a073d	-0.04541706
169	0xbd6d3bc7	-0.057918336
170	0xbde909ea	-0.11378844
171	0xbdb9d3a2	-0.09073569
172	0xbd7d84c7	-0.061894204
173	0xbd81a7bd	-0.06330822
174	0xbd349eea	-0.044096865
175	0xbdaac5a2	-0.08338477
176	0xbcd130b0	-0.025535911
177	0xbd23ee17	-0.040021982
178	0xbd31dfcd	-0.043426324
179	0xbce411dc	-0.027840547
180	0xbd4346fd	-0.04767512
181	0xbd980e71	-0.074246295
182	0xbda9cd09	-0.082910605
183	0xbd9b956a	-0.07596858
184	0xbd874479	-0.06604857
185	0xbdcc9001	-0.09988404
186	0xbd9dceb9	-0.07705445
187	0xbda9d16a	-0.08291896
188	0xbd4cb5f1	-0.0499782
189	0xbcc6eb9d	-0.024282271
190	0xbd51d6eb	-0.051230352
191	0xbd3186ea	-0.043341555
192	0xbcf40742	-0.029788617
193	0xbda52896	-0.08064382
194	0xbd49bb07	-0.04925063
195	0xbcfc1dfc	-0.030776016
196	0xbd87b9a6	-0.066272065
197	0xbd2cc9f2	-0.042184778
198	0xbd51e252	-0.051241226
199	0xbd4420e2	-0.047882922
200	0xbdaf3849	-0.085556574
201	0xbc842ca8	-0.016134575
202	0xbd471a36	-0.04860898
203	0xbc9db4b2	-0.019251201
204	0xbdcb2c5d	-0.09920571
205	0xbda4aecf	-0.080411546
206	0xbd10307e	-0.035202496
207	0xbd413c7a	-0.047176816
208	0xbd8c1d84	-0.06841567
209	0xbdad2f04	-0.08456233
210	0xbd87df1d	-0.06634352
211	0xbcca8148	-0.02471985
212	0xbd920032	-0.071289435
213	0xbd04a0d0	-0.032379925
214	0xbd42dfde	-0.047576778
215	0xbca02e36	-0.019553285
216	0xbd56d452	-0.05244858
217	0xbc95891f	-0.018253861
218	0xbd277fac	-0.04089324
219	0xbd5d6e42	-0.05406023
220	0xbc9c2847	-0.019062174
221	0xbd5586f4	-0.052130654
222	0xbd794a2a	-0.060861744
223	0xbc8d7100	-0.017265797
224	0xbdee4fdb	-0.11636325
225	0xbd5eb6cc	-0.054373547
226	0xbd6f7837	-0.058464255
227	0xbd0bfa7d	-0.03417443
228	0xbdd9c195	-0.10632626
229	0xbd868182	-0.065676704
230	0xbdc59e6f	-0.096493594
231	0xbdb96d98	-0.090541065
232	0xbd3f1467	-0.046650317
233	0xbd169958	-0.036767334
234	0xbd606331	-0.054782096
235	0xbdad0e7c	-0.08450028
236	0xbdc29b57	-0.09502285
237	0xbdd83b3e	-0.105581746
238	0xbdaadb4d	-0.083426096
239	0xbd89eccb	-0.06734618
240	0xbd1940ba	-0.037415244
241	0xbcfeb9ab	-0.031094393
242	0xbcd99b5e	-0.026563343
243	0xbdabd176	-0.08389561
244	0xbd1863a0	-0.037204385
245	0xbd75aa5b	-0.059976917
246	0xbdb91d2a	-0.09038766
247	0xbd229816	-0.03969582
248	0xbcb70a61	-0.022343816
249	0xbd9082ae	-0.07056175
250	0xbdb7b384	-0.08969787
251	0xbdb2b5c6	-0.08726077
252	0xbdca1c4d	-0.09868679
253	0xbd1231b2	-0.035691924
254	0xbd8d7026	-0.06906156
255	0xbce8403e	-0.028350946

encoder.encoder1.2.bias f4 [32]
0	0xbdc5d24c	-0.096592516
1	0xbdd15f68	-0.102232754
2	0xbdfebc40	-0.124382496
3	0xbdc69439	-0.0969624
4	0xbda21464	-0.079140455
5	0xbd062bcb	-0.032756608
6	0xbd7bc0a3	-0.06146301
7	0xbded14de	-0.11576246
8	0xbd363390	-0.044482768
9	0xbc7c62e1	-0.015404434
10	0xbdab7fcb	-0.08373984
11	0xbdb8d4c4	-0.09024957
12	0xbd49835f	-0.04919755
13	0xbd962caa	-0.07332738
14	0xbd89ba13	-0.06724944
15	0xbd8a6606	-0.06757741
16	0xbd445760	-0.04793489
17	0xbdf7ebaf	-0.121055
18	0xbd93dcdc	-0.0721986
19	0xbd2d70d1	-0.04234392
20	0xbd536403	-0.05160905
21	0xbd6bc0d7	-0.057556953
22	0xbd56f3b7	-0.05247852
23	0xbdce80be	-0.100831494
24	0xbd06c012	-0.032898016
25	0xbd3b3def	-0.04571336
26	0xbd48383f	-0.048881765
27	0xbc855f61	-0.016280832
28	0xbc989bde	-0.01862901
29	0xbd867f34	-0.06567231
30	0x3eb82037	0.35962078
31	0xbd1b64ea	-0.037938036
