CAC/DC/networks/weights/DC/DC_2_myTestCACclassifierAccuracy.pth (torch, 754052 bytes, 19 tensors)

anchors f8 [4, 4]
00000000: 0000 0000 0000 2440 0000 0000 0000 0000
00000010: 0000 0000 0000 0000 0000 0000 0000 0000
00000020: 0000 0000 0000 0000 0000 0000 0000 2440
00000030: 0000 0000 0000 0000 0000 0000 0000 0000
00000040: 0000 0000 0000 0000 0000 0000 0000 0000
00000050: 0000 0000 0000 2440 0000 0000 0000 0000
00000060: 0000 0000 0000 0000 0000 0000 0000 0000
00000070: 0000 0000 0000 0000 0000 0000 0000 2440
10.0 0.0 0.0 0.0 0.0 10.0 0.0 0.0
0.0 0.0 10.0 0.0 0.0 0.0 0.0 10.0

encoder.conv1.weight f4 [32, 1, 16]
00000000: d477 1bbe 00d5 9fbd 46a8 0c3d 1b17 243e
00000010: 9ce4 06bd 360d 22be 42c8 29be 148a 6f3c
00000020: 20f8 7bbd 1620 7abe 525e 97bc 5496 07be
00000030: c1f7 2d3e bb37 a3bc 895d 06be 7145 643d
00000040: c2be 04be e01b 93be 526e aebd a3d2 7bbe
00000050: d721 c0bd e6eb 393e 91a4 a2be 0198 26be
00000060: 88cd 70be 14c1 05be 62f4 e13d 2327 033c
00000070: a35a eb3d 9384 0d3d 7b3d 273d e738 4fbd
00000080: f4cf 6dbe 8b79 32be d56b b7be 2b87 59be
00000090: 0940 c0be 387f 64be cdbd 12bf 9072 d33c
000000a0: 9e26 0b3e 97f2 c8bb 5b00 65be 10e3 71be
000000b0: 43de 41be 5cca 163e cb51 8e3d 9a62 803d
000000c0: 63e7 9fbc a317 80bd 17df 4e3e 32a3 05be
000000d0: 9348 a7bb 3f30 8f3d a4c3 613d 24d1 97be
000000e0: 4817 0fbe f5f2 003d a10a 25be d209 fe3d
000000f0: 85de 963d 1c81 67be 4cc8 b3be 1c4b 56bd
00000100: fa86 6cbe db69 98bd 29dd cbbe 0c77 8abe
00000110: 3913 49bd ad2f 0d3e ac81 8dbe d002 b63d
00000120: da13 a93d 415e 1b3e 135f 5fbe 3d54 4bbe
00000130: 3dc2 c23d 864e 073e 6b3f 3b3d 2e12 14be
00000140: 7352 22be faca 97be 5373 273c 8e96 35be
00000150: 36e2 0a3e 1e40 55be 63b3 31be d340 8a3d
00000160: 76f5 153e 7173 6fbe b248 06be e7fc 0c3e
00000170: f203 52be 339a 103e 9c70 113d 010d 21be
00000180: 3704 95bd 158f 19bd ac39 d53c 05fc 573d
00000190: b1cc 9b3d 1661 1e3d 011c ea3d bacf 7fbd
000001a0: 0de0 8cbe db9a 80be 55e3 92be 08a5 0bbe
000001b0: c160 adbe 9ce0 99bb bde8 8abe 076c d5bd
000001c0: 8bba 41be 0d4c 813c 3e85 22be 09a7 163e
000001d0: 067b 1b3e e7f9 85bd 67c0 163d d054 c73d
000001e0: a361 8c3c 6a55 9cbe afde 65be 2ddd 62be
000001f0: d36b 5dbe 2a15 47be 954e 1bbe a40a 81be
00000200: 6780 2d3e 674d 023e beb9 253e f0d6 dc3c
00000210: f18c 70be bbf1 dfbd 3e55 08be 7b5a 9ebe
00000220: 0b9d 96bd 73d8 12bd 0123 20bc ff31 f83d
00000230: c09b 2abe 8390 2cbd 8356 19bc a75c 37be
00000240: 4649 073e 4bfd 15be 7385 b83d 861b 21be
00000250: 1722 1cbd 410b e1bd 46a6 e83d 20b5 8fbe
00000260: c4cd 253e fbd1 2c3e 3a59 bfbc fca0 da3c
00000270: 66e0 1fbe 92e8 3b3e c961 7ebd 3a6a fa3d
00000280: 442e 31be 9f76 89be 9329 fabb 982c af3c
00000290: 7107 763d 985b 6a3c 966d 4bbe 86cb 9bbd
000002a0: 6476 1abe 97e5 243d d602 353e 218b 383d
000002b0: e13b 24be 6974 92be ec4e 59bd 52bd 5abe
000002c0: d2ec 08be 69f7 fdbd 7bd2 febd 6d94 a6bd
000002d0: 35ce dbbd c3c9 053e 515d e53d 51fd d5bd
000002e0: ba6f 97bd fa9f 6abe bd3c 02be b4f1 8fbd
000002f0: 24c9 e2bd 64c1 1ebe 009a f0bc e1b9 99bd
00000300: 66eb 153d c7ca 183d da14 68be ed11 26be
00000310: 2f5a f13d 3508 7d3d 09d3 dd3d 0783 70bd
00000320: 0235 39be fc7d 6dbd 729e 7c3d 7c46 1ebd
00000330: 2041 30be d919 5fbd 6730 d53d a74f 08be
00000340: 3705 5bbe d506 f6bd 3130 d5bd 8635 ec3d
00000350: b780 b6be 09f6 f1bd 0d90 8dbe 72fa 9ebd
00000360: 212b 073e 6a7f 90be 804b dbbd 278c cfbd
00000370: 0255 b83d 58aa 923d 13b2 bbbc e386 77bd
00000380: e360 323e 0bd7 1ebe 7355 36be bc4c a73d
00000390: 382d 9b3d 9f8e 06be 2447 f8bd dd84 12be
000003a0: b480 c0bd ea05 23be 7e19 a93d ddd8 ea3d
000003b0: 7325 643d bd61 0ebe b68c 80bd d842 c3bd
000003c0: e9bc a93d 87fa 39be 526a eabd ccbd 93bd
000003d0: af6e b1bd 7583 88bd a5ea 39bd 661d 7ebd
000003e0: 4b56 303e 05b0 88be a680 1abe 8804 a73d
000003f0: d4e7 103e 9bab 123b 30d1 37bd fed9 85bd
-0.1518243 -0.078042984 0.034340166 0.16024439 -0.032932863 -0.15825352 -0.16580299 0.014620323
-0.061515927 -0.24426302 -0.018477593 -0.1324094 0.16989042 -0.019924035 -0.13121618 0.055730287
-0.12963393 -0.28732204 -0.08517136 -0.2459207 -0.093814544 0.18156394 -0.3176618 -0.16268922
-0.23515904 -0.13061935 0.110329404 0.008004936 0.11491897 0.03455026 0.040830117 -0.050591376
-0.23223859 -0.17429177 -0.35824457 -0.21242969 -0.37548855 -0.22314155 -0.57320863 0.025811464
0.1358895 -0.0061324346 -0.22363417 -0.23621774 -0.18932442 0.14725631 0.069491945 0.06268807
-0.019519513 -0.06254508 0.2020229 -0.13050535 -0.005105087 0.06991624 0.055118218 -0.2965175
-0.13973725 0.031481702 -0.16117336 0.12404217 0.07366661 -0.22607845 -0.35113752 -0.052317724
-0.23098364 -0.07442065 -0.3981717 -0.2704395 -0.049090598 0.13787718 -0.27637994 0.08887255
0.082557395 0.15172674 -0.21813612 -0.19856353 0.09509704 0.13213548 0.045714777 -0.1446006
-0.15851764 -0.29647046 0.0102203665 -0.17733213 0.13562855 -0.2082524 -0.17353587 0.067506455
0.14644417 -0.23383881 -0.13113669 0.1376835 -0.20509318 0.14121322 0.035507783 -0.15727617
-0.072761945 -0.03748997 0.026028477 0.05273058 0.07607401 0.038666807 0.114311226 -0.062453963
-0.27514687 -0.25118145 -0.28689066 -0.13637173 -0.3386288 -0.004695965 -0.2713069 -0.10420995
-0.18918817 0.015783334 -0.1587114 0.14712156 0.15183648 -0.06541806 0.036804583 0.097329736
0.0171364 -0.30533916 -0.22448228 -0.22154684 -0.21623163 -0.19441667 -0.15166695 -0.2520343
0.16943513 0.12724839 0.16184136 0.026957959 -0.23491265 -0.10934778 -0.13313767 -0.30928406
-0.07354172 -0.035850953 -0.009773971 0.12118911 -0.16660976 -0.042130005 -0.009359005 -0.17906438
0.13211545 -0.14647405 0.090098284 -0.15733156 -0.038118448 -0.10988475 0.11359839 -0.28067875
0.16191775 0.16876976 -0.023357976 0.026688091 -0.15612945 0.18350437 -0.062104974 0.12227292
-0.17302805 -0.26848313 -0.0076343506 0.021383569 0.06006569 0.014304064 -0.19866022 -0.076071784
-0.15084225 0.040258016 0.17676863 0.04505456 -0.16038467 -0.2860444 -0.05305378 -0.21361282
-0.1337159 -0.12400705 -0.1244249 -0.08133779 -0.1073269 0.13065247 0.11199439 -0.10448707
-0.07394357 -0.22912589 -0.12718482 -0.07028523 -0.11073521 -0.1550346 -0.029370308 -0.07506157
0.036601447 0.03730276 -0.22664204 -0.16217776 0.11784779 0.061775405 0.108312674 -0.058718707
-0.18086627 -0.057981476 0.061674543 -0.038641438 -0.17212343 -0.05446801 0.10409623 -0.13311635
-0.21388708 -0.12013022 -0.104095824 0.11533646 -0.35645077 -0.118145056 -0.27648965 -0.077626124
0.13200046 -0.2822221 -0.1070776 -0.10134154 0.09000589 0.07161397 -0.02291206 -0.060431372
0.17419772 -0.1551172 -0.17806034 0.08168933 0.07576984 -0.13140343 -0.12122944 -0.14308496
-0.09399548 -0.15920225 0.082568154 0.11467145 0.055699777 -0.13904472 -0.062768385 -0.09534234
0.08287985 -0.18161975 -0.1144606 -0.07213935 -0.08663689 -0.066656984 -0.04538979 -0.062039755
0.17220418 -0.26696792 -0.15088138 0.08155161 0.14150935 0.0022380117 -0.04487723 -0.06535719

encoder.conv1.bias f4 [32]
00000000: 7e7f 9fbe 596d 103e 0dba 31bd f1ae 5b38
00000010: 1313 02bc 5646 6ebe 8ed0 34bf ce7d 1e3d
00000020: 20ae 3abf 8126 afbe d083 47bd 3e77 ab3d
00000030: d4d8 97be 613f 8ebd bb02 af3e 2475 98be
00000040: 170f 63be 8122 55be de96 a43b 6203 25bf
00000050: 6474 8e3d ab5d fcbe d6d3 7cbd 408d 38bc
00000060: b679 a1bb cd19 d43d fd00 d9bb 5299 bcbe
00000070: 5b43 0dbf 9ed9 8f3c 94e4 bdbe aedd 8b3d
-0.31151956 0.14104213 -0.043390322 5.2376596e-05 -0.007939118 -0.23269019 -0.7063073 0.038694195
-0.72921944 -0.34209064 -0.04870969 0.08372353 -0.29657614 -0.06945682 0.3418177 -0.2977687
-0.22173725 -0.20813943 0.0050228676 -0.64458287 0.069557935 -0.49290213 -0.06172546 -0.011264145
-0.004927839 0.103564836 -0.0066224323 -0.36835724 -0.551809 0.017559823 -0.37088454 0.068293914

encoder.conv2.weight f4 [32, 32, 16]
00000000: 93c5 22bd 2e1a c6bd 5af4 c2bd fe79 5bbd
00000010: 2376 c8bd c56f aabd 2863 a4bd 7263 b6bd
00000020: 711a 12bd d925 39bd 2c58 c8bd 9c9f b3bd
00000030: b6db 76bd 3d70 aabd 7316 b1bd d1ed 65bc
00000040: 89d2 b2bd 45b9 b4bc c293 adbc bef7 f7bc
00000050: e9a3 99bd adb0 9fbd 6d03 2dbc 9f39 9fbd
00000060: c1af bdbd ea24 9bbd 359d 44bc 6bb4 46bd
00000070: 676c 96bd f36b c3bd 5709 abbd a3cd 36bd
00000080: 410e 3ebd 89f9 86bd 0ce9 a6bd ebb5 33bd
00000090: aa0f afbd 4b3a e5bd 70ef 6cbd bc31 b9bc
000000a0: 1057 fabc 00c8 33bd 7878 9cbd 6fe8 dfbc
000000b0: f371 8dbd acd6 35bd be2f afbd ddfe ecbd
000000c0: 1189 2fbd ddb4 9fbd 582e 96bd 8a73 8fbd
000000d0: aa50 4dbd 0a06 b1bd 7746 97bc 792c 83bd
000000e0: 5653 8dbc 3187 9dbd 189c 7fbd 91bb 1dbd
000000f0: 61ef 0cbd ae31 77bd 7fee cdbc 31e8 afbd
00000100: e5ca d9bc fde6 d2bd 3bd3 d8bc a820 49bd
00000110: c9a5 84bc 0a33 8fbd 1f8c cbbd 3a3b 1fbd
00000120: 2db9 82bd 1b7f 16bd f4c0 9bbd a37c 20bd
00000130: 5030 abbd c08a 96bd 9b23 4abd 2ca9 25bd
00000140: dfee bebd 9666 98bd 4b75 cebd d9e7 05bd
00000150: 0441 b5bd 33b8 b1bd b1f3 e3bd 4a63 9dbd
00000160: 633e b4bd efb7 abbd a957 43bd 14f0 a4bc
00000170: d725 b1bd e67e 1bbd 98e7 45bd a364 08bd
00000180: 3511 b8bd ca26 a0bd 222c 31bd 7afc 95bd
00000190: 010c 59bd a72c c1bd e156 89bd a74f ccbd
000001a0: 5423 81bd c7b1 c2bd 9df7 36bd e396 2dbd
000001b0: 5c70 7abd a214 70bd f6bc d9bc 1ceb 94bd
000001c0: 9f32 b6bd f553 86bd fa91 64bd 0bee 9cbd
000001d0: a8ba b6bc 14be acbd d8bb 18bd 67de e6bc
000001e0: 4885 1dbd d81d a2bd 9c8f b6bc c8dc 2cbd
000001f0: 035a 87bd af40 54bc 2f91 5bbd 8b18 27bd
00000200: dfb7 d5bc c0ea 11bd 7717 f9bc a871 a4bd
00000210: ebe2 8abd 5bc8 42bd 72c8 1ebd 5c3f 0abd
00000220: 926a 4cbd 83c5 3dbd 33e3 14bd 69e6 a1bd
00000230: 04b9 a6bd c58d a2bd ccd7 ccbd 567c 9dbd
00000240: 6761 63bd b6aa bdbd 303c 04bd 0816 95bc
00000250: 10b9 adbd 6556 b7bd 827b 80bd 477f 79bc
00000260: 83f9 b6bd eee3 adbc 2709 b8bc 7a0c 8bbd
00000270: 639f ccbd ec3a 6dbd 964c 74bd 68b8 a3bd
00000280: bea9 12bd bd48 abbd 3f52 54bd 523a a4bc
00000290: 64a6 c2bc 85e1 99bd 1f93 19bd 8407 51bd
000002a0: 1d08 3abd 053d 6dbd 4a0b e9bd a2d4 b9bd
000002b0: 0786 7dbd 5da8 81bd ca9f 34bd 82c6 aabd
000002c0: 8a32 d1bc 45ef 23bd cde0 31bd ed12 e4bc
000002d0: dd47 43bd 110f 98bd c9cd a9bd 1e96 9bbd
000002e0: 1945 87bd e190 ccbd 59cf 9dbd 2ad2 a9bd
000002f0: f1b6 4cbd bdec c6bc 4cd8 51bd 2a88 31bd
00000300: a207 f4bc d628 a5bd 47bb 49bd 3c1e fcbc
00000310: c6b9 87bd 32ca 2cbd 92e2 51bd 2221 44bd
00000320: 8938 afbd c82c 84bc 761a 47bd d2b4 9dbc
00000330: 9d2c cbbd 0faf a4bd bb30 10bd ba3c 41bd
00000340: 041e 8cbd a42f adbd 9ddf 87bd 0582 cabc
00000350: c200 92bd 70a1 04bd dee0 42bd 0d2f a0bc
00000360: 52d5 56bd c689 95bc 6c80 27bd 3c6f 5dbd
00000370: 0729 9cbc f487 55bd 6a4b 79bd b471 8dbc
00000380: 0654 eebd 72ba 5ebd a97b 6fbd 87fc 0bbd
00000390: 0bc5 d9bd aa83 86bd 62a2 c5bd 3871 b9bd
000003a0: 3b17 3fbd 2d9b 16bd c165 60bd 4a10 adbd
000003b0: 3d9d c2bd 5d3d d8bd 2cdd aabd 2bee 89bd
000003c0: 0541 19bd 2bba febc c79b d9bc d6d1 abbd
000003d0: f663 18bd eaaa 75bd aa1d b9bd 9698 22bd
000003e0: e10a b7bc 0e83 90bd 04b4 b7bd 26b6 b2bd
000003f0: cd1c cabd 1232 12bd 8670 8dbd de40 e8bc
-0.039739203 -0.09672962 -0.095192626 -0.053583138 -0.09788158 -0.083220996 -0.08026725 -0.089056864
-0.035669748 -0.04520211 -0.097824425 -0.087706774 -0.060268126 -0.08322189 -0.0864686 -0.014033751
-0.08731563 -0.022061 -0.02118862 -0.0302695 -0.075019665 -0.0779737 -0.010559899 -0.07774662
-0.09262038 -0.075754 -0.012000372 -0.048511904 -0.07344895 -0.09542074 -0.08351391 -0.044629704
-0.046400312 -0.06590564 -0.08149919 -0.043874662 -0.085479096 -0.11192759 -0.057845533 -0.022606723
-0.030559093 -0.043891907 -0.07640165 -0.027332513 -0.069065 -0.04439418 -0.08554028 -0.11572049
-0.042855326 -0.07798169 -0.07333058 -0.07004459 -0.050125755 -0.0864373 -0.018466217 -0.06404967
-0.017251652 -0.07691801 -0.062404722 -0.038508955 -0.034407977 -0.060350113 -0.025138138 -0.08589209
-0.026586005 -0.10297964 -0.02646791 -0.04910341 -0.016192334 -0.06992157 -0.09938835 -0.038874842
-0.06382976 -0.03674231 -0.07605162 -0.039181363 -0.08358824 -0.07350683 -0.049350362 -0.040444538
-0.09322905 -0.07441442 -0.100809656 -0.03269181 -0.08850291 -0.08677711 -0.11130465 -0.076849535
-0.08800962 -0.08384692 -0.04769102 -0.02013401 -0.086497955 -0.037962817 -0.048316568 -0.0332991
-0.08987657 -0.078198984 -0.04325498 -0.07323547 -0.052989963 -0.09432345 -0.06706024 -0.0997613
-0.063055664 -0.095065646 -0.044669736 -0.042380225 -0.06114231 -0.058613427 -0.026579361 -0.07271406
-0.08896374 -0.06558982 -0.055803277 -0.076625906 -0.022305802 -0.08434692 -0.037288517 -0.028182222
-0.038457185 -0.079158485 -0.022285275 -0.04220274 -0.06608965 -0.012954875 -0.053605255 -0.04079489
-0.026088653 -0.035624266 -0.030406697 -0.08029491 -0.067815624 -0.047554355 -0.03876538 -0.03375183
-0.04990632 -0.04633094 -0.036349487 -0.079052754 -0.08140758 -0.07937197 -0.100020975 -0.07689731
-0.055512812 -0.09261076 -0.03228396 -0.018198982 -0.084825635 -0.08952025 -0.06273557 -0.015228099
-0.08934309 -0.02122685 -0.022465302 -0.06789489 -0.09991338 -0.05791752 -0.05964335 -0.07994157
-0.03580641 -0.08363483 -0.05183625 -0.02004734 -0.023760982 -0.075137176 -0.03749382 -0.051032558
-0.045417894 -0.05791952 -0.11379106 -0.090737596 -0.061895397 -0.06330941 -0.0440977 -0.083386436
-0.025536794 -0.040023107 -0.043427277 -0.027841056 -0.047675956 -0.07424749 -0.082912035 -0.07596992
-0.06604976 -0.09988571 -0.07705564 -0.08292039 -0.049979154 -0.024282807 -0.051231667 -0.043342747
-0.029788796 -0.080644295 -0.049250867 -0.030776136 -0.0662723 -0.042185016 -0.051241465 -0.04788316
-0.08555705 -0.016134635 -0.04860922 -0.01925126 -0.09920619 -0.08041202 -0.035202723 -0.047177054
-0.068416625 -0.08456352 -0.06634448 -0.024720201 -0.07129051 -0.03238052 -0.04757773 -0.019553686
-0.05244953 -0.018254172 -0.040893957 -0.05406116 -0.019062532 -0.052131608 -0.060862936 -0.017266132
-0.1163712 -0.054377027 -0.05846754 -0.034176376 -0.10633286 -0.06568082 -0.09650113 -0.09054798
-0.046653014 -0.03676908 -0.05478454 -0.084503725 -0.09502647 -0.10558579 -0.083429664 -0.0673488
-0.037415523 -0.031094631 -0.026563538 -0.083896324 -0.037204705 -0.05997745 -0.09038861 -0.0396963
-0.022344055 -0.07056247 -0.08969882 -0.08726148 -0.098687746 -0.035692282 -0.06906228 -0.028351244

encoder.conv2.bias f4 [32]
00000000: 3fde c5bd da04 d2bd 7444 ffbd 5f8a c7bd
00000010: c8bd a3bd 6231 06bd c7d7 7bbd 6c42 f4bd
00000020: a04b 36bd 32c5 7cbc f511 acbd 2ce8 b8bd
00000030: 619a 49bd 4938 96bd f133 8bbd a67e 8abd
00000040: 8fb3 44bd 702d f9bd 5525 94bd 1186 2dbd
00000050: 69a6 53bd 5ba8 6dbd acae 59bd 7f1e 9abc
00000060: b280 07bd 7c99 3bbd 4888 48bd 246d 85bc
00000070: 5fab 98bc e625 87bd a7b2 b23e 3f99 1bbd
-0.09661531 -0.102548316 -0.12464228 -0.09743189 -0.07995182 -0.03276194 -0.06148508 -0.119267315
-0.044505715 -0.015427874 -0.084018625 -0.09028658 -0.049219493 -0.07334954 -0.067970164 -0.067624375
-0.048022803 -0.1216687 -0.07233683 -0.042364184 -0.051672373 -0.058021884 -0.053145096 -0.01881337
-0.033081718 -0.04580067 -0.048958093 -0.016287394 -0.018636404 -0.065990254 0.34901926 -0.037987944

encoder.conv3.weight f4 [32, 32, 16]
00000000: 3a72 cabd eebd e4bc 19ce 82bd feba bfbd
00000010: adac 8dbc 8b00 0ebd ad89 6abd 11c7 27bd
00000020: f3a2 62bd 2e95 c4bd 60b0 3ebd 5c05 38bd
00000030: dd64 a6bd 0ef6 f33d fbf5 b7bd 1437 2e3d
00000040: 299b 3fbd da99 cebc c281 53bd 2b8c a5bd
00000050: 86b8 a5bd 35db 5bbd 9234 26bd 49b9 6abd
00000060: 8392 b7bd dfb3 c83d 360a d33c af76 703d
00000070: 6024 0a3d b6c7 573d 6dfa 28bd 21a8 bb3c
00000080: 8ba4 17bd b646 bebc b52e abbd 8586 b0bd
00000090: 5416 57bd 3587 f7bc c3f4 e8bc a1a2 35bd
000000a0: 41d2 a1bc 2ba1 d0bd 7ece 96bd 6bb5 393e
000000b0: 0656 8ebd 179a 7a3d 771f 113a b4d5 cabc
000000c0: 029b 8cbd 89a5 63bd 83a4 c6bc 8952 bbbd
000000d0: f662 cc3d ea35 0dbd 4537 b1bc f241 b9bd
000000e0: 1d41 a6bd 5311 63bd 68c5 3fbd 3007 12bd
000000f0: a7e8 afbd 26c3 c5bc 2d64 eabc ba93 90bd
00000100: d70b aebc 85f0 28bd b8f0 a4bd 88a8 d3bd
00000110: 2f63 26bd ed95 22bd 7918 d6bc e045 903c
00000120: b1dc c4bd bc6c 53bd 9eef 9ebc edf2 0dbd
00000130: 2945 0ebd 09f5 bdbd 3852 b3bd be41 cebd
00000140: f249 c9bc 1515 d1bc 293a b93c e65f 5dbd
00000150: d6ba a5bd 6f18 8fbd 44c2 5cbc e5d9 96bd
00000160: ccae d9bd 7b45 c4bd d6ec e1bc 50ac 75bd
00000170: 62d8 89bd bf97 80bd 9d06 4dbc 8ca0 b0bd
00000180: 035c 5ebd a611 85bd 390b 78bd b6da 43bd
00000190: f53d b2bd 20d7 20bd e35b 7cbd 6e23 06bd
000001a0: 801d cfbd 1e7e a6bc 2cf4 a93c 6132 52bd
000001b0: 3b5b 88bd 25e9 b9bd 20c2 98bc f9b5 c9bd
000001c0: 4756 913d dfd3 453d 0511 54bd e5f2 adbd
000001d0: bc2c 9e3d 597d af3c eafd a4bd 5c3e 57bd
000001e0: 28e3 cbbc eaf8 6fbd 58b1 88bc 7992 bebd
000001f0: 6fbc 58bd 96d9 bfbd 1e7e 53bd c4a1 a9bd
00000200: ee45 c7bd 723e 473d c0d2 82bd 636e d4bd
00000210: c039 bfbd 3166 1ebd bb46 6fbd 4a34 4abd
00000220: d332 a6bc 36f0 bdbd fb16 cdbd 9e81 2cbd
00000230: d891 8e3c 8419 5abd 52c4 bdbd 5276 bbbd
00000240: e2dc a6bd c878 0abd 1314 8bbd ab87 a73d
00000250: 3263 923d cb8a a3bd 0003 83bd 3ff1 d6bc
00000260: 9f73 a4bd 61c6 55bd aded fbbc 035b 8abd
00000270: 1e65 963d ad6d ccbd 4e5a c5bd e391 3abd
00000280: 99f2 c7bc e9cc b7bd 964c aabd 4037 c5bd
00000290: 0bc7 a43d e0e9 8d3d a120 93bd 6a75 b53d
000002a0: 43f0 bbbd d365 17bd af68 d4bd a2cc 9e3d
000002b0: 91ef b43d 6b90 963d 2464 f43c 7ed5 b3bd
000002c0: 03aa 7abd e9d4 bcbd b387 70bd fdf1 a9bc
000002d0: 565b a8bc 328d b3bd eb43 a6bd 7713 8d3d
000002e0: de42 703d 1e6b 8c3d 11c2 ef3c ea7d 8a3d
000002f0: e52d 573d 9310 7e3d 84c5 c63d cc04 3b3d
00000300: ed4f 803b c41d 323d 76b8 90bd 6902 213b
00000310: e851 0f3d ce65 413c 29fa 40bd 5a10 5fbd
00000320: ae15 bdbc 9b4f 463c 30a6 b13c 3e9f 27bc
00000330: fa5d 993d c8f0 ccbd 6b92 9ebd d0ba 63bd
00000340: b377 80bd 0732 cebd cfd5 41bd 9af9 d5bd
00000350: 48eb 48bb 49c1 e2bd 1b76 b6bd 5d73 efbd
00000360: cef7 b5bc 6eba 063c e93e 8aba 3c5e 843c
00000370: 1693 b6bc d914 0fbc 3967 26bd 1001 9dbd
00000380: 95f2 aabd 5a09 65bd 3a5f 7dbd 9440 ecbc
00000390: e420 adbd 3640 aabd 691f c1bd a109 3ebd
000003a0: fde5 85bd aa66 393d 90ec 8dbd fe40 cdbd
000003b0: dec6 3abc b108 d53d eca0 8d3d 0ab1 a63c
000003c0: 9d70 9fbd a20e 20bd 668a 59bd 2919 cfbd
000003d0: 3169 acbc cb10 56bd 2619 8ebc a633 9fbd
000003e0: 9595 61bd 2579 c0bd d029 fcbc 4706 cebd
000003f0: c049 47bd 5dce 98bc 713b 26bd 9fa0 70bd
-0.09885068 -0.027922597 -0.06386966 -0.09361838 -0.017294252 -0.034668487 -0.057260204 -0.04096133
-0.05533118 -0.09598766 -0.046554923 -0.044926986 -0.08124707 0.119121656 -0.08982464 0.042532995
-0.04677883 -0.025219847 -0.05163742 -0.080833755 -0.08091836 -0.05367585 -0.04057748 -0.057305608
-0.08963492 0.09799933 0.025761705 0.058706935 0.033726096 0.052680694 -0.04125445 0.022907319
-0.037022155 -0.023227077 -0.08358518 -0.086194076 -0.052511528 -0.030215839 -0.028437024 -0.044344548
-0.019753577 -0.1018699 -0.07363604 0.18135612 -0.069500014 0.061182108 0.00055359997 -0.024760105
-0.06865503 -0.05557779 -0.024248367 -0.09146602 0.09979813 -0.034475245 -0.0216328 -0.09045781
-0.08117888 -0.055436444 -0.04681912 -0.035651386 -0.08589297 -0.024140906 -0.02861222 -0.070594266
-0.02124588 -0.041245002 -0.08053726 -0.10334879 -0.040621933 -0.03969376 -0.026134716 0.017611444
-0.09612406 -0.05161737 -0.019401368 -0.0346555 -0.034733925 -0.09275252 -0.08755916 -0.10071133
-0.024571393 -0.025522748 0.02261074 -0.054046534 -0.08092277 -0.06987082 -0.013474051 -0.07365779
-0.10629043 -0.09583565 -0.027578752 -0.059978783 -0.06730725 -0.06278943 -0.012513784 -0.08624372
-0.054286968 -0.06497507 -0.060557578 -0.047816 -0.087032236 -0.03926766 -0.061611068 -0.032748632
-0.101130486 -0.02032381 0.020746313 -0.051317576 -0.06658026 -0.09077672 -0.018647254 -0.09849162
0.07096534 0.04829776 -0.051774044 -0.08493594 0.07723376 0.021422075 -0.08056243 -0.052549705
-0.02488859 -0.058586992 -0.016686127 -0.09305281 -0.05291408 -0.09367673 -0.051633947 -0.082828075
-0.09730135 0.048643537 -0.063878536 -0.10372617 -0.09337187 -0.038671676 -0.058417063 -0.049366273
-0.020287907 -0.09274332 -0.10014149 -0.0421158 0.017403528 -0.05324699 -0.09265961 -0.09153427
-0.08147599 -0.033806592 -0.06790938 0.081801735 0.07147826 -0.07985457 -0.063970566 -0.026238082
-0.080298655 -0.052191142 -0.030752981 -0.0675564 0.07343505 -0.099818565 -0.09636365 -0.045549285
-0.024407672 -0.089746304 -0.08315389 -0.09629679 0.08045777 0.06929374 -0.07183958 0.088602856
-0.09176686 -0.03696234 -0.10371529 0.07753874 0.08834756 0.07351764 0.029832907 -0.08780955
-0.061197292 -0.09220297 -0.058723163 -0.020745272 -0.020551365 -0.08767165 -0.08118423 0.06888478
0.05865752 0.068563685 0.029267343 0.067622975 0.052534003 0.062027525 0.09705642 0.04565887
0.003915778 0.043485418 -0.07066433 0.0024568087 0.03499022 0.011804057 -0.04711357 -0.054458953
-0.023081627 0.01210394 0.02168569 -0.010230837 0.07488628 -0.10006863 -0.07742771 -0.05559808
-0.06272831 -0.10068136 -0.047323044 -0.10447998 -0.0030657817 -0.110720225 -0.089092456 -0.11691926
-0.022212889 0.008223159 -0.0010547313 0.016158216 -0.022286933 -0.008732998 -0.040625785 -0.07666218
-0.0834705 -0.05591712 -0.061858393 -0.028839387 -0.08453539 -0.083130285 -0.09429819 -0.0463959
-0.065380074 0.045263924 -0.06929886 -0.10022162 -0.011399953 0.104020484 0.06915459 0.02034809
-0.07785151 -0.039076455 -0.053110503 -0.10112221 -0.021046253 -0.05226211 -0.017345976 -0.07773523
-0.055074293 -0.093981065 -0.030781657 -0.10059791 -0.048654318 -0.01865309 -0.04058403 -0.05874693

encoder.conv3.bias f4 [32]
00000000: 0e93 1aba 0dbf c4bb e828 afbd d340 77bd
00000010: 5d93 4cbc b3c5 91bc c737 cfbd 8e69 bdbd
00000020: 57d3 1bbe f6dd f7bd 3a20 78bd f59d 94bd
00000030: a122 3abd d02e 6ebd 3cdb 22be d6bb 90bc
00000040: bee3 4cbd 5c6f c9bd a3a4 f53d 7604 d6bd
00000050: 1063 b8bd 64c7 b03a 0d3b b2bd ff9f 2abe
00000060: 422e e7bc ca79 2abd b8b1 21be 4f96 0fbd
00000070: a645 9c3d 7c91 31be b285 03be ede8 c6bd
-0.00058965466 -0.0060042203 -0.08552724 -0.060364556 -0.012486306 -0.017794466 -0.101180606 -0.092486486
-0.15217339 -0.121028826 -0.06057761 -0.072566904 -0.04544318 -0.058150113 -0.15903944 -0.017667692
-0.05002188 -0.09835693 0.119942926 -0.104500696 -0.0900327 0.0013487157 -0.08702669 -0.16662596
-0.0282203 -0.041620053 -0.1579045 -0.035055455 0.07630472 -0.17340654 -0.1284397 -0.09712396

encoder.dense1.weight f4 [64, 2400]
00000000: 8685 96bd 7f2d a2bd c68f 8abd 13da 82bd
00000010: c5aa 35bd 6434 97bd 9ca3 8bbd 0211 26bd
00000020: 03c3 6abd c918 5ebd 518c 77bd e8ce 66bd
00000030: 73ce 9fbd 061c 2fbd d191 2bbd 05a7 5ebd
00000040: e902 82bd 3ed7 9abd 2aa1 8fbd 35ca 43bd
00000050: 7299 5dbd 6020 57bd 4dda 7fbd 6f80 44bd
00000060: 23e6 82bd ef8c 89bd c1b2 8dbd d440 83bd
00000070: a77e 55bd a2dd 30bd 9f72 a4bd e29f 3dbd
00000080: ba73 83bd 040e 4abd 8bd6 26bd 2d80 65bd
00000090: dbd7 9fbd 03f1 87bd c8dd 48bd c615 83bd
000000a0: 8562 56bd 98c4 69bd d565 45bd 8d3e 8dbd
000000b0: ce0c 45bd 4ad5 82bd 11e6 9fbd 6a08 88bd
000000c0: 6f43 20bd 0506 2abd 47bc 21bd a853 69bd
000000d0: 0d81 6bbd 20f9 31bd 695a a3bd 6150 7abd
000000e0: 3b5a 88bd 9f4d 67bd 4816 85bd 3d17 5cbd
000000f0: e6ab 2cbd 2da8 91bd 058b 83bd 036b 94bd
00000100: 9044 9abd 7259 2ebd 0fe0 95bd bc38 71bd
00000110: 60cb 6bbd 6b43 9ebd bde8 3abd 7248 99bd
00000120: fa89 28bd cd31 9fbd 5c74 5cbd 11c9 57bd
00000130: 0a6e 69bd 69d2 92bd dd4d 9abd 15bb 993c
00000140: 1a11 5dbd 22e3 6dbd 04d4 68bd 45b6 2bbd
00000150: 9e12 17bd 212c 41bd 972d 2cbd f73e 4cbd
00000160: 6190 7cbd 9d15 41bd f52c 21bd c425 2b3d
00000170: 0f71 46bd ad3b 91bd a83e 29bd 3d49 5ebd
00000180: 8abf 47bd 0564 99bd 8cb6 44bd 4091 57bd
00000190: c150 6cbd 06b2 76bd a59d 85bd 6fb8 593d
000001a0: f4a1 632f 039a 4dbd 5513 91bd 4a82 a0bd
000001b0: 7314 23bd cb07 eeac 7eee 3bbd 1932 89bd
000001c0: 6d73 69bd 4ec8 efbc 82c2 d52c c3d0 2bbd
000001d0: e9e9 82bd 76cb 573c 7bee 6bbd 3bfe 95bd
000001e0: a568 8abd 2191 21bd 14f9 95bd cd08 cdbc
000001f0: 32c3 94bd cee4 28bd 9dc4 9fab a1a5 44bd
00000200: 483d 43bd a986 d6ac 77a1 97bd 01f3 12bd
00000210: cd9e a5ab 4b36 3abd c1eb 86bd 20c3 de29
00000220: 9c08 2cbd 76ab 23b2 4db1 562f 3fe8 b42c
00000230: dc9e 5abd 81e5 3dac 7b37 0fbc eca4 6cbd
00000240: b6db 30bd 1d24 37bd 39ff 99bd e206 27bd
00000250: e22e 1fbd ed96 9cb3 6fee 23bd dc26 a1bd
00000260: 17a7 63bd 6934 8fbd 615b 9ebd 0c95 7abd
00000270: 955f 59bd e409 6abd fb4f 9dbd 22ec 293d
00000280: b45e 2cbd 3db5 92bd 3307 6dbd 67bc 87bd
00000290: fa1a 27bd f489 6dbd 519e 98bd cc28 97bd
000002a0: e263 87bd 2c5e 77bd 08ce 91bd aa9a 6dbd
000002b0: 7952 87bd 05f4 41bd 3b57 89bd 0f0b 55bd
000002c0: bf90 94bd 2f86 88bd 39a6 6ebd e535 34bd
000002d0: 778d 45bd 02bb 9dbd 2960 90bd c5df 4bbd
000002e0: 96e8 74bd d8fe 89bd 2ce4 56bd 716b 39bd
000002f0: ea40 9bbd 0e2b 98bd f67d 84bd b4c5 9dbd
00000300: 9bc8 38bd af1f 86bd 74e3 0fbc 1432 76bd
00000310: 7f05 2ebd 1597 6ebd 608a 50bd ad64 83bd
00000320: f3c5 8fbd 4e78 60bd fd43 a2bd 5eb3 83bd
00000330: e1be 87bd ff6a 85bd 9cfc d6bc c1ff 74bd
00000340: e0f9 86bd 3d60 86bd d1c2 51bd 4650 8dbd
00000350: e2de 49bd 370a 72bd 15f9 4dbd 7dce 45bd
00000360: 7ddf 28bd 9405 78bd b7c7 83bd 44f8 32bd
00000370: 9214 42bd d864 80bd b327 2bbd 2ffe 42bd
00000380: 566f 88bd d4aa 7fac 54c5 982b 5f8f 7dbd
00000390: d660 5cbd 54d3 3d3d b8a0 863d 2fb8 a32b
000003a0: 0220 2cbd d236 92bd a7c8 87bd e6d7 2d2b
000003b0: d9cc 57bd 0504 2ebd 0903 80bd 8c05 8fbd
000003c0: fd4d 9cbd edfb 36bd 1dcb 923c a919 57bd
000003d0: 7c52 97bd 7a30 b72b 99f4 98bd 7a99 4dbd
000003e0: 0caa 4dbd 0ccf 25bd 5dd6 47bd e135 82bd
000003f0: 852b a1bd 4a18 26bd a0eb 8baa 3ce7 caac
-0.07349686 -0.07918834 -0.06765704 -0.063892506 -0.04435231 -0.073830396 -0.068183154 -0.040543564
-0.057314884 -0.054222856 -0.06043655 -0.056349665 -0.07803049 -0.042751335 -0.04188711 -0.0543585
-0.06348211 -0.075605854 -0.070131615 -0.04780026 -0.054101415 -0.05252111 -0.062464047 -0.047974046
-0.06391551 -0.06716334 -0.0691886 -0.06408849 -0.05212274 -0.043180116 -0.08029675 -0.046295054
-0.064185575 -0.049329773 -0.040731948 -0.05603044 -0.07804843 -0.06637766 -0.049039632 -0.06400637
-0.05234005 -0.057072252 -0.048192818 -0.06896696 -0.048107915 -0.06388338 -0.078075536 -0.0664223
-0.03912681 -0.041509647 -0.039486196 -0.056964546 -0.05749612 -0.043450475 -0.07976229 -0.06111181
-0.06657835 -0.05647051 -0.064983904 -0.0537331 -0.042156123 -0.07112155 -0.06423 -0.07246973
-0.075326085 -0.04256577 -0.073181264 -0.058891997 -0.057567 -0.07727703 -0.045632113 -0.07484521
-0.04114721 -0.077731706 -0.053821906 -0.052681986 -0.056989707 -0.07169039 -0.075343825 0.018765965
-0.053971387 -0.05807794 -0.05684282 -0.041921873 -0.03688299 -0.047161225 -0.042035665 -0.049864735
-0.061661128 -0.047139753 -0.039349515 0.041784063 -0.048447665 -0.070914604 -0.04131952 -0.054269064
-0.04876665 -0.0748978 -0.048025653 -0.052628756 -0.0576942 -0.06022837 -0.06524209 0.053154405
2.0703067e-10 -0.050195705 -0.070837654 -0.07837351 -0.039814424 -6.765232e-12 -0.04588174 -0.066990085
-0.056994844 -0.029270317 6.075419e-12 -0.041947138 -0.06392271 0.013171067 -0.05760048 -0.07323881
-0.067582406 -0.039445046 -0.073228985 -0.02502861 -0.07263793 -0.04123383 -1.1352201e-12 -0.04800952
-0.047665864 -6.097196e-12 -0.07403844 -0.035876278 -1.1768031e-12 -0.045461934 -0.06587935 9.892629e-14
-0.042000398 -9.526834e-09 1.9526177e-10 5.141692e-12 -0.053374156 -2.6985916e-12 -0.008741255 -0.05777447
-0.043178283 -0.044712175 -0.07519383 -0.04077805 -0.03886307 -7.291769e-08 -0.04002231 -0.0786874
-0.05557927 -0.06992418 -0.07732273 -0.0611773 -0.05306967 -0.05713834 -0.07681271 0.04148496
-0.042082503 -0.07163475 -0.057868194 -0.06627732 -0.04079721 -0.05799289 -0.074520715 -0.07380828
-0.06610848 -0.060392544 -0.071193755 -0.058008827 -0.06607527 -0.047351856 -0.06706091 -0.0520125
-0.072541706 -0.066662185 -0.05826399 -0.04399671 -0.048230615 -0.077016845 -0.07049591 -0.04977395
-0.059792124 -0.06738061 -0.052463695 -0.04526848 -0.07580741 -0.07430087 -0.06469338 -0.077037245
-0.045113187 -0.06549012 -0.008782256 -0.060106352 -0.04248571 -0.05824955 -0.050913215 -0.06415687
-0.07020178 -0.05480223 -0.07923124 -0.06430696 -0.06628204 -0.065145485 -0.0262435 -0.05981422
-0.065906286 -0.06561325 -0.051211182 -0.069000766 -0.049284823 -0.059091773 -0.05028637 -0.048292626
-0.04122876 -0.060552195 -0.06434577 -0.043693796 -0.0473829 -0.062692344 -0.041785907 -0.04760569
-0.06661861 -3.6332508e-12 1.0855019e-12 -0.061904307 -0.053803287 0.046344116 0.065736234 1.1632968e-12
-0.042022713 -0.071393624 -0.06630068 6.1761566e-13 -0.052685592 -0.042484302 -0.06250579 -0.0698348
-0.076320626 -0.04467385 0.017919118 -0.052514706 -0.073887795 1.3016387e-12 -0.07468528 -0.050195195
-0.050210997 -0.04048066 -0.048788417 -0.06357933 -0.07869629 -0.040550508 -2.4854858e-13 -5.7668575e-12

encoder.dense1.bias f4 [64]
00000000: cba4 2cbd b05e 36bd 62d3 94bd b161 b93e
00000010: e225 52bd 5a54 f83e f075 ef3e 884d 5ebd
00000020: 1a9c 0f3e a138 cdbd f46a b53e a51a a0bd
00000030: dc06 3e3d 6de1 acbc 4dc8 fd3b bcf7 163f
00000040: b0e2 29bd 8fab d7bc 900b dfbd 3626 e03e
00000050: 3fa0 37be 55d5 953d 5c8e 8ebd a697 f53e
00000060: c5e7 47bd dd25 0e3f d125 a93b 873f 7c3e
00000070: 1258 1f3c ff07 89bd e6b7 ba3d 2660 eebc
00000080: ca65 73bd 4c01 43bd e7c5 49bd d27d debd
00000090: 8fcd dc3e 53eb 4cbd a54d 0a3f b81d 1cbe
000000a0: 7d98 a1ba 3f2e 07be d9fe 573e 416b 8dbd
000000b0: 27df 023e 3989 0c3d ebf7 7abc 10c0 9f3e
000000c0: 1c75 e83e 2400 ccbd 4326 75bd 8984 3a3f
000000d0: 63af 9dbe 2269 c13e e66c 9d3e c1a3 86bd
000000e0: cc86 4dbd 9fb3 b43d fd0e 583e 621f 853d
000000f0: 838d 8f3e 6839 aebc 635a 2f3e 519a 803e
-0.042149346 -0.044523895 -0.072668806 0.36207345 -0.05130566 0.48501855 0.46769667 -0.05427316
0.14024392 -0.10020567 0.3543316 -0.07817582 0.04639326 -0.021103585 0.007744825 0.5897176
-0.04147595 -0.026326923 -0.10890877 0.43779153 -0.17932223 0.073160805 -0.06960747 0.4796726
-0.048805017 0.55526525 0.005161979 0.24633609 0.009725587 -0.06690978 0.09117107 -0.029098582
-0.059423245 -0.04760866 -0.049261 -0.10863842 0.4312558 -0.05002911 0.54024726 -0.15245712
-0.001232877 -0.13201235 0.2109331 -0.06905223 0.12780438 0.034310553 -0.015317897 0.3120122
0.45401847 -0.09960964 -0.059850942 0.7285848 -0.30797872 0.37775522 0.30747145 -0.06574202
-0.05017738 0.088233225 0.21099468 0.065001264 0.28037652 -0.021267608 0.17124324 0.25117734

encoder.encoder1.0.weight f4 [32, 1, 16]
00000000: d477 1bbe 00d5 9fbd 46a8 0c3d 1b17 243e
00000010: 9ce4 06bd 360d 22be 42c8 29be 148a 6f3c
00000020: 20f8 7bbd 1620 7abe 525e 97bc 5496 07be
00000030: c1f7 2d3e bb37 a3bc 895d 06be 7145 643d
00000040: c2be 04be e01b 93be 526e aebd a3d2 7bbe
00000050: d721 c0bd e6eb 393e 91a4 a2be 0198 26be
00000060: 88cd 70be 14c1 05be 62f4 e13d 2327 033c
00000070: a35a eb3d 9384 0d3d 7b3d 273d e738 4fbd
00000080: f4cf 6dbe 8b79 32be d56b b7be 2b87 59be
00000090: 0940 c0be 387f 64be cdbd 12bf 9072 d33c
000000a0: 9e26 0b3e 97f2 c8bb 5b00 65be 10e3 71be
000000b0: 43de 41be 5cca 163e cb51 8e3d 9a62 803d
000000c0: 63e7 9fbc a317 80bd 17df 4e3e 32a3 05be
000000d0: 9348 a7bb 3f30 8f3d a4c3 613d 24d1 97be
000000e0: 4817 0fbe f5f2 003d a10a 25be d209 fe3d
000000f0: 85de 963d 1c81 67be 4cc8 b3be 1c4b 56bd
00000100: fa86 6cbe db69 98bd 29dd cbbe 0c77 8abe
00000110: 3913 49bd ad2f 0d3e ac81 8dbe d002 b63d
00000120: da13 a93d 415e 1b3e 135f 5fbe 3d54 4bbe
00000130: 3dc2 c23d 864e 073e 6b3f 3b3d 2e12 14be
00000140: 7352 22be faca 97be 5373 273c 8e96 35be
00000150: 36e2 0a3e 1e40 55be 63b3 31be d340 8a3d
00000160: 76f5 153e 7173 6fbe b248 06be e7fc 0c3e
00000170: f203 52be 339a 103e 9c70 113d 010d 21be
00000180: 3704 95bd 158f 19bd ac39 d53c 05fc 573d
00000190: b1cc 9b3d 1661 1e3d 011c ea3d bacf 7fbd
000001a0: 0de0 8cbe db9a 80be 55e3 92be 08a5 0bbe
000001b0: c160 adbe 9ce0 99bb bde8 8abe 076c d5bd
000001c0: 8bba 41be 0d4c 813c 3e85 22be 09a7 163e
000001d0: 067b 1b3e e7f9 85bd 67c0 163d d054 c73d
000001e0: a361 8c3c 6a55 9cbe afde 65be 2ddd 62be
000001f0: d36b 5dbe 2a15 47be 954e 1bbe a40a 81be
00000200: 6780 2d3e 674d 023e beb9 253e f0d6 dc3c
00000210: f18c 70be bbf1 dfbd 3e55 08be 7b5a 9ebe
00000220: 0b9d 96bd 73d8 12bd 0123 20bc ff31 f83d
00000230: c09b 2abe 8390 2cbd 8356 19bc a75c 37be
00000240: 4649 073e 4bfd 15be 7385 b83d 861b 21be
00000250: 1722 1cbd 410b e1bd 46a6 e83d 20b5 8fbe
00000260: c4cd 253e fbd1 2c3e 3a59 bfbc fca0 da3c
00000270: 66e0 1fbe 92e8 3b3e c961 7ebd 3a6a fa3d
00000280: 442e 31be 9f76 89be 9329 fabb 982c af3c
00000290: 7107 763d 985b 6a3c 966d 4bbe 86cb 9bbd
000002a0: 6476 1abe 97e5 243d d602 353e 218b 383d
000002b0: e13b 24be 6974 92be ec4e 59bd 52bd 5abe
000002c0: d2ec 08be 69f7 fdbd 7bd2 febd 6d94 a6bd
000002d0: 35ce dbbd c3c9 053e 515d e53d 51fd d5bd
000002e0: ba6f 97bd fa9f 6abe bd3c 02be b4f1 8fbd
000002f0: 24c9 e2bd 64c1 1ebe 009a f0bc e1b9 99bd
00000300: 66eb 153d c7ca 183d da14 68be ed11 26be
00000310: 2f5a f13d 3508 7d3d 09d3 dd3d 0783 70bd
00000320: 0235 39be fc7d 6dbd 729e 7c3d 7c46 1ebd
00000330: 2041 30be d919 5fbd 6730 d53d a74f 08be
00000340: 3705 5bbe d506 f6bd 3130 d5bd 8635 ec3d
00000350: b780 b6be 09f6 f1bd 0d90 8dbe 72fa 9ebd
00000360: 212b 073e 6a7f 90be 804b dbbd 278c cfbd
00000370: 0255 b83d 58aa 923d 13b2 bbbc e386 77bd
00000380: e360 323e 0bd7 1ebe 7355 36be bc4c a73d
00000390: 382d 9b3d 9f8e 06be 2447 f8bd dd84 12be
000003a0: b480 c0bd ea05 23be 7e19 a93d ddd8 ea3d
000003b0: 7325 643d bd61 0ebe b68c 80bd d842 c3bd
000003c0: e9bc a93d 87fa 39be 526a eabd ccbd 93bd
000003d0: af6e b1bd 7583 88bd a5ea 39bd 661d 7ebd
000003e0: 4b56 303e 05b0 88be a680 1abe 8804 a73d
000003f0: d4e7 103e 9bab 123b 30d1 37bd fed9 85bd
-0.1518243 -0.078042984 0.034340166 0.16024439 -0.032932863 -0.15825352 -0.16580299 0.014620323
-0.061515927 -0.24426302 -0.018477593 -0.1324094 0.16989042 -0.019924035 -0.13121618 0.055730287
-0.12963393 -0.28732204 -0.08517136 -0.2459207 -0.093814544 0.18156394 -0.3176618 -0.16268922
-0.23515904 -0.13061935 0.110329404 0.008004936 0.11491897 0.03455026 0.040830117 -0.050591376
-0.23223859 -0.17429177 -0.35824457 -0.21242969 -0.37548855 -0.22314155 -0.57320863 0.025811464
0.1358895 -0.0061324346 -0.22363417 -0.23621774 -0.18932442 0.14725631 0.069491945 0.06268807
-0.019519513 -0.06254508 0.2020229 -0.13050535 -0.005105087 0.06991624 0.055118218 -0.2965175
-0.13973725 0.031481702 -0.16117336 0.12404217 0.07366661 -0.22607845 -0.35113752 -0.052317724
-0.23098364 -0.07442065 -0.3981717 -0.2704395 -0.049090598 0.13787718 -0.27637994 0.08887255
0.082557395 0.15172674 -0.21813612 -0.19856353 0.09509704 0.13213548 0.045714777 -0.1446006
-0.15851764 -0.29647046 0.0102203665 -0.17733213 0.13562855 -0.2082524 -0.17353587 0.067506455
0.14644417 -0.23383881 -0.13113669 0.1376835 -0.20509318 0.14121322 0.035507783 -0.15727617
-0.072761945 -0.03748997 0.026028477 0.05273058 0.07607401 0.038666807 0.114311226 -0.062453963
-0.27514687 -0.25118145 -0.28689066 -0.13637173 -0.3386288 -0.004695965 -0.2713069 -0.10420995
-0.18918817 0.015783334 -0.1587114 0.14712156 0.15183648 -0.06541806 0.036804583 0.097329736
0.0171364 -0.30533916 -0.22448228 -0.22154684 -0.21623163 -0.19441667 -0.15166695 -0.2520343
0.16943513 0.12724839 0.16184136 0.026957959 -0.23491265 -0.10934778 -0.13313767 -0.30928406
-0.07354172 -0.035850953 -0.009773971 0.12118911 -0.16660976 -0.042130005 -0.009359005 -0.17906438
0.13211545 -0.14647405 0.090098284 -0.15733156 -0.038118448 -0.10988475 0.11359839 -0.28067875
0.16191775 0.16876976 -0.023357976 0.026688091 -0.15612945 0.18350437 -0.062104974 0.12227292
-0.17302805 -0.26848313 -0.0076343506 0.021383569 0.06006569 0.014304064 -0.19866022 -0.076071784
-0.15084225 0.040258016 0.17676863 0.04505456 -0.16038467 -0.2860444 -0.05305378 -0.21361282
-0.1337159 -0.12400705 -0.1244249 -0.08133779 -0.1073269 0.13065247 0.11199439 -0.10448707
-0.07394357 -0.22912589 -0.12718482 -0.07028523 -0.11073521 -0.1550346 -0.029370308 -0.07506157
0.036601447 0.03730276 -0.22664204 -0.16217776 0.11784779 0.061775405 0.108312674 -0.058718707
-0.18086627 -0.057981476 0.061674543 -0.038641438 -0.17212343 -0.05446801 0.10409623 -0.13311635
-0.21388708 -0.12013022 -0.104095824 0.11533646 -0.35645077 -0.118145056 -0.27648965 -0.077626124
0.13200046 -0.2822221 -0.1070776 -0.10134154 0.09000589 0.07161397 -0.02291206 -0.060431372
0.17419772 -0.1551172 -0.17806034 0.08168933 0.07576984 -0.13140343 -0.12122944 -0.14308496
-0.09399548 -0.15920225 0.082568154 0.11467145 0.055699777 -0.13904472 -0.062768385 -0.09534234
0.08287985 -0.18161975 -0.1144606 -0.07213935 -0.08663689 -0.066656984 -0.04538979 -0.062039755
0.17220418 -0.26696792 -0.15088138 0.08155161 0.14150935 0.0022380117 -0.04487723 -0.06535719

encoder.encoder1.0.bias f4 [32]
00000000: 7e7f 9fbe 596d 103e 0dba 31bd f1ae 5b38
00000010: 1313 02bc 5646 6ebe 8ed0 34bf ce7d 1e3d
00000020: 20ae 3abf 8126 afbe d083 47bd 3e77 ab3d
00000030: d4d8 97be 613f 8ebd bb02 af3e 2475 98be
00000040: 170f 63be 8122 55be de96 a43b 6203 25bf
00000050: 6474 8e3d ab5d fcbe d6d3 7cbd 408d 38bc
00000060: b679 a1bb cd19 d43d fd00 d9bb 5299 bcbe
00000070: 5b43 0dbf 9ed9 8f3c 94e4 bdbe aedd 8b3d
-0.31151956 0.14104213 -0.043390322 5.2376596e-05 -0.007939118 -0.23269019 -0.7063073 0.038694195
-0.72921944 -0.34209064 -0.04870969 0.08372353 -0.29657614 -0.06945682 0.3418177 -0.2977687
-0.22173725 -0.20813943 0.0050228676 -0.64458287 0.069557935 -0.49290213 -0.06172546 -0.011264145
-0.004927839 0.103564836 -0.0066224323 -0.36835724 -0.551809 0.017559823 -0.37088454 0.068293914

encoder.encoder1.2.weight f4 [32, 32, 16]
00000000: 93c5 22bd 2e1a c6bd 5af4 c2bd fe79 5bbd
00000010: 2376 c8bd c56f aabd 2863 a4bd 7263 b6bd
00000020: 711a 12bd d925 39bd 2c58 c8bd 9c9f b3bd
00000030: b6db 76bd 3d70 aabd 7316 b1bd d1ed 65bc
00000040: 89d2 b2bd 45b9 b4bc c293 adbc bef7 f7bc
00000050: e9a3 99bd adb0 9fbd 6d03 2dbc 9f39 9fbd
00000060: c1af bdbd ea24 9bbd 359d 44bc 6bb4 46bd
00000070: 676c 96bd f36b c3bd 5709 abbd a3cd 36bd
00000080: 410e 3ebd 89f9 86bd 0ce9 a6bd ebb5 33bd
00000090: aa0f afbd 4b3a e5bd 70ef 6cbd bc31 b9bc
000000a0: 1057 fabc 00c8 33bd 7878 9cbd 6fe8 dfbc
000000b0: f371 8dbd acd6 35bd be2f afbd ddfe ecbd
000000c0: 1189 2fbd ddb4 9fbd 582e 96bd 8a73 8fbd
000000d0: aa50 4dbd 0a06 b1bd 7746 97bc 792c 83bd
000000e0: 5653 8dbc 3187 9dbd 189c 7fbd 91bb 1dbd
000000f0: 61ef 0cbd ae31 77bd 7fee cdbc 31e8 afbd
00000100: e5ca d9bc fde6 d2bd 3bd3 d8bc a820 49bd
00000110: c9a5 84bc 0a33 8fbd 1f8c cbbd 3a3b 1fbd
00000120: 2db9 82bd 1b7f 16bd f4c0 9bbd a37c 20bd
00000130: 5030 abbd c08a 96bd 9b23 4abd 2ca9 25bd
00000140: dfee bebd 9666 98bd 4b75 cebd d9e7 05bd
00000150: 0441 b5bd 33b8 b1bd b1f3 e3bd 4a63 9dbd
00000160: 633e b4bd efb7 abbd a957 43bd 14f0 a4bc
00000170: d725 b1bd e67e 1bbd 98e7 45bd a364 08bd
00000180: 3511 b8bd ca26 a0bd 222c 31bd 7afc 95bd
00000190: 010c 59bd a72c c1bd e156 89bd a74f ccbd
000001a0: 5423 81bd c7b1 c2bd 9df7 36bd e396 2dbd
000001b0: 5c70 7abd a214 70bd f6bc d9bc 1ceb 94bd
000001c0: 9f32 b6bd f553 86bd fa91 64bd 0bee 9cbd
000001d0: a8ba b6bc 14be acbd d8bb 18bd 67de e6bc
000001e0: 4885 1dbd d81d a2bd 9c8f b6bc c8dc 2cbd
000001f0: 035a 87bd af40 54bc 2f91 5bbd 8b18 27bd
00000200: dfb7 d5bc c0ea 11bd 7717 f9bc a871 a4bd
00000210: ebe2 8abd 5bc8 42bd 72c8 1ebd 5c3f 0abd
00000220: 926a 4cbd 83c5 3dbd 33e3 14bd 69e6 a1bd
00000230: 04b9 a6bd c58d a2bd ccd7 ccbd 567c 9dbd
00000240: 6761 63bd b6aa bdbd 303c 04bd 0816 95bc
00000250: 10b9 adbd 6556 b7bd 827b 80bd 477f 79bc
00000260: 83f9 b6bd eee3 adbc 2709 b8bc 7a0c 8bbd
00000270: 639f ccbd ec3a 6dbd 964c 74bd 68b8 a3bd
00000280: bea9 12bd bd48 abbd 3f52 54bd 523a a4bc
00000290: 64a6 c2bc 85e1 99bd 1f93 19bd 8407 51bd
000002a0: 1d08 3abd 053d 6dbd 4a0b e9bd a2d4 b9bd
000002b0: 0786 7dbd 5da8 81bd ca9f 34bd 82c6 aabd
000002c0: 8a32 d1bc 45ef 23bd cde0 31bd ed12 e4bc
000002d0: dd47 43bd 110f 98bd c9cd a9bd 1e96 9bbd
000002e0: 1945 87bd e190 ccbd 59cf 9dbd 2ad2 a9bd
000002f0: f1b6 4cbd bdec c6bc 4cd8 51bd 2a88 31bd
00000300: a207 f4bc d628 a5bd 47bb 49bd 3c1e fcbc
00000310: c6b9 87bd 32ca 2cbd 92e2 51bd 2221 44bd
00000320: 8938 afbd c82c 84bc 761a 47bd d2b4 9dbc
00000330: 9d2c cbbd 0faf a4bd bb30 10bd ba3c 41bd
00000340: 041e 8cbd a42f adbd 9ddf 87bd 0582 cabc
00000350: c200 92bd 70a1 04bd dee0 42bd 0d2f a0bc
00000360: 52d5 56bd c689 95bc 6c80 27bd 3c6f 5dbd
00000370: 0729 9cbc f487 55bd 6a4b 79bd b471 8dbc
00000380: 0654 eebd 72ba 5ebd a97b 6fbd 87fc 0bbd
00000390: 0bc5 d9bd aa83 86bd 62a2 c5bd 3871 b9bd
000003a0: 3b17 3fbd 2d9b 16bd c165 60bd 4a10 adbd
000003b0: 3d9d c2bd 5d3d d8bd 2cdd aabd 2bee 89bd
000003c0: 0541 19bd 2bba febc c79b d9bc d6d1 abbd
000003d0: f663 18bd eaaa 75bd aa1d b9bd 9698 22bd
000003e0: e10a b7bc 0e83 90bd 04b4 b7bd 26b6 b2bd
000003f0: cd1c cabd 1232 12bd 8670 8dbd de40 e8bc
-0.039739203 -0.09672962 -0.095192626 -0.053583138 -0.09788158 -0.083220996 -0.08026725 -0.089056864
-0.035669748 -0.04520211 -0.097824425 -0.087706774 -0.060268126 -0.08322189 -0.0864686 -0.014033751
-0.08731563 -0.022061 -0.02118862 -0.0302695 -0.075019665 -0.0779737 -0.010559899 -0.07774662
-0.09262038 -0.075754 -0.012000372 -0.048511904 -0.07344895 -0.09542074 -0.08351391 -0.044629704
-0.046400312 -0.06590564 -0.08149919 -0.043874662 -0.085479096 -0.11192759 -0.057845533 -0.022606723
-0.030559093 -0.043891907 -0.07640165 -0.027332513 -0.069065 -0.04439418 -0.08554028 -0.11572049
-0.042855326 -0.07798169 -0.07333058 -0.07004459 -0.050125755 -0.0864373 -0.018466217 -0.06404967
-0.017251652 -0.07691801 -0.062404722 -0.038508955 -0.034407977 -0.060350113 -0.025138138 -0.08589209
-0.026586005 -0.10297964 -0.02646791 -0.04910341 -0.016192334 -0.06992157 -0.09938835 -0.038874842
-0.06382976 -0.03674231 -0.07605162 -0.039181363 -0.08358824 -0.07350683 -0.049350362 -0.040444538
-0.09322905 -0.07441442 -0.100809656 -0.03269181 -0.08850291 -0.08677711 -0.11130465 -0.076849535
-0.08800962 -0.08384692 -0.04769102 -0.02013401 -0.086497955 -0.037962817 -0.048316568 -0.0332991
-0.08987657 -0.078198984 -0.04325498 -0.07323547 -0.052989963 -0.09432345 -0.06706024 -0.0997613
-0.063055664 -0.095065646 -0.044669736 -0.042380225 -0.06114231 -0.058613427 -0.026579361 -0.07271406
-0.08896374 -0.06558982 -0.055803277 -0.076625906 -0.022305802 -0.08434692 -0.037288517 -0.028182222
-0.038457185 -0.079158485 -0.022285275 -0.04220274 -0.06608965 -0.012954875 -0.053605255 -0.04079489
-0.026088653 -0.035624266 -0.030406697 -0.08029491 -0.067815624 -0.047554355 -0.03876538 -0.03375183
-0.04990632 -0.04633094 -0.036349487 -0.079052754 -0.08140758 -0.07937197 -0.100020975 -0.07689731
-0.055512812 -0.09261076 -0.03228396 -0.018198982 -0.084825635 -0.08952025 -0.06273557 -0.015228099
-0.08934309 -0.02122685 -0.022465302 -0.06789489 -0.09991338 -0.05791752 -0.05964335 -0.07994157
-0.03580641 -0.08363483 -0.05183625 -0.02004734 -0.023760982 -0.075137176 -0.03749382 -0.051032558
-0.045417894 -0.05791952 -0.11379106 -0.090737596 -0.061895397 -0.06330941 -0.0440977 -0.083386436
-0.025536794 -0.040023107 -0.043427277 -0.027841056 -0.047675956 -0.07424749 -0.082912035 -0.07596992
-0.06604976 -0.09988571 -0.07705564 -0.08292039 -0.049979154 -0.024282807 -0.051231667 -0.043342747
-0.029788796 -0.080644295 -0.049250867 -0.030776136 -0.0662723 -0.042185016 -0.051241465 -0.04788316
-0.08555705 -0.016134635 -0.04860922 -0.01925126 -0.09920619 -0.08041202 -0.035202723 -0.047177054
-0.068416625 -0.08456352 -0.06634448 -0.024720201 -0.07129051 -0.03238052 -0.04757773 -0.019553686
-0.05244953 -0.018254172 -0.040893957 -0.05406116 -0.019062532 -0.052131608 -0.060862936 -0.017266132
-0.1163712 -0.054377027 -0.05846754 -0.034176376 -0.10633286 -0.06568082 -0.09650113 -0.09054798
-0.046653014 -0.03676908 -0.05478454 -0.084503725 -0.09502647 -0.10558579 -0.083429664 -0.0673488
-0.037415523 -0.031094631 -0.026563538 -0.083896324 -0.037204705 -0.05997745 -0.09038861 -0.0396963
-0.022344055 -0.07056247 -0.08969882 -0.08726148 -0.098687746 -0.035692282 -0.06906228 -0.028351244

encoder.encoder1.2.bias f4 [32]
00000000: 3fde c5bd da04 d2bd 7444 ffbd 5f8a c7bd
00000010: c8bd a3bd 6231 06bd c7d7 7bbd 6c42 f4bd
00000020: a04b 36bd 32c5 7cbc f511 acbd 2ce8 b8bd
00000030: 619a 49bd 4938 96bd f133 8bbd a67e 8abd
00000040: 8fb3 44bd 702d f9bd 5525 94bd 1186 2dbd
00000050: 69a6 53bd 5ba8 6dbd acae 59bd 7f1e 9abc
00000060: b280 07bd 7c99 3bbd 4888 48bd 246d 85bc
00000070: 5fab 98bc e625 87bd a7b2 b23e 3f99 1bbd
-0.09661531 -0.102548316 -0.12464228 -0.09743189 -0.07995182 -0.03276194 -0.06148508 -0.119267315
-0.044505715 -0.015427874 -0.084018625 -0.09028658 -0.049219493 -0.07334954 -0.067970164 -0.067624375
-0.048022803 -0.1216687 -0.07233683 -0.042364184 -0.051672373 -0.058021884 -0.053145096 -0.01881337
-0.033081718 -0.04580067 -0.048958093 -0.016287394 -0.018636404 -0.065990254 0.34901926 -0.037987944
