CAC/DC/networks/weights/DC/DC_2_myTestCACclassifierCACLoss.pth (torch, 754052 bytes, 19 tensors)

anchors f8 [4, 4]
10.0 0.0 0.0 0.0 0.0 10.0 0.0 0.0
0.0 0.0 10.0 0.0 0.0 0.0 0.0 10.0
00000000: 0000 0000 0000 2440 0000 0000 0000 0000
00000010: 0000 0000 0000 0000 0000 0000 0000 0000
00000020: 0000 0000 0000 0000 0000 0000 0000 2440
00000030: 0000 0000 0000 0000 0000 0000 0000 0000
00000040: 0000 0000 0000 0000 0000 0000 0000 0000
00000050: 0000 0000 0000 2440 0000 0000 0000 0000
00000060: 0000 0000 0000 0000 0000 0000 0000 0000
00000070: 0000 0000 0000 0000 0000 0000 0000 2440

encoder.conv1.weight f4 [32, 1, 16]
-0.15154713 -0.07858828 0.045625485 0.16792105 -0.026509114 -0.15936537 -0.16197169 0.018222982
-0.06265007 -0.24447505 -0.0117257815 -0.1269837 0.16857275 -0.020202309 -0.13256153 0.06909107
-0.061312355 -0.28783002 -0.06597023 -0.21699217 -0.073283225 0.167935 -0.30470312 -0.17938423
-0.2519231 -0.12974192 0.11584028 0.014312685 0.11811736 0.045499697 0.042530913 -0.038465116
-0.20321535 -0.13703115 -0.2843593 -0.23742697 -0.32730082 -0.2006762 -0.46463582 0.023911463
0.14910945 -0.0052900054 -0.23007166 -0.23031227 -0.19942848 0.12904638 0.09167867 0.058620237
-0.032437455 -0.045452334 0.19813852 -0.13120797 -0.0015524197 0.066014215 0.052944638 -0.2959116
-0.14086601 0.030718254 -0.1475689 0.12014497 0.080324076 -0.23852737 -0.33286902 -0.04650528
-0.2243088 -0.074314415 -0.3450809 -0.14917302 0.067186005 0.19241367 -0.274093 0.078999594
0.09219914 0.13346855 -0.23075582 -0.20731404 0.097814396 0.111158624 0.0516098 -0.14129965
-0.16058633 -0.29788888 0.003915406 -0.16191837 0.15597917 -0.1967863 -0.18018109 0.056564257
0.14284433 -0.23716636 -0.13946417 0.13708828 -0.20758085 0.13818763 0.031223444 -0.14575344
-0.070456155 -0.03523743 0.031206027 0.05823674 0.083059944 0.0358414 0.12663071 -0.058213536
-0.27437803 -0.2541526 -0.27059457 -0.11139475 -0.31347916 0.0030990946 -0.26978287 -0.10010682
-0.19136529 0.028180322 -0.1572997 0.1569821 0.16089663 -0.063881576 0.03528806 0.1000933
0.01813752 -0.30375382 -0.21594563 -0.22662388 -0.2179127 -0.193088 -0.16226016 -0.24645635
0.17544332 0.11864548 0.1610919 0.015890487 -0.24665532 -0.12116835 -0.117280506 -0.29971218
-0.0706976 -0.09986173 -0.08896873 0.10201366 -0.23238078 -0.065317556 0.011264581 -0.23346703
0.12935221 -0.15093395 0.10634309 -0.14842224 -0.025336321 -0.0865873 0.12837091 -0.27363
0.17348388 0.18069449 -0.018541772 0.028259713 -0.14600156 0.19452918 -0.09343422 0.10103167
-0.15895477 -0.2770406 -0.025914593 0.0140481 0.033837512 -0.0022584512 -0.19756605 -0.0767645
-0.14955054 0.04473221 0.16778138 0.053214084 -0.15783007 -0.28390262 -0.062262785 -0.2061232
-0.11731074 -0.12852262 -0.1232654 -0.076977886 -0.10232144 0.13417438 0.10837813 -0.10681624
-0.070293695 -0.22994588 -0.124473125 -0.09383869 -0.07597871 -0.15580162 -0.07251768 -0.07477252
0.029822046 0.04546527 -0.22187504 -0.15887742 0.120235614 0.060233142 0.106804684 -0.057511397
-0.17954363 -0.058056444 0.0607501 -0.037979122 -0.16996661 -0.054500487 0.108892806 -0.12908614
-0.22898513 -0.114831194 -0.1144865 0.1274169 -0.32799587 -0.08781919 -0.2730877 -0.07156809
0.1460723 -0.279334 -0.10827446 -0.1036033 0.09677601 0.071483344 -0.030300956 -0.062363576
0.18017936 -0.14863542 -0.20394741 0.09672782 0.09820369 -0.09414852 -0.09187031 -0.035294455
-0.039675467 -0.14973406 0.10151204 0.15821426 0.05934928 -0.11246136 -0.015215893 -0.030935347
0.12377154 -0.1436092 -0.10925112 -0.103653155 -0.08820666 -0.07144136 -0.0567016 -0.068103805
0.16278653 -0.27116692 -0.14944199 0.08491667 0.14236149 -0.0015581166 -0.048947886 -0.0755814
00000000: 2c2f 1bbe e4f2 a0bd cae1 3a3d 7ff3 2b3e
00000010: a429 d9bc ad30 23be e8db 25be 5d48 953c
00000020: ae4e 80bd ab57 7abe 7e1d 40bc 0408 02be
00000030: 569e 2c3e 507f a5bc 36be 07be 9e7f 8d3d
00000040: aa22 7bbd 755e 93be 661b 87bd 3233 5ebe
00000050: 8415 96bd 27f7 2b3e 0c02 9cbe 80b0 37be
00000060: 11fc 80be 11db 04be ab3d ed3d c07f 6a3c
00000070: 84e7 f13d e45d 3a3d e534 2e3d 998d 1dbd
00000080: af17 50be e551 0cbe 8b97 91be 0e20 73be
00000090: f993 a7be 107e 4dbe bfe4 edbe f9e1 c33c
000000a0: 26b0 183e c857 adbb e897 6bbe fbd6 6bbe
000000b0: fb36 4cbe bc24 043e 07c2 bb3d c61b 703d
000000c0: 23dd 04bd 3a2c 3abd d3e4 4a3e 625b 06be
000000d0: 907a cbba 7632 873d 7adc 583d ba81 97be
000000e0: 2e3f 10be d9a4 fb3c 4d1c 17be 910e f63d
000000f0: f380 a43d 8540 74be cf6d aabe 527c 3ebd
00000100: 35b1 65be 2832 98bd 72ae b0be d0c0 18be
00000110: d198 893d 1708 453e eb55 8cbe 8aca a13d
00000120: e7d2 bc3d fbab 083e 414b 6cbe 224a 54be
00000130: ea52 c83d 22a7 e33d cc64 533d dbb0 10be
00000140: be70 24be e484 98be ce4c 803b eecd 25be
00000150: 01b9 1f3e 5982 49be 6481 38be ecaf 673d
00000160: c945 123e bddb 72be b2cf 0ebe df60 0c3e
00000170: 1390 54be 0f81 0d3e 4fc8 ff3c 6440 15be
00000180: 514b 90bd 2055 10bd c8a3 ff3c a689 6e3d
00000190: 551b aa3d 6fce 123d 7bab 013e 5171 6ebd
000001a0: 477b 8cbe 4a20 82be 5f8b 8abe ee22 e4bd
000001b0: 5780 a0be 2e1a 4b3b fb20 8abe ce04 cdbd
000001c0: 43f5 43be 6bda e63c 2c13 21be eabf 203e
000001d0: 16c2 243e 58d4 82bd 368a 103d b7fd cc3d
000001e0: 2395 943c 9f85 9bbe da20 5dbe 1710 68be
000001f0: 8224 5fbe dcb8 45be 8727 26be 0e5f 7cbe
00000200: 6aa7 333e 67fc f23d 46f5 243e c42c 823c
00000210: 3693 7cbe 1d27 f8bd c330 f0bd e073 99be
00000220: e7c9 90bd 4f84 ccbd 3d35 b6bd 8aec d03d
00000230: 3af5 6dbe 36c5 85bd 148f 383c fb11 6fbe
00000240: e874 043e 6e8e 1abe 68ca d93d 00fc 17be
00000250: 1e8e cfbc af54 b1bd aa73 033e 3b19 8cbe
00000260: c2a5 313e fa07 393e eae4 97bc ea80 e73c
00000270: 6f81 15be a832 473e 715a bfbd b1e9 ce3d
00000280: 0ac5 22be 44d8 8dbe d74a d4bc 012a 663c
00000290: 3499 0a3d 8602 14bb c14e 4abe b536 9dbd
000002a0: c723 19be 1f39 373d e2ce 2b3e 03f7 593d
000002b0: 359e 21be af5b 91be 4307 7fbd f611 53be
000002c0: 9d40 f0bd 6f9b 03be 9272 fcbd 95a6 9dbd
000002d0: e78d d1bd 0265 093e 5af5 dd3d 79c2 dabd
000002e0: 24f6 8fbd ef76 6bbe c4eb febd 802e c0bd
000002f0: ba9a 9bbd 768a 1fbe 2684 94bd 5622 99bd
00000300: 5d4d f43c ca39 3a3d 3633 63be c3b0 22be
00000310: 173e f63d 07b7 763d 6abc da3d 1291 6bbd
00000320: 49da 37be 98cc 6dbd 19d5 783d ff8f 1bbd
00000330: ba0b 2ebe e73b 5fbd 3103 df3d 282f 04be
00000340: 147b 6abe 9e2c ebbd e677 eabd 9379 023e
00000350: 13ef a7be 8cda b3bd 27d2 8bbe 4a92 92bd
00000360: fa93 153e de04 8fbe 00bf ddbd f82d d4bd
00000370: 8032 c63d dc65 923d b639 f8bc f370 7fbd
00000380: f080 383e e233 18be 97d7 50be 3c19 c63d
00000390: 041f c93d f0d0 c0bd 8026 bcbd eb90 10bd
000003a0: be82 22bd e353 19be 8be5 cf3d eb02 223e
000003b0: 3b18 733d 2452 e6bd 154c 79bc 206c fdbc
000003c0: ef7b fd3d 4a0e 13be 0dbf dfbd 1b48 d4bd
000003d0: b1a5 b4bd d94f 92bd f03f 68bd 027a 8bbd
000003e0: 83b1 263e 64d6 8abe 5207 19be cbe8 ad3d
000003f0: 36c7 113e b839 ccba 947d 48bd 6cca 9abd

encoder.conv1.bias f4 [32]
-0.26022202 0.10421847 -0.064269856 -0.00030703653 -0.002744045 -0.26352677 -0.5984585 0.026071142
-0.53998053 -0.3134222 -0.053332757 0.08143096 -0.26253766 -0.042032804 0.26280597 -0.29155287
-0.18170449 -0.19443451 -0.00042674746 -0.4789248 0.055298753 -0.4454539 -0.0819168 -0.09905039
-0.044892885 0.039414827 -0.009954593 -0.33996502 -0.47332916 0.050952602 -0.3643943 0.011014705
00000000: d23b 85be 7e70 d53d ea9f 83bd bff9 a0b9
00000010: 70d5 33bb fbec 86be 9434 19bf 2693 d53c
00000020: 2a3c 0abf e078 a0be 7373 5abd 46c5 a63d
00000030: 566b 86be 972a 2cbd 818e 863e 6b46 95be
00000040: be10 3abe d719 47be 13bd dfb9 a235 f5be
00000050: f280 623d 8912 e4be ffc3 a7bd eeda cabd
00000060: 9ae1 37bd 7171 213d 9718 23bc e50f aebe
00000070: 3358 f2be adb3 503d e491 babe 0577 343c

encoder.conv2.weight f4 [32, 32, 16]
-0.03974026 -0.09673201 -0.09519527 -0.05358457 -0.097884096 -0.08322314 -0.0802694 -0.08905909
-0.035670616 -0.045203183 -0.09782658 -0.08770892 -0.060269557 -0.083224036 -0.086470746 -0.014034152
-0.08731706 -0.022061357 -0.021188978 -0.030270036 -0.075021096 -0.077975154 -0.010560167 -0.07774877
-0.09262294 -0.07575615 -0.01200064 -0.048512977 -0.07345038 -0.09542289 -0.083516054 -0.04463084
-0.04640171 -0.06590778 -0.081501745 -0.04387619 -0.08548267 -0.11193291 -0.0578482 -0.022607623
-0.030560208 -0.043893438 -0.07640451 -0.02733365 -0.06906804 -0.044396237 -0.085544124 -0.11572574
-0.042856757 -0.07798453 -0.073333144 -0.07004674 -0.05012711 -0.086439446 -0.018466577 -0.0640511
-0.01725201 -0.07691972 -0.062406152 -0.03850967 -0.034408692 -0.06035154 -0.02513869 -0.08589425
-0.026586542 -0.10298178 -0.026468446 -0.049104482 -0.016192691 -0.06992322 -0.09939097 -0.038875878
-0.06383119 -0.036743183 -0.07605356 -0.039182436 -0.08359049 -0.07350898 -0.049351793 -0.04044561
-0.09323191 -0.07441656 -0.10081252 -0.032692857 -0.088505775 -0.086779974 -0.11130876 -0.076852396
-0.0880127 -0.08384978 -0.047692757 -0.020134732 -0.08650109 -0.037964303 -0.048318572 -0.033300478
-0.089878716 -0.07820113 -0.04325602 -0.0732369 -0.052990835 -0.09432488 -0.067060955 -0.09976273
-0.06305638 -0.09506708 -0.044670388 -0.04238081 -0.061143026 -0.058614213 -0.026579775 -0.07271549
-0.08896655 -0.0655916 -0.055804618 -0.07662734 -0.02230616 -0.08434835 -0.03728922 -0.028182631
-0.038457848 -0.07915988 -0.022285633 -0.042203456 -0.066090696 -0.01295513 -0.053606328 -0.040795866
-0.02608919 -0.035625 -0.030407455 -0.08029705 -0.06781774 -0.04755553 -0.038766094 -0.033752546
-0.049907036 -0.046331655 -0.03634999 -0.07905401 -0.08140891 -0.07937311 -0.100022405 -0.076898456
-0.05551317 -0.09261148 -0.03228432 -0.01819916 -0.08482635 -0.08952097 -0.06273629 -0.0152282
-0.08934381 -0.021227028 -0.02246548 -0.067895606 -0.0999141 -0.057918064 -0.059643928 -0.079942286
-0.035808053 -0.08363863 -0.051838566 -0.02004822 -0.023761911 -0.07514004 -0.03749525 -0.051034678
-0.04542004 -0.057922628 -0.113798 -0.09074297 -0.061898697 -0.06331253 -0.044099882 -0.083390884
-0.025539167 -0.040026166 -0.04342988 -0.027842425 -0.047678214 -0.07425101 -0.082915954 -0.075973496
-0.06605271 -0.099890195 -0.07705894 -0.08292415 -0.049981706 -0.02428427 -0.05123532 -0.04334604
-0.029789232 -0.0806455 -0.049251582 -0.030776493 -0.06627302 -0.04218543 -0.05124218 -0.0478838
-0.08555777 -0.016134813 -0.048609834 -0.01925144 -0.09920762 -0.08041313 -0.03520308 -0.04717777
-0.06841885 -0.08456646 -0.06634686 -0.024721095 -0.07129337 -0.03238198 -0.04758023 -0.01955475
-0.05245214 -0.018255066 -0.040895756 -0.054063607 -0.019063435 -0.05213423 -0.060866173 -0.017267026
-0.11639271 -0.054386437 -0.058476463 -0.034181677 -0.106350794 -0.065692015 -0.09652158 -0.09056673
-0.046660334 -0.036773797 -0.054791167 -0.08451307 -0.09503636 -0.10559666 -0.08343923 -0.067355976
-0.03741624 -0.031095285 -0.026564075 -0.08389803 -0.03720542 -0.05997888 -0.09039119 -0.039697412
-0.022344673 -0.070564575 -0.08970101 -0.08726363 -0.098690264 -0.0356933 -0.06906436 -0.028351977
00000000: afc6 22bd 6f1b c6bd bdf5 c2bd 7e7b 5bbd
00000010: 7577 c8bd e570 aabd 4864 a4bd 9d64 b6bd
00000020: 5a1b 12bd f926 39bd 4d59 c8bd bca0 b3bd
00000030: 36dd 76bd 5d71 aabd 9317 b1bd 80ef 65bc
00000040: 49d3 b2bd 05ba b4bc 8294 adbc def8 f7bc
00000050: a9a4 99bd 70b1 9fbd 8d04 2dbc bf3a 9fbd
00000060: 19b1 bdbd 0a26 9bbd 559e 44bc 8bb5 46bd
00000070: 276d 96bd 136d c3bd 770a abbd d4ce 36bd
00000080: b80f 3ebd a8fa 86bd 63ea a6bd 85b7 33bd
00000090: 8a11 afbd 153d e5bd 3cf2 6cbd 9f33 b9bc
000000a0: 6759 fabc 9bc9 33bd f879 9cbd d2ea dfbc
000000b0: 8b73 8dbd d4d8 35bd c231 afbd 9e01 edbd
000000c0: 918a 2fbd 5ab6 9fbd b02f 96bd aa74 8fbd
000000d0: 1652 4dbd 2a07 b1bd 3847 97bc 392d 83bd
000000e0: 1654 8dbc 1688 9dbd 989d 7fbd 51bc 1dbd
000000f0: 21f0 0cbd 2d33 77bd a7ef cdbc 53e9 afbd
00000100: 05cc d9bc 1de8 d2bd 5bd4 d8bc c821 49bd
00000110: 89a6 84bc e833 8fbd 7e8d cbbd 503c 1fbd
00000120: edb9 82bd 0580 16bd f8c1 9bbd c37d 20bd
00000130: 7e31 abbd e08b 96bd 1b25 4abd 4caa 25bd
00000140: 5ff0 bebd b667 98bd cb76 cebd f2e8 05bd
00000150: 8442 b5bd b3b9 b1bd d9f5 e3bd ca64 9dbd
00000160: 0140 b4bd 6fb9 abbd 7b59 43bd 98f1 a4bc
00000170: 7c27 b1bd 7580 1bbd b2e9 45bd 1566 08bd
00000180: 5512 b8bd ea27 a0bd 392d 31bd 3afd 95bd
00000190: eb0c 59bd 672d c1bd 4157 89bd 6750 ccbd
000001a0: b423 81bd 87b2 c2bd 4cf8 36bd 8097 2dbd
000001b0: 1c71 7abd 7515 70bd d4bd d9bc dceb 94bd
000001c0: 1834 b6bd e454 86bd 6293 64bd cbee 9cbd
000001d0: 68bb b6bc d4be acbd 95bc 18bd 43df e6bc
000001e0: fa85 1dbd 931e a2bd 5c90 b6bc 88dd 2cbd
000001f0: 8f5a 87bd c141 54bc 4f92 5bbd 9119 27bd
00000200: ffb8 d5bc 85eb 11bd 0e19 f9bc c872 a4bd
00000210: 07e4 8abd 96c9 42bd 32c9 1ebd 1c40 0abd
00000220: 526b 4cbd 43c6 3dbd bae3 14bd 12e7 a1bd
00000230: b7b9 a6bd 5e8e a2bd 8cd8 ccbd f07c 9dbd
00000240: c761 63bd 16ab bdbd 903c 04bd 6816 95bc
00000250: 70b9 adbd c556 b7bd e27b 80bd b37f 79bc
00000260: e3f9 b6bd 4ee4 adbc 8709 b8bc da0c 8bbd
00000270: c39f ccbd 7e3b 6dbd 314d 74bd c8b8 a3bd
00000280: 77ab 12bd bb4a abbd ad54 54bd 2a3c a4bc
00000290: 57a8 c2bc 05e3 99bd 9f94 19bd bd09 51bd
000002a0: 5d0a 3abd 4740 6dbd ed0e e9bd 73d7 b9bd
000002b0: 7d89 7dbd 00aa 81bd 14a2 34bd d7c8 aabd
000002c0: 8437 d1bc 7af2 23bd 88e3 31bd cc15 e4bc
000002d0: 3b4a 43bd ea10 98bd d7cf a9bd fe97 9bbd
000002e0: a546 87bd 3b93 ccbd 14d1 9dbd 23d4 a9bd
000002f0: 9eb9 4cbd ceef c6bc 20dc 51bd 9e8b 31bd
00000300: 8c08 f4bc 7829 a5bd 07bc 49bd fc1e fcbc
00000310: 26ba 87bd a1ca 2cbd 52e3 51bd ce21 44bd
00000320: ea38 afbd 282d 84bc 1b1b 47bd 32b5 9dbc
00000330: 5d2d cbbd a4af a4bd 1b31 10bd 7a3d 41bd
00000340: 2f1f 8cbd 2e31 adbd dde0 87bd e583 cabc
00000350: 4202 92bd f8a2 04bd 7de3 42bd 4831 a0bc
00000360: 0ed8 56bd a68b 95bc 4f82 27bd cd71 5dbd
00000370: ec2a 9cbc b48a 55bd cf4e 79bd 9473 8dbc
00000380: 4d5f eebd 50c4 5ebd 0485 6fbd 1602 0cbd
00000390: 72ce d9bd 8989 86bd 1bad c5bd 0d7b b9bd
000003a0: e81e 3fbd 1fa0 16bd b46c 60bd 3015 adbd
000003b0: 6ca2 c2bd 1043 d8bd 30e2 aabd eef1 89bd
000003c0: c541 19bd 8abb febc e79c d9bc bbd2 abbd
000003d0: b664 18bd 6aac 75bd 041f b9bd c199 22bd
000003e0: 2d0c b7bc 2984 90bd 2ab5 b7bd 46b7 b2bd
000003f0: 1f1e cabd 2333 12bd 9d71 8dbd 6842 e8bc

encoder.conv2.bias f4 [32]
-0.09667714 -0.1034089 -0.12534851 -0.09871653 -0.082193784 -0.03277639 -0.061544973 -0.111427605
-0.044568 -0.015491629 -0.08477932 -0.090387054 -0.049279053 -0.07340966 -0.06981247 -0.06775193
-0.048262052 -0.12334862 -0.07271305 -0.042419188 -0.05184452 -0.05930156 -0.05499527 -0.0196626
-0.03358511 -0.046038307 -0.049165692 -0.016305203 -0.01865647 -0.06686024 0.3022034 -0.038123615
00000000: aafe c5bd 0cc8 d3bd 5c5b 00be e42b cabd
00000010: 3755 a8bd 8940 06bd 9516 7cbd 2834 e4bd
00000020: ef8c 36bd 9ad0 7dbc c8a0 adbd d91c b9bd
00000030: d5d8 49bd ce57 96bd d7f9 8ebd 86c1 8abd
00000040: 6eae 45bd 349e fcbd 94ea 94bd bebf 2dbd
00000050: eb5a 54bd 31e6 72bd b842 61bd 7613 a1bc
00000060: 8a90 09bd aa92 3cbd f761 49bd 7d92 85bc
00000070: 74d5 98bc 06ee 88bd 67ba 9a3e 8227 1cbd

encoder.conv3.weight f4 [32, 32, 16]
-0.09892552 -0.027953738 -0.06389909 -0.093644746 -0.017299779 -0.034678567 -0.05727008 -0.04096883
-0.05534536 -0.09600564 -0.046564326 -0.044937845 -0.08127921 0.12003147 -0.08986236 0.04267383
-0.046785235 -0.02522294 -0.051652133 -0.08086445 -0.08095479 -0.053722177 -0.04063774 -0.057433113
-0.09065957 0.09806215 0.025974624 0.058760483 0.033818528 0.05274128 -0.041323163 0.023141956
-0.03703057 -0.023232117 -0.08359951 -0.08620884 -0.052518845 -0.030221093 -0.028442018 -0.04435192
-0.019758344 -0.10190126 -0.07368357 0.18218227 -0.06963691 0.06132068 0.0005555805 -0.02587486
-0.0687696 -0.05571063 -0.024306864 -0.09157143 0.10005008 -0.03451804 -0.021641405 -0.09048493
-0.08119695 -0.055450514 -0.04682832 -0.03566016 -0.085911475 -0.024149409 -0.028633174 -0.07065238
-0.026149862 -0.041317914 -0.08075765 -0.10364796 -0.04082645 -0.039717164 -0.026172025 0.017630132
-0.09619055 -0.05164275 -0.019407596 -0.034664683 -0.0347475 -0.092781805 -0.08759977 -0.10080919
-0.02457837 -0.025531894 0.022618936 -0.054069806 -0.080938116 -0.06988425 -0.01347618 -0.073667906
-0.106313355 -0.095849074 -0.02758327 -0.059987467 -0.06731708 -0.06280019 -0.012515836 -0.086262286
-0.054317523 -0.06501774 -0.060603704 -0.047827538 -0.087073214 -0.039278556 -0.061636522 -0.032846056
-0.10118354 -0.020349897 0.02076716 -0.0513934 -0.06662357 -0.09084701 -0.01865633 -0.09860927
0.07103799 0.048915263 -0.051799145 -0.08503085 0.07727288 0.021485932 -0.08069748 -0.05259293
-0.02489708 -0.058599047 -0.016702307 -0.0930656 -0.052923277 -0.09369552 -0.05164981 -0.08295896
-0.09744659 0.04870657 -0.06412746 -0.104000024 -0.09343387 -0.038699258 -0.058440562 -0.049388025
-0.02029953 -0.09280443 -0.10022224 -0.042133063 0.017430121 -0.053491533 -0.09281498 -0.0915999
-0.08154382 -0.03386367 -0.0679643 0.082033925 0.072352946 -0.07988108 -0.06402399 -0.026265422
-0.080363154 -0.05220942 -0.030764598 -0.06759678 0.07357392 -0.09989562 -0.09663474 -0.045723088
-0.024434935 -0.089892186 -0.0832906 -0.09642593 0.08067861 0.07304677 -0.07192128 0.09061945
-0.092281014 -0.037014127 -0.1038588 0.07767909 0.08843983 0.07404328 0.029880233 -0.088767834
-0.06121129 -0.09221786 -0.058732763 -0.02074933 -0.020563195 -0.08774589 -0.08129296 0.06899636
0.05886431 0.06862947 0.02928805 0.06766704 0.052574724 0.062098064 0.09710646 0.04571644
0.0040064617 0.043627515 -0.07095695 0.0024731483 0.035028905 0.011817415 -0.04723251 -0.0545848
-0.023106275 0.012113191 0.021711733 -0.0102698635 0.075144686 -0.10022066 -0.07773937 -0.05573321
-0.062775664 -0.100740485 -0.0473717 -0.104846165 -0.0030718164 -0.11232555 -0.08924368 -0.11707832
-0.022231411 0.008227494 -0.0010559631 0.016177222 -0.022304522 -0.008736907 -0.040670495 -0.07683409
-0.08349774 -0.055926904 -0.061868146 -0.028844552 -0.08455669 -0.08317751 -0.09439039 -0.046443652
-0.06586393 0.04576133 -0.069384046 -0.100480676 -0.013371653 0.10408572 0.06924213 0.02037252
-0.07794023 -0.03909999 -0.053125083 -0.10114842 -0.02105042 -0.052269142 -0.017347982 -0.07774919
-0.055085007 -0.09399358 -0.030786296 -0.10061246 -0.048662804 -0.018656682 -0.040595185 -0.05887793
00000000: 7799 cabd 3dff e4bc 87dd 82bd d1c8 bfbd
00000010: 44b8 8dbc 1d0b 0ebd 0894 6abd efce 27bd
00000020: d1b1 62bd 9b9e c4bd 3cba 3ebd bf10 38bd
00000030: b775 a6bd 0fd3 f53d c209 b8bd c1ca 2e3d
00000040: e0a1 3fbd 57a0 cebc 3091 53bd 439c a5bd
00000050: a0cb a5bd c90b 5cbd c273 26bd fc3e 6bbd
00000060: baab b9bd cfd4 c83d bcc8 d43c d5ae 703d
00000070: 4c85 0a3d 3e07 583d 7a42 29bd 3394 bd3c
00000080: 5ead 17bd 4851 bebc 3836 abbd 438e b0bd
00000090: 001e 57bd 3a92 f7bc 3cff e8bc 5caa 35bd
000000a0: 40dc a1bc 9cb1 d0bd 69e7 96bd fd8d 3a3e
000000b0: cc9d 8ebd 652b 7b3d 60a4 113a 84f7 d3bc
000000c0: 13d7 8cbd d430 64bd 301f c7bc cd89 bbbd
000000d0: 0ee7 cc3d ca62 0dbd 5149 b1bc 2a50 b9bd
000000e0: 964a a6bd 1420 63bd 0dcf 3fbd 6310 12bd
000000f0: 5bf2 afbd fbd4 c5bc 1e90 eabc 32b2 90bd
00000100: 3c38 d6bc f93c 29bd 4464 a5bd 6245 d4bd
00000110: a339 27bd 77ae 22bd b766 d6bc 116d 903c
00000120: 8dff c4bd 5987 53bd aefc 9ebc 8efc 0dbd
00000130: 6553 0ebd 6304 bebd 8267 b3bd 0c75 cebd
00000140: 9458 c9bc 4328 d1bc 594b b93c 4d78 5dbd
00000150: e2c2 a5bd 791f 8fbd 32cb 5cbc 33df 96bd
00000160: d1ba d9bd 854c c4bd 4ff6 e1bc 6bb5 75bd
00000170: 8add 89bd 639d 80bd 390f 4dbc 48aa b0bd
00000180: 0d7c 5ebd 0528 85bd 973b 78bd cfe6 43bd
00000190: 7153 b2bd 8de2 20bd 9476 7cbd 9689 06bd
000001a0: 5139 cfbd d4b4 a6bc e41f aa3c e381 52bd
000001b0: f071 88bd ff0d babd 29d5 98bc a8f3 c9bd
000001c0: 5e7c 913d 5f5b 483d 572b 54bd a724 aebd
000001d0: 3e41 9e3d 4403 b03c b844 a5bd af6b 57bd
000001e0: f6f4 cbbc 8e05 70bd 47d3 88bc 2d99 bebd
000001f0: 14c6 58bd 70e3 bfbd c08e 53bd 63e6 a9bd
00000200: 1492 c7bd 8a80 473d 4255 83bd f7fd d4bd
00000210: 425a bfbd 1d83 1ebd 5f5f 6fbd 194b 4abd
00000220: 334b a6bc 4010 bebd 5141 cdbd b893 2cbd
00000230: 9dc9 8e3c f019 5bbd c815 bebd ba98 bbbd
00000240: 7200 a7bd a2b4 0abd de30 8bbd 6701 a83d
00000250: c82d 943d b198 a3bd 021f 83bd 952a d7bc
00000260: 7095 a4bd 8bd9 55bd 0a06 fcbc 2e70 8abd
00000270: ecad 963d 1396 ccbd 6fe8 c5bd 2248 3bbd
00000280: c62b c8bc 6519 b8bd 4394 aabd f57a c5bd
00000290: d43a a53d 8c99 953d 774b 93bd b196 b93d
000002a0: d4fd bcbd 209c 17bd ecb3 d4bd 3716 9f3d
000002b0: f11f b53d 01a4 973d 64c7 f43c e9cb b5bd
000002c0: b1b8 7abd b8dc bcbd c491 70bd 80fa a9bc
000002d0: 2574 a8bc 1eb4 b3bd ec7c a6bd f74d 8d3d
000002e0: b41b 713d 9c8d 8c3d 7eed ef3c 0495 8a3d
000002f0: 9858 573d 8a5a 7e3d c0df c63d 2941 3b3d
00000300: a348 833b c4b2 323d e151 91bd 8b14 223b
00000310: 787a 0f3d d59d 413c e076 41bd 5094 5fbd
00000320: 5f49 bdbc 6876 463c cedc b13c ee42 28bc
00000330: 75e5 993d 7d40 cdbd d235 9fbd 8248 64bd
00000340: 8790 80bd 0751 cebd d408 42bd 96b9 d6bd
00000350: 8750 49bb f00a e6bd 64c5 b6bd c2c6 efbd
00000360: a61e b6bc 9ccc 063c 3e68 8aba 1886 843c
00000370: f9b7 b6bc 3e25 0fbc 1b96 26bd 315b 9dbd
00000380: dd00 abbd 9c13 65bd 7469 7dbd 694b ecbc
00000390: 0f2c adbd f858 aabd c04f c1bd b33b 3ebd
000003a0: abe3 86bd 3b70 3b3d 3919 8ebd d0c8 cdbd
000003b0: c714 5bbc e52a d53d d1ce 8d3d 45e4 a63c
000003c0: 219f 9fbd 5027 20bd b099 59bd e726 cfbd
000003d0: ee71 acbc 2b18 56bd 5b1d 8ebc f83a 9fbd
000003e0: d1a0 61bd b57f c0bd 8b33 fcbc e80d cebd
000003f0: a652 47bd e6d5 98bc 2347 26bd fc29 71bd

encoder.conv3.bias f4 [32]
0.027934065 -0.063243285 -0.08554067 -0.06309484 -0.0015291186 -0.02788308 -0.10121845 -0.09264061
-0.15224299 -0.121070415 -0.060600996 -0.07258172 -0.018607972 -0.102594055 -0.15909141 -0.03847534
-0.09816334 -0.09281733 0.10887505 -0.093176045 -0.09011698 -0.00044313277 -0.087055095 -0.16714017
-0.03126018 -0.030996712 -0.15798214 -0.020545738 0.06718446 -0.17379929 -0.12849529 -0.097143665
00000000: fbd5 e43c b285 81bd f22f afbd de37 81bd
00000010: b56c c8ba 0f6b e4bc 9e4b cfbd 5cba bdbd
00000020: 96e5 1bbe c4f3 f7bd c038 78bd baa5 94bd
00000030: bf6f 98bc d51c d2bd dce8 22be 5198 1dbd
00000040: dc09 c9bd 0317 bebd e2f9 de3d 15d3 bebd
00000050: 408f b8bd 4654 e8b9 f149 b2bd cb26 2bbe
00000060: ad0a 00bd d1ec fdbc 12c6 21be 894f a8bc
00000070: 0298 893d 71f8 31be 4594 03be 42f3 c6bd

encoder.dense1.weight f4 [64, 2400]
-0.073522136 -0.0792774 -0.067684524 -0.06390169 -0.044361617 -0.07384387 -0.068204656 -0.0405945
-0.057366878 -0.05423866 -0.06044792 -0.056364 -0.07805891 -0.042852964 -0.041902475 -0.054369364
-0.06349084 -0.07563088 -0.070153095 -0.047832653 -0.05411987 -0.052539125 -0.062473908 -0.047991626
-0.06393151 -0.06722039 -0.06923855 -0.064126134 -0.052141 -0.043185856 -0.08032435 -0.046343226
-0.0642009 -0.049338806 -0.040740926 -0.05604025 -0.07812334 -0.06649951 -0.0490539 -0.064018376
-0.052351564 -0.057093386 -0.048266444 -0.06912108 -0.048128586 -0.063949585 -0.07824051 -0.06665215
-0.040230658 -0.04234146 -0.039950784 -0.05729343 -0.057568554 -0.0434654 -0.07983595 -0.061174273
-0.06676856 -0.057614222 -0.06596224 -0.055646423 -0.04433106 -0.071910925 -0.064548194 -0.07250503
-0.07544415 -0.04260472 -0.07345549 -0.058990695 -0.05780982 -0.07766955 -0.04614255 -0.07501486
-0.041191112 -0.07776886 -0.05386586 -0.05483344 -0.05715854 -0.07193535 -0.07570141 0.02763376
-0.054791205 -0.058145806 -0.057195276 -0.0427378 -0.04635713 -0.049805038 -0.044285364 -0.050083753
-0.06188862 -0.049379885 -0.04159675 0.04355708 -0.04888563 -0.071001984 -0.041375197 -0.0554177
-0.049824484 -0.075439736 -0.048283786 -0.05282836 -0.05781821 -0.060433935 -0.065414526 0.054251067
-1.8761812e-08 -0.05694531 -0.0711119 -0.07856937 -0.04088856 1.4155186e-09 -0.04643576 -0.06720644
-0.057268865 -0.035078377 -1.1725798e-09 -0.042015646 -0.06402326 0.02050106 -0.05942187 -0.075553015
-0.06996642 -0.039694797 -0.073421076 -0.02952461 -0.073910005 -0.04199625 6.461157e-10 -0.051108856
-0.05226063 1.6244828e-10 -0.07470688 -0.039091583 -9.519752e-12 -0.047268055 -0.06678771 -1.1410976e-12
-0.04225301 1.5119905e-06 3.6754017e-08 -6.13065e-10 -0.05363807 -5.132119e-10 -0.015457078 -0.06163342
-0.04347221 -0.04655363 -0.07593929 -0.045949765 -0.039951276 1.748432e-05 -0.040147137 -0.078725226
-0.05560413 -0.06995117 -0.07737893 -0.061247148 -0.053159803 -0.05715165 -0.07683112 0.04320337
-0.042154893 -0.07229127 -0.05789718 -0.06645351 -0.040805962 -0.058638256 -0.074596934 -0.07400199
-0.06615225 -0.060547497 -0.07121809 -0.058539692 -0.06611636 -0.047388844 -0.06729642 -0.0520322
-0.07255489 -0.066707194 -0.05839661 -0.044160783 -0.048282295 -0.07703155 -0.07054514 -0.049810704
-0.05989863 -0.06753412 -0.052486353 -0.045291398 -0.07587261 -0.074451625 -0.064794704 -0.07730764
-0.045134056 -0.065559395 -0.016832119 -0.060290366 -0.043108027 -0.058568094 -0.05145388 -0.06524313
-0.07046639 -0.05482571 -0.07965659 -0.06491247 -0.0678491 -0.06573734 -0.03160001 -0.06285833
-0.06886135 -0.06897245 -0.05136561 -0.06904822 -0.049491536 -0.059253637 -0.050859395 -0.048737038
-0.04140786 -0.061614983 -0.065651536 -0.043842047 -0.047450196 -0.06272605 -0.042053502 -0.052477226
-0.06830217 2.2877839e-11 6.379046e-11 -0.062063534 -0.053961143 0.050097946 0.068248555 -1.2678566e-09
-0.042431902 -0.07192305 -0.066545315 1.2909258e-10 -0.05324069 -0.04301816 -0.06256616 -0.071658164
-0.07649904 -0.04530239 0.028757595 -0.052982796 -0.07408843 1.3029455e-10 -0.074759826 -0.05052188
-0.05026003 -0.04053989 -0.049350742 -0.06457946 -0.0789178 -0.041253947 4.5993245e-10 -8.7745566e-10
00000000: c692 96bd 315c a2bd 2f9e 8abd e4de 82bd
00000010: 87b4 35bd 743b 97bd e2ae 8bbd 6b46 26bd
00000020: 88f9 6abd 5b29 5ebd 3d98 77bd f0dd 66bd
00000030: 5add 9fbd 9786 2fbd eea1 2bbd 69b2 5ebd
00000040: 7c07 82bd 5de4 9abd 6dac 8fbd 2cec 43bd
00000050: ccac 5dbd 4433 57bd a4e4 7fbd de92 44bd
00000060: 86ee 82bd d8aa 89bd f1cc 8dbd 9054 83bd
00000070: cd91 55bd a7e3 30bd 1881 a4bd 65d2 3dbd
00000080: c37b 83bd 7d17 4abd f5df 26bd 768a 65bd
00000090: 21ff 9fbd e530 88bd beec 48bd 111c 83bd
000000a0: 986e 56bd c1da 69bd 09b3 45bd 5a8f 8dbd
000000b0: 7b22 45bd 00f8 82bd 8f3c a0bd ec80 88bd
000000c0: e7c8 24bd 3d6e 2dbd 6fa3 23bd 84ac 6abd
000000d0: 01cd 6bbd c608 32bd 0881 a3bd e091 7abd
000000e0: f4bd 88bd e4fc 6bbd 3617 87bd 81ed 63bd
000000f0: 7c94 35bd 0946 93bd d831 84bd 847d 94bd
00000100: 7682 9abd 4982 2ebd d56f 96bd 3aa0 71bd
00000110: fdc9 6cbd 3711 9fbd f8ff 3cbd 64a1 99bd
00000120: 03b8 28bd 4845 9fbd 73a2 5cbd 0799 60bd
00000130: 131f 6abd d752 93bd 5709 9bbd 3260 e23c
00000140: be6c 60bd 4c2a 6ebd 9845 6abd d50d 2fbd
00000150: f9e0 3dbd 5e00 4cbd 9264 35bd 9f24 4dbd
00000160: ec7e 7dbd 9042 4abd 5b61 2abd e968 323d
00000170: 4c3c 48bd 7d69 91bd 0a79 29bd acfd 62bd
00000180: c214 4cbd 2680 9abd 38c5 45bd 8d62 58bd
00000190: cad2 6cbd 9389 77bd 0df8 85bd 5e36 5e3d
000001a0: a929 a1b2 7c3f 69bd 1ea3 91bd fae8 a0bd
000001b0: c37a 27bd 228c c230 6c33 3ebd 88a3 89bd
000001c0: c292 6abd 58ae 0fbd 7c28 a1b0 9918 2cbd
000001d0: a01e 83bd d7f1 a73c 5964 73bd 8abb 9abd
000001e0: 8e4a 8fbd 0397 22bd ca5d 96bd 98dd f1bc
000001f0: 215e 97bd 4304 2cbd 5a9a 3130 8557 51bd
00000200: 3e0f 56bd 209d 322f ecff 98bd 7f1e 20bd
00000210: 2779 27ad 269c 41bd ffc7 88bd 6098 a0ab
00000220: 7e11 2dbd 99ef ca35 78db 1d33 9d84 28b0
00000230: 98b3 5bbd 1412 0db0 af3f 7dbc 5373 7cbd
00000240: eb0f 32bd 05af 3ebd 0f86 9bbd d235 3cbd
00000250: f3a3 23bd 4bab 9237 5371 24bd b13a a1bd
00000260: 28c1 63bd 8f42 8fbd d878 9ebd 4ade 7abd
00000270: 18be 59bd d917 6abd a259 9dbd 04f6 303d
00000280: 9caa 2cbd 720d 94bd 9825 6dbd c718 88bd
00000290: 2724 27bd ab2e 70bd 47c6 98bd 5b8e 97bd
000002a0: d57a 87bd a700 78bd cada 91bd 51c7 6fbd
000002b0: 0468 87bd ce1a 42bd b5d2 89bd b71f 55bd
000002c0: a897 94bd c89d 88bd 4931 6fbd f0e1 34bd
000002d0: a8c3 45bd b8c2 9dbd f879 90bd 4f06 4cbd
000002e0: 4458 75bd 544f 8abd eefb 56bd 7983 39bd
000002f0: 1963 9bbd 187a 98bd 16b3 84bd 7853 9ebd
00000300: 7dde 38bd 0144 86bd 83e3 89bc 08f3 76bd
00000310: 0b92 30bd 19e5 6fbd 4ec1 52bd 319e 85bd
00000320: af50 90bd ec90 60bd ff22 a3bd d4f0 84bd
00000330: 78f4 8abd 4ca1 86bd 036f 01bd debb 80bd
00000340: 2e07 8dbd 6e41 8dbd bf64 52bd 2769 8dbd
00000350: a3b7 4abd f1b3 72bd f151 50bd 7da0 47bd
00000360: 4a9b 29bd fe5f 7cbd 5074 86bd b893 33bd
00000370: 235b 42bd 8476 80bd 4b40 2cbd 5cf2 56bd
00000380: 02e2 8bbd 503c c92d d646 8c2e 5536 7ebd
00000390: 5c06 5dbd 8133 4d3d e6c5 8b3d bd40 aeb0
000003a0: 13cd 2dbd 644c 93bd e948 88bd 55f0 0d2f
000003b0: e912 5abd cf33 30bd b022 80bd 84c1 92bd
000003c0: 87ab 9cbd 008f 39bd 0c95 eb3c 7d04 59bd
000003d0: adbb 97bd a842 0f2f ae1b 99bd 08f0 4ebd
000003e0: 76dd 4dbd 280d 26bd 0124 4abd 3c42 84bd
000003f0: a89f a1bd e6f9 28bd bdd9 fc2f 7431 71b0

encoder.dense1.bias f4 [64]
-0.042440746 -0.007096564 -0.05312475 0.30648118 -0.052694395 0.3593653 0.35830092 -0.055011835
0.14062735 -0.10200406 0.33239466 -0.07629328 0.08007523 -0.01359572 0.017409623 0.5177528
-0.04221637 -0.06349437 -0.11395831 0.4016568 -0.23542687 0.0472173 -0.07251369 0.44699484
-0.0497118 0.41199014 -0.011421341 0.21599194 0.049019117 -0.0671009 0.085960135 -0.0093280235
-0.05973158 -0.060410425 -0.05018915 -0.12253042 0.2769472 -0.07392269 0.48555917 -0.15751588
-0.0049488056 -0.13407668 0.26054686 -0.070130184 0.097746 0.02256673 -0.022202719 0.35092765
0.44780245 -0.092763685 -0.061603695 0.63607866 -0.2926413 0.3332824 0.24626914 -0.06698456
-0.05058429 0.07670936 0.17038904 0.051405855 0.257645 -0.008935229 0.13853495 0.21703374
00000000: 59d6 2dbd 4b8a e8bb 5699 59bd 1aeb 9c3e
00000010: 14d6 57bd bbfe b73e 3873 b73e 1754 61bd
00000020: 9e00 103e 81e7 d0bd a22f aa3e a73f 9cbd
00000030: 7bfe a33d 95c0 5ebc a09e 8e3c 738b 043f
00000040: 13eb 2cbd 5609 82bd f962 e9bd f6a5 cd3e
00000050: be13 71be ed66 413d 0f82 94bd 82dc e43e
00000060: 9a9e 4bbd 5ff0 d23e 9420 3bbc fe2c 5d3e
00000070: 45c8 483d 326c 89bd de0b b03d 91d4 18bc
00000080: 1aa9 74bd ec70 77bd 2393 4dbd 3bf1 fabd
00000090: 06cc 8d3e c764 97bd 369b f83e d84b 21be
000000a0: 9729 a2bb 664b 09be 6666 853e 6aa0 8fbd
000000b0: 0e2f c83d dddd b83c 7ae2 b5bc caac b33e
000000c0: 5d46 e53e e3fa bdbd 2854 7cbd 0dd6 223f
000000d0: 15d5 95be fea3 aa3e fa2d 7c3e 332f 89bd
000000e0: 7931 4fbd cc19 9d3d 777a 2e3e f28e 523d
000000f0: 0cea 833e 1165 12bc 1bdc 0d3e 183e 5e3e

encoder.encoder1.0.weight f4 [32, 1, 16]
-0.15154713 -0.07858828 0.045625485 0.16792105 -0.026509114 -0.15936537 -0.16197169 0.018222982
-0.06265007 -0.24447505 -0.0117257815 -0.1269837 0.16857275 -0.020202309 -0.13256153 0.06909107
-0.061312355 -0.28783002 -0.06597023 -0.21699217 -0.073283225 0.167935 -0.30470312 -0.17938423
-0.2519231 -0.12974192 0.11584028 0.014312685 0.11811736 0.045499697 0.042530913 -0.038465116
-0.20321535 -0.13703115 -0.2843593 -0.23742697 -0.32730082 -0.2006762 -0.46463582 0.023911463
0.14910945 -0.0052900054 -0.23007166 -0.23031227 -0.19942848 0.12904638 0.09167867 0.058620237
-0.032437455 -0.045452334 0.19813852 -0.13120797 -0.0015524197 0.066014215 0.052944638 -0.2959116
-0.14086601 0.030718254 -0.1475689 0.12014497 0.080324076 -0.23852737 -0.33286902 -0.04650528
-0.2243088 -0.074314415 -0.3450809 -0.14917302 0.067186005 0.19241367 -0.274093 0.078999594
0.09219914 0.13346855 -0.23075582 -0.20731404 0.097814396 0.111158624 0.0516098 -0.14129965
-0.16058633 -0.29788888 0.003915406 -0.16191837 0.15597917 -0.1967863 -0.18018109 0.056564257
0.14284433 -0.23716636 -0.13946417 0.13708828 -0.20758085 0.13818763 0.031223444 -0.14575344
-0.070456155 -0.03523743 0.031206027 0.05823674 0.083059944 0.0358414 0.12663071 -0.058213536
-0.27437803 -0.2541526 -0.27059457 -0.11139475 -0.31347916 0.0030990946 -0.26978287 -0.10010682
-0.19136529 0.028180322 -0.1572997 0.1569821 0.16089663 -0.063881576 0.03528806 0.1000933
0.01813752 -0.30375382 -0.21594563 -0.22662388 -0.2179127 -0.193088 -0.16226016 -0.24645635
0.17544332 0.11864548 0.1610919 0.015890487 -0.24665532 -0.12116835 -0.117280506 -0.29971218
-0.0706976 -0.09986173 -0.08896873 0.10201366 -0.23238078 -0.065317556 0.011264581 -0.23346703
0.12935221 -0.15093395 0.10634309 -0.14842224 -0.025336321 -0.0865873 0.12837091 -0.27363
0.17348388 0.18069449 -0.018541772 0.028259713 -0.14600156 0.19452918 -0.09343422 0.10103167
-0.15895477 -0.2770406 -0.025914593 0.0140481 0.033837512 -0.0022584512 -0.19756605 -0.0767645
-0.14955054 0.04473221 0.16778138 0.053214084 -0.15783007 -0.28390262 -0.062262785 -0.2061232
-0.11731074 -0.12852262 -0.1232654 -0.076977886 -0.10232144 0.13417438 0.10837813 -0.10681624
-0.070293695 -0.22994588 -0.124473125 -0.09383869 -0.07597871 -0.15580162 -0.07251768 -0.07477252
0.029822046 0.04546527 -0.22187504 -0.15887742 0.120235614 0.060233142 0.106804684 -0.057511397
-0.17954363 -0.058056444 0.0607501 -0.037979122 -0.16996661 -0.054500487 0.108892806 -0.12908614
-0.22898513 -0.114831194 -0.1144865 0.1274169 -0.32799587 -0.08781919 -0.2730877 -0.07156809
0.1460723 -0.279334 -0.10827446 -0.1036033 0.09677601 0.071483344 -0.030300956 -0.062363576
0.18017936 -0.14863542 -0.20394741 0.09672782 0.09820369 -0.09414852 -0.09187031 -0.035294455
-0.039675467 -0.14973406 0.10151204 0.15821426 0.05934928 -0.11246136 -0.015215893 -0.030935347
0.12377154 -0.1436092 -0.10925112 -0.103653155 -0.08820666 -0.07144136 -0.0567016 -0.068103805
0.16278653 -0.27116692 -0.14944199 0.08491667 0.14236149 -0.0015581166 -0.048947886 -0.0755814
00000000: 2c2f 1bbe e4f2 a0bd cae1 3a3d 7ff3 2b3e
00000010: a429 d9bc ad30 23be e8db 25be 5d48 953c
00000020: ae4e 80bd ab57 7abe 7e1d 40bc 0408 02be
00000030: 569e 2c3e 507f a5bc 36be 07be 9e7f 8d3d
00000040: aa22 7bbd 755e 93be 661b 87bd 3233 5ebe
00000050: 8415 96bd 27f7 2b3e 0c02 9cbe 80b0 37be
00000060: 11fc 80be 11db 04be ab3d ed3d c07f 6a3c
00000070: 84e7 f13d e45d 3a3d e534 2e3d 998d 1dbd
00000080: af17 50be e551 0cbe 8b97 91be 0e20 73be
00000090: f993 a7be 107e 4dbe bfe4 edbe f9e1 c33c
000000a0: 26b0 183e c857 adbb e897 6bbe fbd6 6bbe
000000b0: fb36 4cbe bc24 043e 07c2 bb3d c61b 703d
000000c0: 23dd 04bd 3a2c 3abd d3e4 4a3e 625b 06be
000000d0: 907a cbba 7632 873d 7adc 583d ba81 97be
000000e0: 2e3f 10be d9a4 fb3c 4d1c 17be 910e f63d
000000f0: f380 a43d 8540 74be cf6d aabe 527c 3ebd
00000100: 35b1 65be 2832 98bd 72ae b0be d0c0 18be
00000110: d198 893d 1708 453e eb55 8cbe 8aca a13d
00000120: e7d2 bc3d fbab 083e 414b 6cbe 224a 54be
00000130: ea52 c83d 22a7 e33d cc64 533d dbb0 10be
00000140: be70 24be e484 98be ce4c 803b eecd 25be
00000150: 01b9 1f3e 5982 49be 6481 38be ecaf 673d
00000160: c945 123e bddb 72be b2cf 0ebe df60 0c3e
00000170: 1390 54be 0f81 0d3e 4fc8 ff3c 6440 15be
00000180: 514b 90bd 2055 10bd c8a3 ff3c a689 6e3d
00000190: 551b aa3d 6fce 123d 7bab 013e 5171 6ebd
000001a0: 477b 8cbe 4a20 82be 5f8b 8abe ee22 e4bd
000001b0: 5780 a0be 2e1a 4b3b fb20 8abe ce04 cdbd
000001c0: 43f5 43be 6bda e63c 2c13 21be eabf 203e
000001d0: 16c2 243e 58d4 82bd 368a 103d b7fd cc3d
000001e0: 2395 943c 9f85 9bbe da20 5dbe 1710 68be
000001f0: 8224 5fbe dcb8 45be 8727 26be 0e5f 7cbe
00000200: 6aa7 333e 67fc f23d 46f5 243e c42c 823c
00000210: 3693 7cbe 1d27 f8bd c330 f0bd e073 99be
00000220: e7c9 90bd 4f84 ccbd 3d35 b6bd 8aec d03d
00000230: 3af5 6dbe 36c5 85bd 148f 383c fb11 6fbe
00000240: e874 043e 6e8e 1abe 68ca d93d 00fc 17be
00000250: 1e8e cfbc af54 b1bd aa73 033e 3b19 8cbe
00000260: c2a5 313e fa07 393e eae4 97bc ea80 e73c
00000270: 6f81 15be a832 473e 715a bfbd b1e9 ce3d
00000280: 0ac5 22be 44d8 8dbe d74a d4bc 012a 663c
00000290: 3499 0a3d 8602 14bb c14e 4abe b536 9dbd
000002a0: c723 19be 1f39 373d e2ce 2b3e 03f7 593d
000002b0: 359e 21be af5b 91be 4307 7fbd f611 53be
000002c0: 9d40 f0bd 6f9b 03be 9272 fcbd 95a6 9dbd
000002d0: e78d d1bd 0265 093e 5af5 dd3d 79c2 dabd
000002e0: 24f6 8fbd ef76 6bbe c4eb febd 802e c0bd
000002f0: ba9a 9bbd 768a 1fbe 2684 94bd 5622 99bd
00000300: 5d4d f43c ca39 3a3d 3633 63be c3b0 22be
00000310: 173e f63d 07b7 763d 6abc da3d 1291 6bbd
00000320: 49da 37be 98cc 6dbd 19d5 783d ff8f 1bbd
00000330: ba0b 2ebe e73b 5fbd 3103 df3d 282f 04be
00000340: 147b 6abe 9e2c ebbd e677 eabd 9379 023e
00000350: 13ef a7be 8cda b3bd 27d2 8bbe 4a92 92bd
00000360: fa93 153e de04 8fbe 00bf ddbd f82d d4bd
00000370: 8032 c63d dc65 923d b639 f8bc f370 7fbd
00000380: f080 383e e233 18be 97d7 50be 3c19 c63d
00000390: 041f c93d f0d0 c0bd 8026 bcbd eb90 10bd
000003a0: be82 22bd e353 19be 8be5 cf3d eb02 223e
000003b0: 3b18 733d 2452 e6bd 154c 79bc 206c fdbc
000003c0: ef7b fd3d 4a0e 13be 0dbf dfbd 1b48 d4bd
000003d0: b1a5 b4bd d94f 92bd f03f 68bd 027a 8bbd
000003e0: 83b1 263e 64d6 8abe 5207 19be cbe8 ad3d
000003f0: 36c7 113e b839 ccba 947d 48bd 6cca 9abd

encoder.encoder1.0.bias f4 [32]
-0.26022202 0.10421847 -0.064269856 -0.00030703653 -0.002744045 -0.26352677 -0.5984585 0.026071142
-0.53998053 -0.3134222 -0.053332757 0.08143096 -0.26253766 -0.042032804 0.26280597 -0.29155287
-0.18170449 -0.19443451 -0.00042674746 -0.4789248 0.055298753 -0.4454539 -0.0819168 -0.09905039
-0.044892885 0.039414827 -0.009954593 -0.33996502 -0.47332916 0.050952602 -0.3643943 0.011014705
00000000: d23b 85be 7e70 d53d ea9f 83bd bff9 a0b9
00000010: 70d5 33bb fbec 86be 9434 19bf 2693 d53c
00000020: 2a3c 0abf e078 a0be 7373 5abd 46c5 a63d
00000030: 566b 86be 972a 2cbd 818e 863e 6b46 95be
00000040: be10 3abe d719 47be 13bd dfb9 a235 f5be
00000050: f280 623d 8912 e4be ffc3 a7bd eeda cabd
00000060: 9ae1 37bd 7171 213d 9718 23bc e50f aebe
00000070: 3358 f2be adb3 503d e491 babe 0577 343c

encoder.encoder1.2.weight f4 [32, 32, 16]
-0.03974026 -0.09673201 -0.09519527 -0.05358457 -0.097884096 -0.08322314 -0.0802694 -0.08905909
-0.035670616 -0.045203183 -0.09782658 -0.08770892 -0.060269557 -0.083224036 -0.086470746 -0.014034152
-0.08731706 -0.022061357 -0.021188978 -0.030270036 -0.075021096 -0.077975154 -0.010560167 -0.07774877
-0.09262294 -0.07575615 -0.01200064 -0.048512977 -0.07345038 -0.09542289 -0.083516054 -0.04463084
-0.04640171 -0.06590778 -0.081501745 -0.04387619 -0.08548267 -0.11193291 -0.0578482 -0.022607623
-0.030560208 -0.043893438 -0.07640451 -0.02733365 -0.06906804 -0.044396237 -0.085544124 -0.11572574
-0.042856757 -0.07798453 -0.073333144 -0.07004674 -0.05012711 -0.086439446 -0.018466577 -0.0640511
-0.01725201 -0.07691972 -0.062406152 -0.03850967 -0.034408692 -0.06035154 -0.02513869 -0.08589425
-0.026586542 -0.10298178 -0.026468446 -0.049104482 -0.016192691 -0.06992322 -0.09939097 -0.038875878
-0.06383119 -0.036743183 -0.07605356 -0.039182436 -0.08359049 -0.07350898 -0.049351793 -0.04044561
-0.09323191 -0.07441656 -0.10081252 -0.032692857 -0.088505775 -0.086779974 -0.11130876 -0.076852396
-0.0880127 -0.08384978 -0.047692757 -0.020134732 -0.08650109 -0.037964303 -0.048318572 -0.033300478
-0.089878716 -0.07820113 -0.04325602 -0.0732369 -0.052990835 -0.09432488 -0.067060955 -0.09976273
-0.06305638 -0.09506708 -0.044670388 -0.04238081 -0.061143026 -0.058614213 -0.026579775 -0.07271549
-0.08896655 -0.0655916 -0.055804618 -0.07662734 -0.02230616 -0.08434835 -0.03728922 -0.028182631
-0.038457848 -0.07915988 -0.022285633 -0.042203456 -0.066090696 -0.01295513 -0.053606328 -0.040795866
-0.02608919 -0.035625 -0.030407455 -0.08029705 -0.06781774 -0.04755553 -0.038766094 -0.033752546
-0.049907036 -0.046331655 -0.03634999 -0.07905401 -0.08140891 -0.07937311 -0.100022405 -0.076898456
-0.05551317 -0.09261148 -0.03228432 -0.01819916 -0.08482635 -0.08952097 -0.06273629 -0.0152282
-0.08934381 -0.021227028 -0.02246548 -0.067895606 -0.0999141 -0.057918064 -0.059643928 -0.079942286
-0.035808053 -0.08363863 -0.051838566 -0.02004822 -0.023761911 -0.07514004 -0.03749525 -0.051034678
-0.04542004 -0.057922628 -0.113798 -0.09074297 -0.061898697 -0.06331253 -0.044099882 -0.083390884
-0.025539167 -0.040026166 -0.04342988 -0.027842425 -0.047678214 -0.07425101 -0.082915954 -0.075973496
-0.06605271 -0.099890195 -0.07705894 -0.08292415 -0.049981706 -0.02428427 -0.05123532 -0.04334604
-0.029789232 -0.0806455 -0.049251582 -0.030776493 -0.06627302 -0.04218543 -0.05124218 -0.0478838
-0.08555777 -0.016134813 -0.048609834 -0.01925144 -0.09920762 -0.08041313 -0.03520308 -0.04717777
-0.06841885 -0.08456646 -0.06634686 -0.024721095 -0.07129337 -0.03238198 -0.04758023 -0.01955475
-0.05245214 -0.018255066 -0.040895756 -0.054063607 -0.019063435 -0.05213423 -0.060866173 -0.017267026
-0.11639271 -0.054386437 -0.058476463 -0.034181677 -0.106350794 -0.065692015 -0.09652158 -0.09056673
-0.046660334 -0.036773797 -0.054791167 -0.08451307 -0.09503636 -0.10559666 -0.08343923 -0.067355976
-0.03741624 -0.031095285 -0.026564075 -0.08389803 -0.03720542 -0.05997888 -0.09039119 -0.039697412
-0.022344673 -0.070564575 -0.08970101 -0.08726363 -0.098690264 -0.0356933 -0.06906436 -0.028351977
00000000: afc6 22bd 6f1b c6bd bdf5 c2bd 7e7b 5bbd
00000010: 7577 c8bd e570 aabd 4864 a4bd 9d64 b6bd
00000020: 5a1b 12bd f926 39bd 4d59 c8bd bca0 b3bd
00000030: 36dd 76bd 5d71 aabd 9317 b1bd 80ef 65bc
00000040: 49d3 b2bd 05ba b4bc 8294 adbc def8 f7bc
00000050: a9a4 99bd 70b1 9fbd 8d04 2dbc bf3a 9fbd
00000060: 19b1 bdbd 0a26 9bbd 559e 44bc 8bb5 46bd
00000070: 276d 96bd 136d c3bd 770a abbd d4ce 36bd
00000080: b80f 3ebd a8fa 86bd 63ea a6bd 85b7 33bd
00000090: 8a11 afbd 153d e5bd 3cf2 6cbd 9f33 b9bc
000000a0: 6759 fabc 9bc9 33bd f879 9cbd d2ea dfbc
000000b0: 8b73 8dbd d4d8 35bd c231 afbd 9e01 edbd
000000c0: 918a 2fbd 5ab6 9fbd b02f 96bd aa74 8fbd
000000d0: 1652 4dbd 2a07 b1bd 3847 97bc 392d 83bd
000000e0: 1654 8dbc 1688 9dbd 989d 7fbd 51bc 1dbd
000000f0: 21f0 0cbd 2d33 77bd a7ef cdbc 53e9 afbd
00000100: 05cc d9bc 1de8 d2bd 5bd4 d8bc c821 49bd
00000110: 89a6 84bc e833 8fbd 7e8d cbbd 503c 1fbd
00000120: edb9 82bd 0580 16bd f8c1 9bbd c37d 20bd
00000130: 7e31 abbd e08b 96bd 1b25 4abd 4caa 25bd
00000140: 5ff0 bebd b667 98bd cb76 cebd f2e8 05bd
00000150: 8442 b5bd b3b9 b1bd d9f5 e3bd ca64 9dbd
00000160: 0140 b4bd 6fb9 abbd 7b59 43bd 98f1 a4bc
00000170: 7c27 b1bd 7580 1bbd b2e9 45bd 1566 08bd
00000180: 5512 b8bd ea27 a0bd 392d 31bd 3afd 95bd
00000190: eb0c 59bd 672d c1bd 4157 89bd 6750 ccbd
000001a0: b423 81bd 87b2 c2bd 4cf8 36bd 8097 2dbd
000001b0: 1c71 7abd 7515 70bd d4bd d9bc dceb 94bd
000001c0: 1834 b6bd e454 86bd 6293 64bd cbee 9cbd
000001d0: 68bb b6bc d4be acbd 95bc 18bd 43df e6bc
000001e0: fa85 1dbd 931e a2bd 5c90 b6bc 88dd 2cbd
000001f0: 8f5a 87bd c141 54bc 4f92 5bbd 9119 27bd
00000200: ffb8 d5bc 85eb 11bd 0e19 f9bc c872 a4bd
00000210: 07e4 8abd 96c9 42bd 32c9 1ebd 1c40 0abd
00000220: 526b 4cbd 43c6 3dbd bae3 14bd 12e7 a1bd
00000230: b7b9 a6bd 5e8e a2bd 8cd8 ccbd f07c 9dbd
00000240: c761 63bd 16ab bdbd 903c 04bd 6816 95bc
00000250: 70b9 adbd c556 b7bd e27b 80bd b37f 79bc
00000260: e3f9 b6bd 4ee4 adbc 8709 b8bc da0c 8bbd
00000270: c39f ccbd 7e3b 6dbd 314d 74bd c8b8 a3bd
00000280: 77ab 12bd bb4a abbd ad54 54bd 2a3c a4bc
00000290: 57a8 c2bc 05e3 99bd 9f94 19bd bd09 51bd
000002a0: 5d0a 3abd 4740 6dbd ed0e e9bd 73d7 b9bd
000002b0: 7d89 7dbd 00aa 81bd 14a2 34bd d7c8 aabd
000002c0: 8437 d1bc 7af2 23bd 88e3 31bd cc15 e4bc
000002d0: 3b4a 43bd ea10 98bd d7cf a9bd fe97 9bbd
000002e0: a546 87bd 3b93 ccbd 14d1 9dbd 23d4 a9bd
000002f0: 9eb9 4cbd ceef c6bc 20dc 51bd 9e8b 31bd
00000300: 8c08 f4bc 7829 a5bd 07bc 49bd fc1e fcbc
00000310: 26ba 87bd a1ca 2cbd 52e3 51bd ce21 44bd
00000320: ea38 afbd 282d 84bc 1b1b 47bd 32b5 9dbc
00000330: 5d2d cbbd a4af a4bd 1b31 10bd 7a3d 41bd
00000340: 2f1f 8cbd 2e31 adbd dde0 87bd e583 cabc
00000350: 4202 92bd f8a2 04bd 7de3 42bd 4831 a0bc
00000360: 0ed8 56bd a68b 95bc 4f82 27bd cd71 5dbd
00000370: ec2a 9cbc b48a 55bd cf4e 79bd 9473 8dbc
00000380: 4d5f eebd 50c4 5ebd 0485 6fbd 1602 0cbd
00000390: 72ce d9bd 8989 86bd 1bad c5bd 0d7b b9bd
000003a0: e81e 3fbd 1fa0 16bd b46c 60bd 3015 adbd
000003b0: 6ca2 c2bd 1043 d8bd 30e2 aabd eef1 89bd
000003c0: c541 19bd 8abb febc e79c d9bc bbd2 abbd
000003d0: b664 18bd 6aac 75bd 041f b9bd c199 22bd
000003e0: 2d0c b7bc 2984 90bd 2ab5 b7bd 46b7 b2bd
000003f0: 1f1e cabd 2333 12bd 9d71 8dbd 6842 e8bc

encoder.encoder1.2.bias f4 [32]
-0.09667714 -0.1034089 -0.12534851 -0.09871653 -0.082193784 -0.03277639 -0.061544973 -0.111427605
-0.044568 -0.015491629 -0.08477932 -0.090387054 -0.049279053 -0.07340966 -0.06981247 -0.06775193
-0.048262052 -0.12334862 -0.07271305 -0.042419188 -0.05184452 -0.05930156 -0.05499527 -0.0196626
-0.03358511 -0.046038307 -0.049165692 -0.016305203 -0.01865647 -0.06686024 0.3022034 -0.038123615
00000000: aafe c5bd 0cc8 d3bd 5c5b 00be e42b cabd
00000010: 3755 a8bd 8940 06bd 9516 7cbd 2834 e4bd
00000020: ef8c 36bd 9ad0 7dbc c8a0 adbd d91c b9bd
00000030: d5d8 49bd ce57 96bd d7f9 8ebd 86c1 8abd
00000040: 6eae 45bd 349e fcbd 94ea 94bd bebf 2dbd
00000050: eb5a 54bd 31e6 72bd b842 61bd 7613 a1bc
00000060: 8a90 09bd aa92 3cbd f761 49bd 7d92 85bc
00000070: 74d5 98bc 06ee 88bd 67ba 9a3e 8227 1cbd
