CAC/DC/networks/weights/DC/DC_3_myTestCACclassifierAccuracy.pth (torch, 754052 bytes, 19 tensors)

anchors f8 [4, 4]
000000 00 00 00 00 00 00 24 40 00 00 00 00 00 00 00 00
       10.0 0.0
000010 00 00 00 00 00 00 00 00 00 00 00 00 00 00 00 00
       0.0 0.0
000020 00 00 00 00 00 00 00 00 00 00 00 00 00 00 24 40
       0.0 10.0
000030 00 00 00 00 00 00 00 00 00 00 00 00 00 00 00 00
       0.0 0.0
000040 00 00 00 00 00 00 00 00 00 00 00 00 00 00 00 00
       0.0 0.0
000050 00 00 00 00 00 00 24 40 00 00 00 00 00 00 00 00
       10.0 0.0
000060 00 00 00 00 00 00 00 00 00 00 00 00 00 00 00 00
       0.0 0.0
000070 00 00 00 00 00 00 00 00 00 00 00 00 00 00 24 40
       0.0 10.0

encoder.conv1.weight f4 [32, 1, 16]
000000 67 ac d8 bd 8a bb 00 be 08 ec 7f be 7d ee 89 bb
       -0.10579758 -0.1257154 -0.24992383 -0.004209338
000010 90 6c 1b be 44 91 d6 3d 3a fc 36 be 01 68 2a be
       -0.15178132 0.10476926 -0.17869654 -0.16641237
000020 65 ca bf bd 2a 81 b7 3d 2f a6 7e bd fb 93 28 be
       -0.093647756 0.08960183 -0.062170204 -0.164627
000030 86 74 a4 be d0 c6 d9 bb 50 b3 16 3e 85 13 02 be
       -0.3212015 -0.0066460148 0.1471684 -0.12702759
000040 cc 89 6a be 26 39 33 bd 4c 07 73 bd 83 3e 34 be
       -0.22904128 -0.043755673 -0.05933313 -0.17601971
000050 3b 66 28 be 4e e4 9a be 22 c4 78 bd 26 24 fd 3c
       -0.16445248 -0.30252308 -0.06073392 0.030901026
000060 f1 5f 3a 3e 4b a8 7d bd 0c 4c 24 3e fe 03 89 be
       0.18200661 -0.061928075 0.16044635 -0.26760858
000070 af 24 a1 3d 00 33 e6 bd af a9 40 be 5d ff 9d be
       0.07868325 -0.11240196 -0.18814729 -0.3085889
000080 c3 3b ff bd d7 d3 ee 3d a7 31 96 bd 8f d1 c2 3d
       -0.124625705 0.11661499 -0.07333689 0.095126264
000090 75 e3 7d be 77 dc 05 3e 39 d9 3b 3d 5e 55 9b be
       -0.24793799 0.13072382 0.045861457 -0.30338567
0000a0 cd 00 4a bd 6f f7 de 3d 0a 19 f9 bd ef 6b 10 3e
       -0.04931717 0.10887038 -0.12162979 0.14103673
0000b0 55 6e 88 be c5 5e 4b be 5e 3c 05 3d 0a af 14 be
       -0.26646677 -0.1986037 0.032528274 -0.14519897
0000c0 58 bd c0 bd 48 da 4d be 03 ab 03 be 22 b1 45 be
       -0.094111145 -0.20102799 -0.12858205 -0.19305852
0000d0 1a 40 4a bc fe a3 e6 3d 6d ef 81 be f3 ed 7f bc
       -0.012344385 0.11261748 -0.2537798 -0.015620696
0000e0 9d 9b 2e 3e 31 17 4a 3e 49 94 3a be db 94 41 3e
       0.1705155 0.1973541 -0.18220629 0.1890444
0000f0 04 11 62 be c8 33 25 be 98 75 07 3e 77 d3 0f bd
       -0.22076803 -0.16133034 0.13228452 -0.035113778
000100 cd 29 c9 bd 59 e6 cb bd 19 c5 8d be 4d 6b 30 be
       -0.09822426 -0.09956045 -0.27689436 -0.17228432
000110 5a d1 89 be 36 04 86 be 09 cc 80 be 3e 0c 9a bd
       -0.26917535 -0.26175088 -0.25155666 -0.07521866
000120 83 1d 02 3d 6d e0 ac bd 26 89 a2 be 81 1f a8 be
       0.031766426 -0.08441243 -0.3174526 -0.32836536
000130 e7 4a 02 3e f0 0c 62 3d 56 f7 b0 3d 12 ca a9 bd
       0.12723885 0.05518812 0.086409256 -0.08290495
000140 72 ae 95 3d de a4 a4 bd 98 ea bb bd a8 99 8b bd
       0.073086634 -0.080392584 -0.091756046 -0.06816417
000150 0c 4b 03 3e 2d b8 bc bd 0c 4a b3 bd 0b 10 a2 bd
       0.12821597 -0.09214816 -0.08754358 -0.07913216
000160 f9 af 20 bd 0d 2a 84 be c3 58 71 bc 8f a3 36 be
       -0.03923032 -0.25813332 -0.014730635 -0.1783583
000170 8e d4 92 be f6 e4 f3 3d 13 f0 79 bd 29 99 89 3d
       -0.2867779 0.11908905 -0.06101997 0.06718666
000180 5a bf 8d be ff 69 7c 3d c4 1a 84 3d 24 ec 91 bd
       -0.27685052 0.061624523 0.06450418 -0.071251184
000190 40 d9 59 be ab ef 85 be 0e b2 18 3e ba 45 40 3d
       -0.2127428 -0.26159415 0.14911672 0.046941496
0001a0 e8 fc eb bd 64 82 de bc a7 5d c9 3b 2f 26 9a be
       -0.115228474 -0.027161784 0.0061451974 -0.30107257
0001b0 9a 0a ce bd 13 02 2a 3e 97 91 21 3e 60 61 a1 be
       -0.10060616 0.16602354 0.15778194 -0.31519604
0001c0 c1 fc ea be c6 da 2b bc fd fb 12 3e 11 9d 2d 3c
       -0.4589596 -0.010489171 0.14353938 0.01059653
0001d0 e4 7c 10 bf 59 d7 82 bd e4 f0 ff bc 80 dd 98 be
       -0.5644057 -0.063887306 -0.031242795 -0.2985649
0001e0 dd 34 d8 3d 76 1d db be b5 82 8f 3e 31 6d 33 3c
       0.10556958 -0.42795914 0.2802941 0.010951326
0001f0 3c 30 4c be 71 a8 ca 3d c3 c0 49 be 71 a9 a5 bd
       -0.19940275 0.09895409 -0.19702439 -0.08088959
000200 93 81 28 3d a6 30 bd 3c f8 2b 8f be b0 8a 42 be
       0.041139197 0.023094486 -0.27963233 -0.18998218
000210 4c 74 a6 bd 4d e2 a5 3d 97 c2 77 bc b0 fe 04 3e
       -0.081276506 0.08099804 -0.015122077 0.1298778
000220 a4 d5 e8 3d d9 1b 83 be 83 18 e4 3d 14 aa 5e 3d
       0.11368874 -0.25607184 0.11137488 0.054361418
000230 a7 5a 45 3e 59 8f a4 bd 2e 78 10 3c 66 58 09 be
       0.19272862 -0.08035154 0.008817716 -0.13412628
000240 dc 9f 71 be c6 be 69 be d7 b6 98 be 87 e1 44 be
       -0.23596138 -0.2282668 -0.29826996 -0.19226657
000250 be b9 30 3e be 86 74 3d 1a ba 04 be ba f5 99 3d
       0.17258355 0.059698813 -0.12961617 0.07517572
000260 bc de cc 3d 8a 41 52 3d 79 03 f4 bb 95 a2 8c bd
       0.10003421 0.051332034 -0.007446703 -0.068669476
000270 64 33 69 3b 4b 57 14 be 09 6a 5f bd 69 9b b3 bd
       0.003558361 -0.14486425 -0.054544482 -0.087698765
000280 76 ec ae 3d d7 63 4c be 55 55 23 bd 95 6e 04 be
       0.08541195 -0.19959961 -0.0398763 -0.12932809
000290 f1 07 80 bd 0e 5a 6d 3d 96 d8 06 be 9e 4a 73 be
       -0.06251515 0.05794721 -0.13168558 -0.23758933
0002a0 7d 78 3d be 26 11 a8 be 36 1d d4 be 20 6d 37 bc
       -0.18502994 -0.32825583 -0.41428536 -0.011195451
0002b0 5b 99 8b be b3 20 50 bc 3e 5a 15 bb 8b b7 30 3e
       -0.27265438 -0.012703109 -0.0022789384 0.17257516
0002c0 77 f0 8b bc 23 18 71 3d 78 a6 12 bb bf e8 de bb
       -0.017082436 0.05886091 -0.0022377055 -0.006802648
0002d0 8b 5b 17 3e 87 22 68 be a5 8c 42 be 49 13 7f bd
       0.14781015 -0.22669421 -0.18998964 -0.06227425
0002e0 25 29 18 3e 7e 1b 22 3e e6 b1 91 bd 9d 6b 31 3d
       0.14859445 0.158308 -0.071140096 0.04331552
0002f0 65 1e a8 3d a4 03 8b be 0e 62 1e 3e ee a9 39 be
       0.08208922 -0.27151215 0.15467092 -0.1813123
000300 5d 2c f2 3c aa 05 a7 bc a7 f0 0f 3d ee f6 ae bd
       0.02956217 -0.020388443 0.035141613 -0.08543192
000310 52 db 7b be 04 40 30 be 69 74 3b bd 1b 51 0c bd
       -0.24595383 -0.1721192 -0.045765314 -0.034257036
000320 63 d7 a4 bd 58 b6 35 3e 72 9f cf 3d 5f eb 94 be
       -0.08048894 0.1774534 0.10137834 -0.29085824
000330 72 a5 bf bc 76 25 db bd 35 59 8a be e7 a9 f4 3d
       -0.02339432 -0.107005045 -0.27021185 0.11946469
000340 6b bb 84 be 2e 64 3e 3e ac 0b 36 bd b8 d3 e5 3d
       -0.2592424 0.18592903 -0.044444725 0.11222023
000350 c5 d0 fb bd d5 eb c8 bc 2d d3 11 be a2 fa 07 be
       -0.12295679 -0.024526516 -0.14240713 -0.13279203
000360 95 8e 02 3e 48 6d 0e 3e 6e cb c0 bd 8c fb cc bc
       0.12749703 0.13908875 -0.09413801 -0.02502229
000370 55 9e 42 3d 67 eb 9a bd 39 41 f4 bd 31 9c e3 bd
       0.04751428 -0.07564431 -0.11926503 -0.111137755
000380 0e de f2 be ae fd 20 be 22 a4 80 3c bb 14 4d 3e
       -0.4743504 -0.15721771 0.015703265 0.2002744
000390 75 55 34 be 7e bf 16 3e f5 7a 43 3e fe 02 53 3d
       -0.17610724 0.14721486 0.19089873 0.051516525
0003a0 d8 14 92 3a 56 4c 39 be ae 60 c9 bb c2 8b a1 be
       0.0011145128 -0.18095526 -0.0061455583 -0.3155194
0003b0 97 f9 11 3c a2 03 9c be c2 47 b3 3d 09 4e 82 bd
       0.0089096045 -0.30471522 0.08753921 -0.0636254
0003c0 6d bc 86 be b8 fe b2 be 69 2e cc 3d 78 47 99 be
       -0.26315632 -0.3495996 0.099697895 -0.2993734
0003d0 55 0d 53 be a0 ea ff bb 17 46 4a 3d 32 ac 0e 3e
       -0.20610555 -0.007809952 0.04938325 0.13932875
0003e0 56 2f a4 be 72 9c 5b be 31 fb cc bc 35 45 3d be
       -0.32067364 -0.21446398 -0.025022121 -0.18483432
0003f0 cd 67 c1 3c 89 7d 33 be 3f 8d 9b 3d 4d 0a 86 be
       0.023609066 -0.17528357 0.075953 -0.26179734

encoder.conv1.bias f4 [32]
000000 2f b0 b5 be 1b 6c 52 be d6 b2 9b 3d 97 49 f9 be
       -0.3548598 -0.20549051 0.076024696 -0.48688957
000010 6f 8b eb 3e fb f9 44 be b2 88 f9 3d 85 6b 86 be
       0.46004817 -0.19235985 0.12184276 -0.26253906
000020 1d 62 b8 be cf 88 f8 be f2 a9 ca be 5d 87 a0 be
       -0.36012354 -0.48541877 -0.39582783 -0.31353274
000030 f2 e8 43 be e6 a6 76 be e3 d8 01 3e 08 72 23 bf
       -0.1913183 -0.24087104 0.12680392 -0.6384587
000040 f1 7b 31 3f b3 b4 b8 be a7 cb 5c be d1 fd 37 bf
       0.69329745 -0.36075363 -0.21562062 -0.7187167
000050 c1 45 0c 3e 87 fb 70 3e 06 16 32 3c 0c e3 d9 be
       0.13698484 0.2353345 0.010869509 -0.42556036
000060 d9 4f fc bd 7a c1 f1 bc 0f 6b 88 be c1 cc b8 3d
       -0.12319917 -0.029511202 -0.2664418 0.09023429
000070 24 13 99 3d 2d eb 8a be 44 77 a9 3c 0c eb 2d 3f
       0.07474354 -0.2713255 0.020686753 0.6793678

encoder.conv2.weight f4 [32, 32, 16]
000000 21 04 75 bd e8 03 a1 bc bc 4b 5d bd 56 70 93 bd
       -0.05981839 -0.019655183 -0.054027304 -0.07199161
000010 63 3c 97 bd 25 b8 af bd 37 83 f5 ba c7 bc 37 bb
       -0.07384565 -0.08580045 -0.0018731122 -0.0028036104
000020 f6 8c 41 bb 76 dc 1e bd 45 78 87 bd e1 5d 5b bd
       -0.0029533482 -0.038784467 -0.066147365 -0.053556327
000030 09 f0 1c bd 48 cf 79 bb d9 4c f1 bc 78 4b e9 bc
       -0.038314853 -0.0038117934 -0.02945559 -0.02847837
000040 f4 b0 2f bd 9d d5 b3 bd 58 26 f6 bc cb af d8 bd
       -0.042893365 -0.08780978 -0.03004758 -0.10580405
000050 db 92 d5 bd f7 f9 ac bc a2 7f 2a bc 44 82 95 bb
       -0.10428401 -0.021115286 -0.010406407 -0.004562648
000060 3b 58 a0 bd 4d 03 92 bd 2a 3b 7d bc 45 f1 a6 bd
       -0.078293286 -0.07129536 -0.015456 -0.08151487
000070 3b b8 38 bc 65 d6 87 bd 3b 15 85 bd fd 10 95 bc
       -0.011274393 -0.066326894 -0.0649819 -0.018196577
000080 d1 48 82 bd 9b 2b a3 bd b6 02 01 bd f0 b9 b1 bd
       -0.06361545 -0.079673015 -0.031496726 -0.08678043
000090 be 3f 3e bd fb 57 86 bd 3f ac 0c bd bc 9d 6f bd
       -0.046447508 -0.0655975 -0.034343954 -0.058500037
0000a0 ba 24 49 bd c5 eb 4c bc e3 be 7a bd 73 4c 14 bd
       -0.04910729 -0.012507384 -0.0612172 -0.03620572
0000b0 a8 0d d7 bc 4e 38 8f bd b7 d5 b0 bd 07 97 8d bd
       -0.026251629 -0.06993161 -0.08634513 -0.06913572
0000c0 3e 56 3b bd 88 1b 77 bd 98 9c 50 bd f1 f4 b8 bd
       -0.045736544 -0.06032899 -0.05093059 -0.09031094
0000d0 94 28 0e bd ff 17 1a bd 09 01 f1 bc e5 1e 00 bb
       -0.034706667 -0.03762054 -0.029419439 -0.0019549665
0000e0 e7 b2 ac bd c5 3a d0 bd 36 a2 31 bd 64 bd a3 bd
       -0.084325604 -0.101674594 -0.043367587 -0.07995108
0000f0 99 f5 3d ba 56 ba 1e bd 67 77 12 bd 02 53 a2 bd
       -0.0007246375 -0.038751923 -0.035758402 -0.07925989
000100 e9 5d 14 bd 17 81 b0 bd b8 75 e9 bc ae f4 53 bd
       -0.036222372 -0.08618372 -0.028498515 -0.051747017
000110 13 c5 dc bd cf 6b dd bd 25 e9 95 bd 68 de a7 bc
       -0.107797764 -0.108115785 -0.073198594 -0.020491794
000120 f4 73 2a bd e7 09 6c bc 38 ff 70 bc e7 a6 e4 bd
       -0.041614488 -0.014406658 -0.014709286 -0.111646466
000130 8c c3 bc bd fc cb 80 bd e5 26 91 bd e8 a5 b5 bd
       -0.09216985 -0.06288907 -0.07087497 -0.08869535
000140 8c 75 a3 bd 7c 40 b2 bd d2 72 65 bd eb f0 95 bd
       -0.07981405 -0.08703706 -0.056017704 -0.07321342
000150 d2 6e 39 bd 42 da 8d bd 90 8c 9c bd 7f 1c 6e bc
       -0.045271702 -0.06926395 -0.07643998 -0.014533161
000160 03 df 07 bd fb 4c b8 bc 5a 1d bd bd 00 cd ba bc
       -0.033171665 -0.022497645 -0.09234114 -0.02280283
000170 e1 91 1e bd af 33 00 bd 02 61 33 bc a4 4a c9 bb
       -0.03871334 -0.03129929 -0.010948421 -0.006142931
000180 de 4b ab bb 11 d5 88 bd ff 38 71 bd e0 62 a8 bd
       -0.00522755 -0.06681264 -0.058892246 -0.08221984
000190 df d3 93 bd b2 32 35 bd c3 8b d2 bd 1f 0f a7 bd
       -0.072181456 -0.0442378 -0.10280564 -0.08157181
0001a0 c1 5b 34 bd ea 5f 97 bc 7d 3c 24 bd eb 39 9f bd
       -0.044032816 -0.018478353 -0.04009675 -0.07774719
0001b0 30 09 a4 bd 3a 94 d9 3a 2b da a6 bc 1a b1 9a bb
       -0.08009565 0.0016599961 -0.020367702 -0.004720819
0001c0 2d b4 b8 bd f4 bb ba bc 1a 11 3c bd 44 0d 96 bd
       -0.09018741 -0.022794701 -0.045914747 -0.07326749
0001d0 69 da cd bc 45 e4 c6 bc ab 70 a3 bd dc 90 8a bd
       -0.02512856 -0.02427877 -0.07980474 -0.06765911
0001e0 3b 21 8d bd ae fd 37 bd b4 fd 88 bd 83 1a 3e bd
       -0.06891104 -0.044919662 -0.06689015 -0.046412002
0001f0 c4 bc 6b bd 9f 4b ad bc 59 d9 5d bd 50 71 b8 bc
       -0.057553068 -0.021154223 -0.054162357 -0.02251497
000200 b1 70 da bc d5 fe 94 bb 3c 04 ad bc ec 62 95 bc
       -0.026665064 -0.00454698 -0.021120183 -0.018235646
000210 08 85 9c bd 0b e6 39 bd b1 51 a5 bd 7e 61 d4 bc
       -0.07642561 -0.0453854 -0.08072222 -0.025925394
000220 d0 23 21 bd e0 c6 97 bd 8e a7 17 bd e7 ea 00 bd
       -0.039340794 -0.07410979 -0.037025027 -0.03147402
000230 7a ed 07 bc 10 e2 76 bc c4 7a 1b bd ab e5 82 bd
       -0.008296365 -0.015068546 -0.037958875 -0.06391462
000240 70 90 9e bd 20 27 bb bd 4a 1e 87 bd aa d0 c7 bc
       -0.07742393 -0.09138322 -0.06597574 -0.024391491
000250 34 62 ae bd 05 a6 e4 bb b7 63 2b bc 1b 4d 86 bd
       -0.085148245 -0.006977799 -0.010460786 -0.065576755
000260 74 89 e8 bc 0f 3a 9a bd 20 ad 65 bb b2 c4 65 bd
       -0.028385855 -0.07530605 -0.0035045817 -0.056095786
000270 e1 bc 96 bd 58 c9 7b bd 54 d1 88 bd 34 95 a4 bd
       -0.073602445 -0.061471313 -0.06680551 -0.08036271
000280 69 3f 7b bd 3c 91 02 bd 5b fb 3b bd f1 2a 18 bd
       -0.06133977 -0.031876788 -0.045894008 -0.037150327
000290 b3 1b 96 bd 8f 21 fa bc 6e 07 b6 bd 4d 18 82 bd
       -0.07329502 -0.03053358 -0.08888136 -0.06352291
0002a0 54 7e 8a bd 3f 18 a9 bd 3c 5d 9e bd f8 6c a2 bd
       -0.067623764 -0.08256578 -0.07732627 -0.079309404
0002b0 10 38 2d bd 10 ac a2 bd 00 01 9c bd 6f 05 af bd
       -0.042289793 -0.079429746 -0.07617378 -0.08545958
0002c0 ff 4a 9e bd 85 a9 91 bc 41 fc 6e bd 12 8e 79 bd
       -0.07729148 -0.017781029 -0.058346037 -0.060926504
0002d0 0d f1 9e bc 08 a6 4e bd eb 9e 21 bd af 02 d9 bc
       -0.019402051 -0.05045131 -0.039458197 -0.026490537
0002e0 86 11 dc bc e9 f3 4e bd bc 39 29 bc 96 e2 ac bd
       -0.026863825 -0.05052558 -0.010328706 -0.08441655
0002f0 48 46 a5 bd f6 a9 bf bc dd bf 66 bd d0 b9 b0 bd
       -0.08070046 -0.023396473 -0.05633532 -0.08629191
000300 71 f8 83 bd a0 d2 40 bd b9 5f 98 bd 78 dd af bd
       -0.06443871 -0.047075868 -0.07440133 -0.08587164
000310 10 48 af bd 0b 0d a0 bc ce bd 67 bd 62 e3 4a bc
       -0.08558667 -0.01953747 -0.056577496 -0.012383314
000320 27 2b 94 bd f0 36 9f bd 2f e9 61 bd c4 aa cd bd
       -0.07234793 -0.0777415 -0.05515402 -0.100423366
000330 35 63 7d bc 6b ab fd bc 18 67 ff bb 13 a1 67 bc
       -0.015465547 -0.030965528 -0.007794272 -0.014137524
000340 2d 5c 61 bc 61 a9 01 bd 64 1a 07 bc 86 e2 97 bc
       -0.013754887 -0.031655673 -0.008246038 -0.018540632
000350 be c6 1f bd 4e bf 9a bd c3 de 74 bd 84 8d 52 bd
       -0.039007895 -0.0755602 -0.059782755 -0.05140449
000360 1e 0d e2 bd b5 63 f4 bb 5d 87 b5 bd 82 bc 8a bd
       -0.11037658 -0.007458175 -0.08863709 -0.06774236
000370 73 bf 79 bd e8 4a 61 bd cd 52 bc bc 84 1d a0 bd
       -0.060973596 -0.055003077 -0.022988701 -0.0781813
000380 0b 4c 2e bd 6e f5 2b bd 38 25 91 bd 52 53 9c bd
       -0.04255299 -0.041982107 -0.07087177 -0.076330796
000390 60 af b2 bd 07 73 ba bd df fb 88 bd b9 92 ad bd
       -0.087248564 -0.09103971 -0.066886656 -0.08475251
0003a0 50 b6 14 bd f1 53 5d bd a1 7f 95 bd 05 99 2c bd
       -0.03630668 -0.05403513 -0.07299734 -0.04213812
0003b0 a0 06 0e bd fa ce ab bd de a5 ab bc bf 79 a3 bd
       -0.034674287 -0.08389087 -0.020953115 -0.079822056
0003c0 ff c5 ae bb d9 c2 24 bd 01 7e 3e bd c9 b3 9a bd
       -0.0053336616 -0.040224884 -0.046506885 -0.075538225
0003d0 30 eb 11 bd 28 40 d8 bd 0f 23 53 bd 20 30 8b bd
       -0.035624683 -0.10559112 -0.051547106 -0.067962885
0003e0 5a de a0 bd 43 dd 83 bd 9f 31 b7 bc f1 29 b8 bb
       -0.0785491 -0.06438687 -0.022362528 -0.005620234
0003f0 9c c2 08 bd 80 99 66 bd b5 38 97 bc 5c c4 ae bc
       -0.03338872 -0.056298733 -0.018459657 -0.021333866

encoder.conv2.bias f4 [32]
000000 d9 cf fe bb 15 6c 8d bd 5c d0 a7 bd 03 5c 2d bd
       -0.007776242 -0.06905381 -0.08194038 -0.042324077
000010 8e 81 7d bd cf 63 4c bd f5 79 b1 bd e3 3a a9 bd
       -0.06189113 -0.049899872 -0.086658396 -0.08263185
000020 ed dc bf bb 8b ce 37 bd 81 a9 97 bd 4b 9a 91 bd
       -0.005855194 -0.04487471 -0.07405377 -0.07109507
000030 8c 33 a9 bd b0 48 db 3e 90 05 d3 3b 56 de 3e bd
       -0.08261785 0.42828894 0.006439872 -0.046598755
000040 5c 48 13 bd 04 23 8e bd f0 cb 84 bd 9e 5c 9c 3d
       -0.03595768 -0.069402725 -0.064842105 0.07634853
000050 43 f4 31 bd ea cf 44 be 9f 68 2c bd 58 ad 85 bb
       -0.043445837 -0.19219938 -0.042091962 -0.004079502
000060 ce d6 c4 bc ee 09 f0 bc c6 dc 04 bd 77 a2 99 bd
       -0.024028208 -0.02930161 -0.03243711 -0.07501691
000070 2f 9a 2d bd 52 48 29 bd 6b 40 c0 bc 1e d9 4d bd
       -0.04238337 -0.041328736 -0.023468217 -0.050255887

encoder.conv3.weight f4 [32, 32, 16]
000000 20 58 b1 bd c3 28 c3 bd 80 5e 78 bd 88 2c 05 bd
       -0.08659387 -0.09529259 -0.060636997 -0.03251317
000010 e1 90 aa bd 64 60 c2 bd ed 2a a5 bd c9 94 a1 bd
       -0.08328415 -0.09491041 -0.08064828 -0.07889707
000020 7d f2 1d bd e1 5f 89 bd 88 66 94 bd e8 7e 72 bd
       -0.038561333 -0.067077406 -0.07246119 -0.05920306
000030 df b7 97 bd 49 f0 0d bd 06 88 5e bd f8 79 38 bd
       -0.074081175 -0.034652982 -0.05432894 -0.045038193
000040 86 86 89 bc 33 a5 9b bd 63 53 a8 bc 14 b0 7e bd
       -0.016787779 -0.075998686 -0.020547574 -0.06217964
000050 ac 50 67 bd 1b a1 a5 bb 7f d6 39 bd a9 3c 54 bd
       -0.05647342 -0.0050546057 -0.045370575 -0.051815663
000060 35 58 1d bd 81 22 8c bd b6 92 30 bd 19 13 dc bd
       -0.0384142 -0.068425186 -0.043108664 -0.1074583
000070 7e 4a a0 bd 67 60 29 bd 16 31 78 bd 8e f6 bf bd
       -0.07826708 -0.041351702 -0.060593687 -0.093731984
000080 f0 bd be bd ed 92 99 3d 47 a4 ba 3c 28 bc 18 3d
       -0.093135715 0.07498727 0.022783412 0.037288815
000090 89 e4 01 3d f1 14 81 3c e8 25 28 3d 2e 13 50 3c
       0.03171209 0.015757056 0.041051775 0.012699885
0000a0 68 1d 92 bd 8d 4c 64 bd 8e 36 4e bd 9b 99 9f bd
       -0.07134515 -0.055737067 -0.050344996 -0.0779297
0000b0 2a df c3 bc ad 80 cc bd f1 02 7c bd af 0e 63 bd
       -0.023910124 -0.099854805 -0.061526243 -0.055433925
0000c0 b2 8b d5 bd ae ef 84 bd 85 e5 2f bd d7 2d c9 bc
       -0.104270354 -0.06491028 -0.042943496 -0.024557991
0000d0 c2 e6 0a bd 7a 52 c9 bc 5c dc cf ba a8 4d 41 bd
       -0.033911474 -0.02457546 -0.0015858519 -0.0471932
0000e0 49 34 a4 bd 7b 5b da bd b2 98 17 bd 7b 2c c7 bd
       -0.08017785 -0.1066198 -0.037010856 -0.09725281
0000f0 d3 93 62 bd b4 50 5a bd 21 ca e9 bc 99 fe d6 bd
       -0.055316757 -0.05329962 -0.028538765 -0.104977794
000100 63 ba 8e bc 23 77 af bd af 6f 4c bd 48 1f db bd
       -0.01742286 -0.085676454 -0.049911197 -0.10699326
000110 3c 57 a4 bd 6a 2b 4c bd 21 97 d3 bd 04 d5 ba bd
       -0.08024451 -0.04984609 -0.1033156 -0.09122661
000120 22 fe 81 bd b5 a1 5d bd d0 43 ce bd f4 84 97 bd
       -0.063473 -0.054109294 -0.10071528 -0.07398406
000130 7a 2b 41 bd 98 22 f8 bd e9 f6 70 bd d8 11 aa bd
       -0.047160603 -0.12115973 -0.058829222 -0.08304185
000140 ab 4d bc bd 54 dd b3 bd f5 88 ab bd 5c d7 b0 bd
       -0.091945015 -0.08782449 -0.08375732 -0.086348265
000150 8f b8 af bd c4 43 41 bd 0d b0 91 bd de 7e 93 bd
       -0.08580124 -0.047183767 -0.07113657 -0.07201932
000160 75 33 11 bd 0c 98 9c bd 0c e0 b0 bd 3e 20 62 bd
       -0.035449464 -0.07646188 -0.086364836 -0.05520653
000170 26 ea b5 bd 41 1f d0 bd f2 aa a7 bd 82 1a e4 bc
       -0.08882551 -0.10162211 -0.08186902 -0.027844671
000180 2a c1 a7 3d fd 52 5a 3d 4c 15 a0 3d 1d e3 9e bc
       0.0819114 0.0533018 0.07816562 -0.019395405
000190 24 70 ea bc b0 a3 a6 bc ce 3b c1 bd 0f 42 3b bd
       -0.028617926 -0.020341724 -0.09435235 -0.045717295
0001a0 ed e3 b1 bd af 7b cc bd d1 b5 80 bd be ce d0 bd
       -0.086860515 -0.09984528 -0.06284679 -0.10195683
0001b0 bd 31 ba 3d dd 46 48 bd b6 c8 6b bd b1 51 ae 3d
       0.09091518 -0.048895705 -0.05756446 0.08511675
0001c0 85 aa d1 bd a0 d8 7c bd ae 75 a4 bd a3 99 3e bd
       -0.10237602 -0.061730027 -0.08030258 -0.04653324
0001d0 f9 7c 18 bd 5a ab b5 bd f3 5c 7a bc a5 a4 56 bc
       -0.03722856 -0.08870573 -0.01528095 -0.013100778
0001e0 07 f6 65 bd 61 9c 7e bd 96 eb 81 bd 6a 69 b4 bc
       -0.056142833 -0.062160853 -0.063437626 -0.022022922
0001f0 09 bd 1c bc 84 a9 39 bd ad ed 34 bd ca 72 da bc
       -0.009566554 -0.04532768 -0.044171978 -0.026666064
000200 2a b9 a5 bd 50 fb f7 bd 9a 97 c3 bd ac b0 c6 bd
       -0.08091958 -0.12108481 -0.095504 -0.09701666
000210 ff 37 5f bd 94 4c a8 bd 46 fd 35 3d b6 f3 6f 3c
       -0.05449676 -0.08217731 0.044430993 0.014645508
000220 b5 81 ea 3c 11 1f c6 bd 4c 81 f3 bd 0f 2c 02 be
       0.028626302 -0.09673894 -0.11889896 -0.1271212
000230 81 9a 4f bd 9b 28 a0 bd 1a ef 32 bd ac ea 31 bc
       -0.050684456 -0.07820245 -0.043685056 -0.010859173
000240 4f 20 1e 3d d3 26 b3 3d 94 ff f9 3c e4 bb 5a bd
       0.03860503 0.087476395 0.030517377 -0.053401843
000250 a2 27 a8 bd f9 57 99 bd ec 5d b4 3d d1 8a b2 bd
       -0.08210684 -0.074874826 0.08806977 -0.087178834
000260 6e b5 b4 3c 32 7f 5d bd a8 77 b4 bd 1f f6 73 3d
       0.022059169 -0.05407638 -0.08811885 0.05956089
000270 64 22 6a 3d d7 8e c7 3d e9 16 a4 bd 5c 3d ad bc
       0.057161704 0.097440414 -0.08012182 -0.021147422
000280 2f a2 21 3d e9 a8 c1 3d 21 d4 4b bd f1 f1 bb bc
       0.03946131 0.09456045 -0.04976285 -0.022942515
000290 3b 05 88 bd b5 f6 b4 bc 43 66 88 bd 1b 75 c7 bc
       -0.06641623 -0.022090295 -0.0666013 -0.024347832
0002a0 df 3a c2 bc 5f 21 94 bd 23 30 87 bd ab 89 35 bd
       -0.023709713 -0.072329275 -0.06600978 -0.044320744
0002b0 d9 be 7e bd 49 ba d4 bd 81 e9 d4 bd d8 89 be bd
       -0.062193725 -0.103870936 -0.103961 -0.09303635
0002c0 1e 06 3e bd 5b 50 9e bd 04 72 76 bc 3b c6 e0 bc
       -0.046392553 -0.0773017 -0.015041832 -0.027438274
0002d0 c8 28 80 bd c9 46 47 bd 5a c3 d8 bd e9 42 e6 bc
       -0.062577784 -0.04865149 -0.10584135 -0.028108077
0002e0 5e d7 25 bd a2 c9 29 bc ad ef 0e bd ef 4d 30 bc
       -0.040488593 -0.010363014 -0.03489654 -0.010760768
0002f0 be e1 0f bd 19 6c 88 bd f6 48 d7 bd cf fc 8d bd
       -0.035127394 -0.06661243 -0.10511963 -0.06932985
000300 61 03 e8 bc 95 66 b0 bd a1 11 97 bd 1b 4c 63 bd
       -0.028321924 -0.08613316 -0.07376409 -0.0554925
000310 4a 74 03 bd 9c 31 81 bc 93 d5 85 bb c2 09 67 bd
       -0.032093324 -0.015770726 -0.004084298 -0.05640579
000320 b6 f2 c2 bd 60 30 d6 bd e0 5d a5 bd 49 18 e8 bd
       -0.0951895 -0.104584455 -0.08074546 -0.11332757
000330 1d 93 3f bd bd ed 48 bd 28 f2 91 bd 1b fc 24 bd
       -0.046771158 -0.04905485 -0.07126266 -0.04027949
000340 4b 32 91 bd 41 ef a5 bd 17 d5 90 bd 47 78 e5 bc
       -0.07089671 -0.08102275 -0.07071894 -0.028011454
000350 67 0c d4 bc de cf b5 bd b0 94 d4 bd 87 e1 8a bd
       -0.02588482 -0.08877538 -0.103799224 -0.06781297
000360 75 fc 8f bd 52 df b6 bd 52 06 16 bd 67 da a5 bd
       -0.07030574 -0.08929314 -0.03662712 -0.080982976
000370 81 2c dc bc 7c b3 e4 bd cb 7e e3 bd 15 10 cc bd
       -0.02687669 -0.111670464 -0.11108168 -0.09964005
000380 8c 92 9b bd 31 9f cf bd ce 9b 85 bd 7a bf 4d bd
       -0.07596311 -0.10137785 -0.06523858 -0.050231434
000390 ed ac a0 bd 65 c8 8f bd 60 ca 2e bd 35 49 9c bd
       -0.07845483 -0.07020644 -0.04267347 -0.07631151
0003a0 94 25 83 bd 31 e6 a7 bd b5 9d a6 bc 1d a2 b6 bd
       -0.06403652 -0.081982024 -0.020338872 -0.089176394
0003b0 07 75 df bc 48 ad ce bd a6 e3 91 bd 67 d0 79 bd
       -0.027277483 -0.100916445 -0.071234986 -0.060989764
0003c0 78 f8 40 bd eb 28 c9 bd 93 4a cc bd bb 5a 6d bd
       -0.04711196 -0.098222576 -0.099751614 -0.057947855
0003d0 a1 52 91 3c cd 30 6c 3d 39 50 82 3d ae ce 25 3d
       0.017739596 0.057663728 0.063629575 0.04048031
0003e0 57 d5 9c 3d de 88 82 3d e6 b3 aa bd a7 06 40 3d
       0.07657879 0.063737616 -0.08335094 0.046881344
0003f0 62 fe 4e bd c0 78 32 bd 52 b0 b9 bd 22 c6 3c bd
       -0.050535567 -0.043572187 -0.090668336 -0.04608739

encoder.conv3.bias f4 [32]
000000 44 5c 6d bd 78 e0 b8 bd 29 f5 94 bd 45 eb c0 bd
       -0.05794932 -0.09027189 -0.07273323 -0.09419874
000010 df c1 79 3e 05 15 db bd e4 10 88 bd db 98 db bd
       0.24390362 -0.106973685 -0.06643847 -0.10722514
000020 f1 cc e6 bc 27 a5 b4 bd 07 9c fa bd a7 32 65 bd
       -0.028173896 -0.08820563 -0.12236791 -0.05595651
000030 f7 df d1 bc d3 ff 86 bd 5c 10 bf bd b5 c2 41 bd
       -0.02561949 -0.06591763 -0.09329292 -0.047304828
000040 42 5c 9c bd 4f 61 f8 3d 43 f4 a7 bd b2 57 d4 bd
       -0.07634784 0.12127935 -0.08200886 -0.10368289
000050 e5 63 f2 bd d0 59 5f bd 6e 57 b2 bd 2a a3 79 3e
       -0.118354596 -0.05452901 -0.08708082 0.24378648
000060 23 25 5e bd c0 37 3d bc e5 d6 ad bd 2b 05 a3 bd
       -0.054234635 -0.011548936 -0.084882535 -0.0795997
000070 4f 84 9e bd ee 27 7d bd ee f2 25 bd 27 05 70 bd
       -0.077400796 -0.061805658 -0.04051488 -0.058598664

encoder.dense1.weight f4 [64, 2400]
000000 22 97 4f bd 18 98 85 bd 32 48 99 bd 2f 9d 21 bd
       -0.05068124 -0.0652315 -0.07484473 -0.039456543
000010 8c d2 80 bd 93 1a 80 bd 6b 0b 1f 3d 41 98 3d bd
       -0.06290159 -0.06255069 0.03882925 -0.04628778
000020 06 98 9f bd 3e e3 51 bd 48 27 72 bd 32 7b 8e bd
       -0.07792668 -0.051242106 -0.059119493 -0.069570914
000030 4b 85 96 bd 85 e4 22 bd a5 67 12 3b b6 2a 62 bd
       -0.07349642 -0.039768714 0.002233961 -0.055216514
000040 e1 28 68 bd 90 16 3b bd 2b 3e 51 bd 50 23 8a bd
       -0.05667961 -0.045675814 -0.05108468 -0.067450166
000050 54 c5 83 bd ba ba 1c bd b5 7c 5b 3d 82 59 9b bd
       -0.06434122 -0.038264014 0.053585727 -0.07585432
000060 b8 bb 29 a9 ba eb 3e bd f5 fc 56 bd 80 e9 9d bd
       -3.7688358e-14 -0.046611525 -0.052487332 -0.07710552
000070 a0 dd 91 bd 1c 7b 62 bd a3 eb 92 bd d1 80 9d bd
       -0.0712235 -0.055293187 -0.071738504 -0.076905854
000080 df 57 86 bd b0 59 50 bd b9 8e 26 bd e0 aa 74 bd
       -0.06559729 -0.050866783 -0.040663455 -0.05973327
000090 28 4e 88 bd f2 23 90 bd a9 4d 48 bd d5 71 43 bd
       -0.06655532 -0.07038106 -0.048902187 -0.04771598
0000a0 29 b3 50 bd 6b 30 29 3d 65 bc 55 bd 95 45 35 bd
       -0.05095211 0.04130594 -0.05218162 -0.04425581
0000b0 d9 70 10 bd 66 c7 c8 bc 48 7f 38 bd c6 0c 8f 3d
       -0.03526387 -0.024509143 -0.04504326 0.06984858
0000c0 bc 1d 4b b4 f1 9b 80 bd f9 af 9a bd d7 db 3f bd
       -1.8916666e-07 -0.062797435 -0.07553095 -0.046840515
0000d0 6d 98 a0 bd f8 9f 97 bd 9d 6f 5b bd a3 11 7b bc
       -0.07841573 -0.074035585 -0.05357324 -0.015324029
0000e0 8f a4 5e bd f6 fd 43 bd f3 e5 99 3d 69 9e 07 bd
       -0.054356154 -0.047849618 0.075145625 -0.033110056
0000f0 32 a2 01 3d 25 4d 8d 3d 65 4d 65 3d b2 1b 85 bd
       0.031648822 0.0689948 0.055982012 -0.06499423
000100 92 d2 63 bd c4 1b 99 bd 9b 5c 82 bd a8 41 82 3d
       -0.055620737 -0.07475999 -0.06365319 0.06360179
000110 1d db 82 bd cb 40 88 bd 3a d9 6d bd 3f 3d 84 bd
       -0.06389449 -0.06652983 -0.05806849 -0.06456994
000120 a7 fd 04 bd 18 a0 6b bd 44 d0 0c bd 1a 39 a0 bd
       -0.032468464 -0.057525724 -0.034378305 -0.07823391
000130 19 5c a0 bd 16 ba 59 bd 91 f7 59 bd 7c a6 58 bd
       -0.07830066 -0.05315598 -0.053214613 -0.052893147
000140 2b 38 81 bd 9d 2c 36 bd c4 2b 87 bd d8 e3 4d bd
       -0.06309541 -0.04447614 -0.066001445 -0.050266117
000150 8d 9c 57 bd 1b 75 80 bd 94 e3 93 3d ad 31 7b bd
       -0.052639533 -0.06272336 0.072211415 -0.06132667
000160 92 46 4e bd 7a 87 32 bd 85 f8 8f bd 98 b9 9d bd
       -0.05036027 -0.04358623 -0.07029823 -0.07701415
000170 d5 70 9c bd 35 1d 87 bd 2e cb 39 bd e3 6d 90 bd
       -0.076387085 -0.06597368 -0.045359783 -0.07052209
000180 23 a5 31 bd 11 3a 3b bd 9a 62 86 bd 76 10 2e bd
       -0.043370377 -0.045709673 -0.065617755 -0.042496167
000190 bb a3 8b bd f9 0c 89 bd cf fe 69 bd ee 69 79 bd
       -0.068183385 -0.066919275 -0.05712777 -0.060892038
0001a0 e6 85 9a bd 76 9d 82 bd 7b 90 35 bd 5a 78 98 bd
       -0.0754507 -0.063776895 -0.04432724 -0.0744483
0001b0 82 59 70 bd 97 2a 93 bd 81 25 84 bd 56 98 6c bd
       -0.05867911 -0.07185858 -0.06452466 -0.057762466
0001c0 5a 8b 51 bd da 78 77 bd d4 11 76 bd af 54 79 bd
       -0.051158287 -0.060417987 -0.060075596 -0.060871776
0001d0 61 84 2e bd d8 f5 38 bd 53 7b 87 bd c1 58 5c 3d
       -0.042606715 -0.04515633 -0.06615319 0.05379558
0001e0 43 aa 35 bd 73 ec 89 3d be 00 38 bd 7a 45 63 bd
       -0.044351827 0.06734552 -0.044922583 -0.05548618
0001f0 eb 5d 86 3d 53 32 78 bd ae c1 50 bd bd 6a 24 bd
       0.06560882 -0.060594868 -0.050965957 -0.040140856
000200 f2 62 8a bd ed 9c 9b bd 49 2a 73 bd 24 ec 84 bd
       -0.067571536 -0.075982906 -0.0593665 -0.06490353
000210 93 38 96 bd be d7 33 bd 12 b9 86 bd 26 be 85 3d
       -0.073350094 -0.04390692 -0.06578268 0.065304086
000220 e1 ac 90 bd c8 df 81 bd 59 34 91 bd b1 3b 73 bd
       -0.07064224 -0.06341511 -0.07090063 -0.059383098
000230 73 24 5d bd ae 49 50 3d f0 d2 62 bd 0e 7e 83 bd
       -0.05398984 0.050851516 -0.055376947 -0.064205274
000240 1f fb 9e 3d be 30 32 3d 97 03 98 bd c0 23 2c bd
       0.07762741 0.043503515 -0.0742256 -0.04202628
000250 f7 5a db 3c 26 33 8f bd 5b 17 2f bd fe 96 8f bd
       0.026776774 -0.06992178 -0.042746883 -0.07011221
000260 59 8b 8d bd b3 76 93 bd 12 78 74 bd 46 62 67 bd
       -0.06911344 -0.072003745 -0.05968482 -0.056490205
000270 86 cc 8f bd 48 51 27 bd 5d 8b 78 bd 1f f1 27 bd
       -0.070214316 -0.040849 -0.060679782 -0.041001435
000280 fc be 8d bd 3f 7a cf bc 53 66 96 3c 50 90 78 bd
       -0.06921193 -0.025326846 0.018359339 -0.060684502
000290 96 29 48 bd 92 0a 67 bd ff e8 56 bd c9 74 eb 29
       -0.048867784 -0.056406565 -0.052468296 1.04563554e-13
0002a0 8d 99 12 3d e6 09 9e bd ac fd 36 bd 57 a1 68 bd
       0.03579097 -0.07716732 -0.044675514 -0.05679449
0002b0 0c 89 7c bd ba a0 82 bd 56 24 1d 3d 83 7e 0d 3d
       -0.061654136 -0.063783124 0.03836473 0.03454448
0002c0 b7 4d 77 bd d4 af 99 bd cd 83 9a bd 1f 27 53 bd
       -0.06037685 -0.0750424 -0.0754467 -0.05155098
0002d0 75 11 57 bd 72 57 82 3d 6e 8a 49 bd a8 51 75 bd
       -0.052506883 0.06364335 -0.049204282 -0.059892327
0002e0 b2 01 88 bd ab aa 71 bd 57 8b 78 bd 13 ae 21 bd
       -0.06640948 -0.059000652 -0.06067976 -0.03947265
0002f0 89 ed 86 bd b6 19 20 3c 39 97 85 bd b7 6f e1 bc
       -0.06588275 0.009771755 -0.06522984 -0.02751909
000300 3e 46 6b 3d b5 ba 33 3d 31 5a 69 3d bc 59 bc bc
       0.057440035 0.04387923 0.05697078 -0.022992007
000310 45 fe 8f 3d 86 56 44 b3 4b 84 86 bd 92 f0 5f bd
       0.0703092 -4.57135e-08 -0.06568202 -0.054672785
000320 4f da 3a bd 79 13 62 bd a4 1d 26 bd 72 a3 82 bd
       -0.04561835 -0.05519435 -0.04055561 -0.06378831
000330 53 bd 61 bd 94 c7 9e 3c 6f 7e 37 3d c2 60 8c bd
       -0.055112194 0.019382276 0.04479831 -0.068543926
000340 dd 43 5e bd 44 55 21 3d a5 7d 92 3d a2 db 67 3d
       -0.05426394 0.039387956 0.07152871 0.056605943
000350 43 b8 57 bd 84 d4 2e 3d c7 bb 27 bd b2 25 31 2a
       -0.05266596 0.04268314 -0.040950563 1.5733836e-13
000360 75 1d 9f 3d 98 85 88 3d df 3d f6 bc 9f 0a 17 bd
       0.0776929 0.06666106 -0.0300588 -0.036875363
000370 03 2b 6c bb 95 1f 83 3d 0f 07 47 3d 0c 5d 0e bd
       -0.003603638 0.06402508 0.048590716 -0.034756705
000380 61 fb 94 bd be 4d 96 bd 3c 30 73 bd 4e 9d 29 bd
       -0.07274509 -0.07339047 -0.05937217 -0.041409783
000390 a9 9a 37 bd cf df 85 bd b3 c9 43 bd 23 bc 7d bd
       -0.04482523 -0.06536829 -0.047799777 -0.061947
0003a0 67 87 97 bd 0c 17 88 bd 93 79 24 bd 8c c2 56 bd
       -0.07398873 -0.06645021 -0.040155005 -0.052431628
0003b0 0c 67 2c bd fa bc 66 bd ba cf 96 bd 75 6d 69 bd
       -0.04209046 -0.056332566 -0.073638394 -0.056989152
0003c0 72 84 2d bd a0 9d 2d bd 96 81 a0 bd e9 3c 5f bd
       -0.042362638 -0.04238665 -0.078372166 -0.054501448
0003d0 a8 4e 85 bd 8c db 70 bd 55 56 88 bd e1 89 2c bd
       -0.06509143 -0.058803126 -0.066570915 -0.04212368
0003e0 b8 54 70 bd d3 74 5a bd 42 9b 8e bd bc 3c 43 bd
       -0.058674544 -0.05333407 -0.06963207 -0.047665343
0003f0 90 87 32 bd a7 31 58 bd a3 e6 4e bd 8f a1 4d bd
       -0.043586314 -0.052781727 -0.05051292 -0.050202902

encoder.dense1.bias f4 [64]
000000 2e e0 df 3d 38 a2 3c bd d5 a6 32 bd 3e ac 85 bd
       0.10931431 -0.04605314 -0.043616135 -0.06526993
000010 a2 87 e4 3d 10 25 90 3e f4 7c 4e bd e1 79 42 3e
       0.111586824 0.28153276 -0.050412133 0.18991806
000020 c4 3a df 3d 8b c9 1c 3e 1f e7 9b bd 92 2f f2 bd
       0.108998805 0.15311258 -0.07612442 -0.118254796
000030 f3 36 35 bd eb 43 8b bd a3 46 c8 3d 6e 4f 65 3d
       -0.044241857 -0.06800064 0.09779098 0.055983953
000040 5a 42 8f bd 3a 14 72 bd 0e 2e 23 3e d9 91 50 bd
       -0.069950774 -0.05910132 0.15935537 -0.05092034
000050 b0 a6 80 3e 6f 59 8c bd 01 9e 1a bd 01 f0 4d 3e
       0.25127172 -0.068529956 -0.03774834 0.20111085
000060 a2 80 0d be 2b a0 6d bd 31 19 f9 bd 79 cd a1 3e
       -0.13818601 -0.058014076 -0.12163008 0.31602076
000070 7c e5 98 bd 07 b6 9f 3e 70 9d fe 3c 14 ea 4c 3e
       -0.07465646 0.31193563 0.031080931 0.20011169
000080 56 5e f1 bd 63 08 6d bd db 43 9b bd 53 d0 00 3e
       -0.11785571 -0.057869326 -0.07581302 0.1257947
000090 23 1c 21 bd b6 9d 45 3e 7e 12 3f 3d 82 84 7e bd
       -0.039333474 0.19298443 0.046648495 -0.062138088
0000a0 1f a2 49 bb e1 6b 8b bd 6a 73 28 3e 66 d5 5a 3c
       -0.0030766798 -0.06807686 0.16450277 0.013356542
0000b0 cf ba 4d 3e 8f 2f 13 3e 19 b2 78 3e 42 38 30 bd
       0.20090793 0.14373611 0.24286689 -0.0430224
0000c0 30 1b 00 3f 92 e1 80 3e 5c 5b 36 3e b9 5d 8b bd
       0.50041485 0.25172096 0.17808288 -0.068049856
0000d0 d3 b6 84 bd 58 7b 5b bd c6 18 ef 3e f0 07 82 bd
       -0.064801835 -0.053584427 0.46698588 -0.0634917
0000e0 98 11 13 3e 1b 0a 5c bd 61 c3 7c 3e 9d 8a 2e bd
       0.1436218 -0.053720575 0.24683906 -0.04261266
0000f0 ce fc 05 3d a9 63 36 3e 36 e1 18 3e d6 83 37 3e
       0.032711796 0.17811455 0.14929661 0.17921385

encoder.encoder1.0.weight f4 [32, 1, 16]
000000 67 ac d8 bd 8a bb 00 be 08 ec 7f be 7d ee 89 bb
       -0.10579758 -0.1257154 -0.24992383 -0.004209338
000010 90 6c 1b be 44 91 d6 3d 3a fc 36 be 01 68 2a be
       -0.15178132 0.10476926 -0.17869654 -0.16641237
000020 65 ca bf bd 2a 81 b7 3d 2f a6 7e bd fb 93 28 be
       -0.093647756 0.08960183 -0.062170204 -0.164627
000030 86 74 a4 be d0 c6 d9 bb 50 b3 16 3e 85 13 02 be
       -0.3212015 -0.0066460148 0.1471684 -0.12702759
000040 cc 89 6a be 26 39 33 bd 4c 07 73 bd 83 3e 34 be
       -0.22904128 -0.043755673 -0.05933313 -0.17601971
000050 3b 66 28 be 4e e4 9a be 22 c4 78 bd 26 24 fd 3c
       -0.16445248 -0.30252308 -0.06073392 0.030901026
000060 f1 5f 3a 3e 4b a8 7d bd 0c 4c 24 3e fe 03 89 be
       0.18200661 -0.061928075 0.16044635 -0.26760858
000070 af 24 a1 3d 00 33 e6 bd af a9 40 be 5d ff 9d be
       0.07868325 -0.11240196 -0.18814729 -0.3085889
000080 c3 3b ff bd d7 d3 ee 3d a7 31 96 bd 8f d1 c2 3d
       -0.124625705 0.11661499 -0.07333689 0.095126264
000090 75 e3 7d be 77 dc 05 3e 39 d9 3b 3d 5e 55 9b be
       -0.24793799 0.13072382 0.045861457 -0.30338567
0000a0 cd 00 4a bd 6f f7 de 3d 0a 19 f9 bd ef 6b 10 3e
       -0.04931717 0.10887038 -0.12162979 0.14103673
0000b0 55 6e 88 be c5 5e 4b be 5e 3c 05 3d 0a af 14 be
       -0.26646677 -0.1986037 0.032528274 -0.14519897
0000c0 58 bd c0 bd 48 da 4d be 03 ab 03 be 22 b1 45 be
       -0.094111145 -0.20102799 -0.12858205 -0.19305852
0000d0 1a 40 4a bc fe a3 e6 3d 6d ef 81 be f3 ed 7f bc
       -0.012344385 0.11261748 -0.2537798 -0.015620696
0000e0 9d 9b 2e 3e 31 17 4a 3e 49 94 3a be db 94 41 3e
       0.1705155 0.1973541 -0.18220629 0.1890444
0000f0 04 11 62 be c8 33 25 be 98 75 07 3e 77 d3 0f bd
       -0.22076803 -0.16133034 0.13228452 -0.035113778
000100 cd 29 c9 bd 59 e6 cb bd 19 c5 8d be 4d 6b 30 be
       -0.09822426 -0.09956045 -0.27689436 -0.17228432
000110 5a d1 89 be 36 04 86 be 09 cc 80 be 3e 0c 9a bd
       -0.26917535 -0.26175088 -0.25155666 -0.07521866
000120 83 1d 02 3d 6d e0 ac bd 26 89 a2 be 81 1f a8 be
       0.031766426 -0.08441243 -0.3174526 -0.32836536
000130 e7 4a 02 3e f0 0c 62 3d 56 f7 b0 3d 12 ca a9 bd
       0.12723885 0.05518812 0.086409256 -0.08290495
000140 72 ae 95 3d de a4 a4 bd 98 ea bb bd a8 99 8b bd
       0.073086634 -0.080392584 -0.091756046 -0.06816417
000150 0c 4b 03 3e 2d b8 bc bd 0c 4a b3 bd 0b 10 a2 bd
       0.12821597 -0.09214816 -0.08754358 -0.07913216
000160 f9 af 20 bd 0d 2a 84 be c3 58 71 bc 8f a3 36 be
       -0.03923032 -0.25813332 -0.014730635 -0.1783583
000170 8e d4 92 be f6 e4 f3 3d 13 f0 79 bd 29 99 89 3d
       -0.2867779 0.11908905 -0.06101997 0.06718666
000180 5a bf 8d be ff 69 7c 3d c4 1a 84 3d 24 ec 91 bd
       -0.27685052 0.061624523 0.06450418 -0.071251184
000190 40 d9 59 be ab ef 85 be 0e b2 18 3e ba 45 40 3d
       -0.2127428 -0.26159415 0.14911672 0.046941496
0001a0 e8 fc eb bd 64 82 de bc a7 5d c9 3b 2f 26 9a be
       -0.115228474 -0.027161784 0.0061451974 -0.30107257
0001b0 9a 0a ce bd 13 02 2a 3e 97 91 21 3e 60 61 a1 be
       -0.10060616 0.16602354 0.15778194 -0.31519604
0001c0 c1 fc ea be c6 da 2b bc fd fb 12 3e 11 9d 2d 3c
       -0.4589596 -0.010489171 0.14353938 0.01059653
0001d0 e4 7c 10 bf 59 d7 82 bd e4 f0 ff bc 80 dd 98 be
       -0.5644057 -0.063887306 -0.031242795 -0.2985649
0001e0 dd 34 d8 3d 76 1d db be b5 82 8f 3e 31 6d 33 3c
       0.10556958 -0.42795914 0.2802941 0.010951326
0001f0 3c 30 4c be 71 a8 ca 3d c3 c0 49 be 71 a9 a5 bd
       -0.19940275 0.09895409 -0.19702439 -0.08088959
000200 93 81 28 3d a6 30 bd 3c f8 2b 8f be b0 8a 42 be
       0.041139197 0.023094486 -0.27963233 -0.18998218
000210 4c 74 a6 bd 4d e2 a5 3d 97 c2 77 bc b0 fe 04 3e
       -0.081276506 0.08099804 -0.015122077 0.1298778
000220 a4 d5 e8 3d d9 1b 83 be 83 18 e4 3d 14 aa 5e 3d
       0.11368874 -0.25607184 0.11137488 0.054361418
000230 a7 5a 45 3e 59 8f a4 bd 2e 78 10 3c 66 58 09 be
       0.19272862 -0.08035154 0.008817716 -0.13412628
000240 dc 9f 71 be c6 be 69 be d7 b6 98 be 87 e1 44 be
       -0.23596138 -0.2282668 -0.29826996 -0.19226657
000250 be b9 30 3e be 86 74 3d 1a ba 04 be ba f5 99 3d
       0.17258355 0.059698813 -0.12961617 0.07517572
000260 bc de cc 3d 8a 41 52 3d 79 03 f4 bb 95 a2 8c bd
       0.10003421 0.051332034 -0.007446703 -0.068669476
000270 64 33 69 3b 4b 57 14 be 09 6a 5f bd 69 9b b3 bd
       0.003558361 -0.14486425 -0.054544482 -0.087698765
000280 76 ec ae 3d d7 63 4c be 55 55 23 bd 95 6e 04 be
       0.08541195 -0.19959961 -0.0398763 -0.12932809
000290 f1 07 80 bd 0e 5a 6d 3d 96 d8 06 be 9e 4a 73 be
       -0.06251515 0.05794721 -0.13168558 -0.23758933
0002a0 7d 78 3d be 26 11 a8 be 36 1d d4 be 20 6d 37 bc
       -0.18502994 -0.32825583 -0.41428536 -0.011195451
0002b0 5b 99 8b be b3 20 50 bc 3e 5a 15 bb 8b b7 30 3e
       -0.27265438 -0.012703109 -0.0022789384 0.17257516
0002c0 77 f0 8b bc 23 18 71 3d 78 a6 12 bb bf e8 de bb
       -0.017082436 0.05886091 -0.0022377055 -0.006802648
0002d0 8b 5b 17 3e 87 22 68 be a5 8c 42 be 49 13 7f bd
       0.14781015 -0.22669421 -0.18998964 -0.06227425
0002e0 25 29 18 3e 7e 1b 22 3e e6 b1 91 bd 9d 6b 31 3d
       0.14859445 0.158308 -0.071140096 0.04331552
0002f0 65 1e a8 3d a4 03 8b be 0e 62 1e 3e ee a9 39 be
       0.08208922 -0.27151215 0.15467092 -0.1813123
000300 5d 2c f2 3c aa 05 a7 bc a7 f0 0f 3d ee f6 ae bd
       0.02956217 -0.020388443 0.035141613 -0.08543192
000310 52 db 7b be 04 40 30 be 69 74 3b bd 1b 51 0c bd
       -0.24595383 -0.1721192 -0.045765314 -0.034257036
000320 63 d7 a4 bd 58 b6 35 3e 72 9f cf 3d 5f eb 94 be
       -0.08048894 0.1774534 0.10137834 -0.29085824
000330 72 a5 bf bc 76 25 db bd 35 59 8a be e7 a9 f4 3d
       -0.02339432 -0.107005045 -0.27021185 0.11946469
000340 6b bb 84 be 2e 64 3e 3e ac 0b 36 bd b8 d3 e5 3d
       -0.2592424 0.18592903 -0.044444725 0.11222023
000350 c5 d0 fb bd d5 eb c8 bc 2d d3 11 be a2 fa 07 be
       -0.12295679 -0.024526516 -0.14240713 -0.13279203
000360 95 8e 02 3e 48 6d 0e 3e 6e cb c0 bd 8c fb cc bc
       0.12749703 0.13908875 -0.09413801 -0.02502229
000370 55 9e 42 3d 67 eb 9a bd 39 41 f4 bd 31 9c e3 bd
       0.04751428 -0.07564431 -0.11926503 -0.111137755
000380 0e de f2 be ae fd 20 be 22 a4 80 3c bb 14 4d 3e
       -0.4743504 -0.15721771 0.015703265 0.2002744
000390 75 55 34 be 7e bf 16 3e f5 7a 43 3e fe 02 53 3d
       -0.17610724 0.14721486 0.19089873 0.051516525
0003a0 d8 14 92 3a 56 4c 39 be ae 60 c9 bb c2 8b a1 be
       0.0011145128 -0.18095526 -0.0061455583 -0.3155194
0003b0 97 f9 11 3c a2 03 9c be c2 47 b3 3d 09 4e 82 bd
       0.0089096045 -0.30471522 0.08753921 -0.0636254
0003c0 6d bc 86 be b8 fe b2 be 69 2e cc 3d 78 47 99 be
       -0.26315632 -0.3495996 0.099697895 -0.2993734
0003d0 55 0d 53 be a0 ea ff bb 17 46 4a 3d 32 ac 0e 3e
       -0.20610555 -0.007809952 0.04938325 0.13932875
0003e0 56 2f a4 be 72 9c 5b be 31 fb cc bc 35 45 3d be
       -0.32067364 -0.21446398 -0.025022121 -0.18483432
0003f0 cd 67 c1 3c 89 7d 33 be 3f 8d 9b 3d 4d 0a 86 be
       0.023609066 -0.17528357 0.075953 -0.26179734

encoder.encoder1.0.bias f4 [32]
000000 2f b0 b5 be 1b 6c 52 be d6 b2 9b 3d 97 49 f9 be
       -0.3548598 -0.20549051 0.076024696 -0.48688957
000010 6f 8b eb 3e fb f9 44 be b2 88 f9 3d 85 6b 86 be
       0.46004817 -0.19235985 0.12184276 -0.26253906
000020 1d 62 b8 be cf 88 f8 be f2 a9 ca be 5d 87 a0 be
       -0.36012354 -0.48541877 -0.39582783 -0.31353274
000030 f2 e8 43 be e6 a6 76 be e3 d8 01 3e 08 72 23 bf
       -0.1913183 -0.24087104 0.12680392 -0.6384587
000040 f1 7b 31 3f b3 b4 b8 be a7 cb 5c be d1 fd 37 bf
       0.69329745 -0.36075363 -0.21562062 -0.7187167
000050 c1 45 0c 3e 87 fb 70 3e 06 16 32 3c 0c e3 d9 be
       0.13698484 0.2353345 0.010869509 -0.42556036
000060 d9 4f fc bd 7a c1 f1 bc 0f 6b 88 be c1 cc b8 3d
       -0.12319917 -0.029511202 -0.2664418 0.09023429
000070 24 13 99 3d 2d eb 8a be 44 77 a9 3c 0c eb 2d 3f
       0.07474354 -0.2713255 0.020686753 0.6793678

encoder.encoder1.2.weight f4 [32, 32, 16]
000000 21 04 75 bd e8 03 a1 bc bc 4b 5d bd 56 70 93 bd
       -0.05981839 -0.019655183 -0.054027304 -0.07199161
000010 63 3c 97 bd 25 b8 af bd 37 83 f5 ba c7 bc 37 bb
       -0.07384565 -0.08580045 -0.0018731122 -0.0028036104
000020 f6 8c 41 bb 76 dc 1e bd 45 78 87 bd e1 5d 5b bd
       -0.0029533482 -0.038784467 -0.066147365 -0.053556327
000030 09 f0 1c bd 48 cf 79 bb d9 4c f1 bc 78 4b e9 bc
       -0.038314853 -0.0038117934 -0.02945559 -0.02847837
000040 f4 b0 2f bd 9d d5 b3 bd 58 26 f6 bc cb af d8 bd
       -0.042893365 -0.08780978 -0.03004758 -0.10580405
000050 db 92 d5 bd f7 f9 ac bc a2 7f 2a bc 44 82 95 bb
       -0.10428401 -0.021115286 -0.010406407 -0.004562648
000060 3b 58 a0 bd 4d 03 92 bd 2a 3b 7d bc 45 f1 a6 bd
       -0.078293286 -0.07129536 -0.015456 -0.08151487
000070 3b b8 38 bc 65 d6 87 bd 3b 15 85 bd fd 10 95 bc
       -0.011274393 -0.066326894 -0.0649819 -0.018196577
000080 d1 48 82 bd 9b 2b a3 bd b6 02 01 bd f0 b9 b1 bd
       -0.06361545 -0.079673015 -0.031496726 -0.08678043
000090 be 3f 3e bd fb 57 86 bd 3f ac 0c bd bc 9d 6f bd
       -0.046447508 -0.0655975 -0.034343954 -0.058500037
0000a0 ba 24 49 bd c5 eb 4c bc e3 be 7a bd 73 4c 14 bd
       -0.04910729 -0.012507384 -0.0612172 -0.03620572
0000b0 a8 0d d7 bc 4e 38 8f bd b7 d5 b0 bd 07 97 8d bd
       -0.026251629 -0.06993161 -0.08634513 -0.06913572
0000c0 3e 56 3b bd 88 1b 77 bd 98 9c 50 bd f1 f4 b8 bd
       -0.045736544 -0.06032899 -0.05093059 -0.09031094
0000d0 94 28 0e bd ff 17 1a bd 09 01 f1 bc e5 1e 00 bb
       -0.034706667 -0.03762054 -0.029419439 -0.0019549665
0000e0 e7 b2 ac bd c5 3a d0 bd 36 a2 31 bd 64 bd a3 bd
       -0.084325604 -0.101674594 -0.043367587 -0.07995108
0000f0 99 f5 3d ba 56 ba 1e bd 67 77 12 bd 02 53 a2 bd
       -0.0007246375 -0.038751923 -0.035758402 -0.07925989
000100 e9 5d 14 bd 17 81 b0 bd b8 75 e9 bc ae f4 53 bd
       -0.036222372 -0.08618372 -0.028498515 -0.051747017
000110 13 c5 dc bd cf 6b dd bd 25 e9 95 bd 68 de a7 bc
       -0.107797764 -0.108115785 -0.073198594 -0.020491794
000120 f4 73 2a bd e7 09 6c bc 38 ff 70 bc e7 a6 e4 bd
       -0.041614488 -0.014406658 -0.014709286 -0.111646466
000130 8c c3 bc bd fc cb 80 bd e5 26 91 bd e8 a5 b5 bd
       -0.09216985 -0.06288907 -0.07087497 -0.08869535
000140 8c 75 a3 bd 7c 40 b2 bd d2 72 65 bd eb f0 95 bd
       -0.07981405 -0.08703706 -0.056017704 -0.07321342
000150 d2 6e 39 bd 42 da 8d bd 90 8c 9c bd 7f 1c 6e bc
       -0.045271702 -0.06926395 -0.07643998 -0.014533161
000160 03 df 07 bd fb 4c b8 bc 5a 1d bd bd 00 cd ba bc
       -0.033171665 -0.022497645 -0.09234114 -0.02280283
000170 e1 91 1e bd af 33 00 bd 02 61 33 bc a4 4a c9 bb
       -0.03871334 -0.03129929 -0.010948421 -0.006142931
000180 de 4b ab bb 11 d5 88 bd ff 38 71 bd e0 62 a8 bd
       -0.00522755 -0.06681264 -0.058892246 -0.08221984
000190 df d3 93 bd b2 32 35 bd c3 8b d2 bd 1f 0f a7 bd
       -0.072181456 -0.0442378 -0.10280564 -0.08157181
0001a0 c1 5b 34 bd ea 5f 97 bc 7d 3c 24 bd eb 39 9f bd
       -0.044032816 -0.018478353 -0.04009675 -0.07774719
0001b0 30 09 a4 bd 3a 94 d9 3a 2b da a6 bc 1a b1 9a bb
       -0.08009565 0.0016599961 -0.020367702 -0.004720819
0001c0 2d b4 b8 bd f4 bb ba bc 1a 11 3c bd 44 0d 96 bd
       -0.09018741 -0.022794701 -0.045914747 -0.07326749
0001d0 69 da cd bc 45 e4 c6 bc ab 70 a3 bd dc 90 8a bd
       -0.02512856 -0.02427877 -0.07980474 -0.06765911
0001e0 3b 21 8d bd ae fd 37 bd b4 fd 88 bd 83 1a 3e bd
       -0.06891104 -0.044919662 -0.06689015 -0.046412002
0001f0 c4 bc 6b bd 9f 4b ad bc 59 d9 5d bd 50 71 b8 bc
       -0.057553068 -0.021154223 -0.054162357 -0.02251497
000200 b1 70 da bc d5 fe 94 bb 3c 04 ad bc ec 62 95 bc
       -0.026665064 -0.00454698 -0.021120183 -0.018235646
000210 08 85 9c bd 0b e6 39 bd b1 51 a5 bd 7e 61 d4 bc
       -0.07642561 -0.0453854 -0.08072222 -0.025925394
000220 d0 23 21 bd e0 c6 97 bd 8e a7 17 bd e7 ea 00 bd
       -0.039340794 -0.07410979 -0.037025027 -0.03147402
000230 7a ed 07 bc 10 e2 76 bc c4 7a 1b bd ab e5 82 bd
       -0.008296365 -0.015068546 -0.037958875 -0.06391462
000240 70 90 9e bd 20 27 bb bd 4a 1e 87 bd aa d0 c7 bc
       -0.07742393 -0.09138322 -0.06597574 -0.024391491
000250 34 62 ae bd 05 a6 e4 bb b7 63 2b bc 1b 4d 86 bd
       -0.085148245 -0.006977799 -0.010460786 -0.065576755
000260 74 89 e8 bc 0f 3a 9a bd 20 ad 65 bb b2 c4 65 bd
       -0.028385855 -0.07530605 -0.0035045817 -0.056095786
000270 e1 bc 96 bd 58 c9 7b bd 54 d1 88 bd 34 95 a4 bd
       -0.073602445 -0.061471313 -0.06680551 -0.08036271
000280 69 3f 7b bd 3c 91 02 bd 5b fb 3b bd f1 2a 18 bd
       -0.06133977 -0.031876788 -0.045894008 -0.037150327
000290 b3 1b 96 bd 8f 21 fa bc 6e 07 b6 bd 4d 18 82 bd
       -0.07329502 -0.03053358 -0.08888136 -0.06352291
0002a0 54 7e 8a bd 3f 18 a9 bd 3c 5d 9e bd f8 6c a2 bd
       -0.067623764 -0.08256578 -0.07732627 -0.079309404
0002b0 10 38 2d bd 10 ac a2 bd 00 01 9c bd 6f 05 af bd
       -0.042289793 -0.079429746 -0.07617378 -0.08545958
0002c0 ff 4a 9e bd 85 a9 91 bc 41 fc 6e bd 12 8e 79 bd
       -0.07729148 -0.017781029 -0.058346037 -0.060926504
0002d0 0d f1 9e bc 08 a6 4e bd eb 9e 21 bd af 02 d9 bc
       -0.019402051 -0.05045131 -0.039458197 -0.026490537
0002e0 86 11 dc bc e9 f3 4e bd bc 39 29 bc 96 e2 ac bd
       -0.026863825 -0.05052558 -0.010328706 -0.08441655
0002f0 48 46 a5 bd f6 a9 bf bc dd bf 66 bd d0 b9 b0 bd
       -0.08070046 -0.023396473 -0.05633532 -0.08629191
000300 71 f8 83 bd a0 d2 40 bd b9 5f 98 bd 78 dd af bd
       -0.06443871 -0.047075868 -0.07440133 -0.08587164
000310 10 48 af bd 0b 0d a0 bc ce bd 67 bd 62 e3 4a bc
       -0.08558667 -0.01953747 -0.056577496 -0.012383314
000320 27 2b 94 bd f0 36 9f bd 2f e9 61 bd c4 aa cd bd
       -0.07234793 -0.0777415 -0.05515402 -0.100423366
000330 35 63 7d bc 6b ab fd bc 18 67 ff bb 13 a1 67 bc
       -0.015465547 -0.030965528 -0.007794272 -0.014137524
000340 2d 5c 61 bc 61 a9 01 bd 64 1a 07 bc 86 e2 97 bc
       -0.013754887 -0.031655673 -0.008246038 -0.018540632
000350 be c6 1f bd 4e bf 9a bd c3 de 74 bd 84 8d 52 bd
       -0.039007895 -0.0755602 -0.059782755 -0.05140449
000360 1e 0d e2 bd b5 63 f4 bb 5d 87 b5 bd 82 bc 8a bd
       -0.11037658 -0.007458175 -0.08863709 -0.06774236
000370 73 bf 79 bd e8 4a 61 bd cd 52 bc bc 84 1d a0 bd
       -0.060973596 -0.055003077 -0.022988701 -0.0781813
000380 0b 4c 2e bd 6e f5 2b bd 38 25 91 bd 52 53 9c bd
       -0.04255299 -0.041982107 -0.07087177 -0.076330796
000390 60 af b2 bd 07 73 ba bd df fb 88 bd b9 92 ad bd
       -0.087248564 -0.09103971 -0.066886656 -0.08475251
0003a0 50 b6 14 bd f1 53 5d bd a1 7f 95 bd 05 99 2c bd
       -0.03630668 -0.05403513 -0.07299734 -0.04213812
0003b0 a0 06 0e bd fa ce ab bd de a5 ab bc bf 79 a3 bd
       -0.034674287 -0.08389087 -0.020953115 -0.079822056
0003c0 ff c5 ae bb d9 c2 24 bd 01 7e 3e bd c9 b3 9a bd
       -0.0053336616 -0.040224884 -0.046506885 -0.075538225
0003d0 30 eb 11 bd 28 40 d8 bd 0f 23 53 bd 20 30 8b bd
       -0.035624683 -0.10559112 -0.051547106 -0.067962885
0003e0 5a de a0 bd 43 dd 83 bd 9f 31 b7 bc f1 29 b8 bb
       -0.0785491 -0.06438687 -0.022362528 -0.005620234
0003f0 9c c2 08 bd 80 99 66 bd b5 38 97 bc 5c c4 ae bc
       -0.03338872 -0.056298733 -0.018459657 -0.021333866

encoder.encoder1.2.bias f4 [32]
000000 d9 cf fe bb 15 6c 8d bd 5c d0 a7 bd 03 5c 2d bd
       -0.007776242 -0.06905381 -0.08194038 -0.042324077
000010 8e 81 7d bd cf 63 4c bd f5 79 b1 bd e3 3a a9 bd
       -0.06189113 -0.049899872 -0.086658396 -0.08263185
000020 ed dc bf bb 8b ce 37 bd 81 a9 97 bd 4b 9a 91 bd
       -0.005855194 -0.04487471 -0.07405377 -0.07109507
000030 8c 33 a9 bd b0 48 db 3e 90 05 d3 3b 56 de 3e bd
       -0.08261785 0.42828894 0.006439872 -0.046598755
000040 5c 48 13 bd 04 23 8e bd f0 cb 84 bd 9e 5c 9c 3d
       -0.03595768 -0.069402725 -0.064842105 0.07634853
000050 43 f4 31 bd ea cf 44 be 9f 68 2c bd 58 ad 85 bb
       -0.043445837 -0.19219938 -0.042091962 -0.004079502
000060 ce d6 c4 bc ee 09 f0 bc c6 dc 04 bd 77 a2 99 bd
       -0.024028208 -0.02930161 -0.03243711 -0.07501691
000070 2f 9a 2d bd 52 48 29 bd 6b 40 c0 bc 1e d9 4d bd
       -0.04238337 -0.041328736 -0.023468217 -0.050255887
