CAC/DC/networks/weights/DC/DC_3_myTestCACclassifierAnchorLoss.pth (torch, 754052 bytes, 19 tensors)

anchors f8 [4, 4]
000000 00 00 00 00 00 00 24 40 00 00 00 00 00 00 00 00
       10.0 0.0
000010 00 00 00 00 00 00 00 00 00 00 00 00 00 00 00 00
       0.0 0.0
000020 00 00 00 00 00 00 00 00 00 00 00 00 00 00 24 40
       0.0 10.0
000030 00 00 00 00 00 00 00 00 00 00 00 00 00 00 00 00
       0.0 0.0
000040 00 00 00 00 00 00 00 00 00 00 00 00 00 00 00 00
       0.0 0.0
000050 00 00 00 00 00 00 24 40 00 00 00 00 00 00 00 00
       10.0 0.0
000060 00 00 00 00 00 00 00 00 00 00 00 00 00 00 00 00
       0.0 0.0
000070 00 00 00 00 00 00 00 00 00 00 00 00 00 00 24 40
       0.0 10.0

encoder.conv1.weight f4 [32, 1, 16]
000000 6f 45 db bd 91 5b fd bd 40 0a 81 be 9a 8a 69 bb
       -0.10706603 -0.123709805 -0.25203133 -0.0035635591
000010 76 57 1d be 02 af d0 3d ff 75 36 be 7c 2d 2a be
       -0.15365395 0.1018963 -0.1781845 -0.16618913
000020 81 0f c0 bd ac 15 ba 3d 8f a8 7e bd 8c 4d 26 be
       -0.09377957 0.09086165 -0.06217247 -0.1624052
000030 5c 5b a4 be cf 3f 0c bc e9 29 13 3e db b6 02 be
       -0.32100952 -0.008560135 0.14371456 -0.12765066
000040 d6 18 69 be 6b f5 2f bd f3 0b 81 bd 31 fe 33 be
       -0.2276338 -0.04295866 -0.06301107 -0.17577435
000050 60 fe 27 be 36 a5 9a be e2 fa 75 bd b6 e0 fb 3c
       -0.1640563 -0.3020417 -0.060053714 0.030746799
000060 a4 cd 3b 3e bf db 7c bd 4f 1f 23 3e 64 75 88 be
       0.18340164 -0.061733004 0.15929912 -0.26652062
000070 d7 bd a4 3d 46 0c e8 bd 7b 6a 42 be d6 98 9d be
       0.080440216 -0.11330466 -0.18985932 -0.30780667
000080 a0 a2 e3 bd 77 c8 01 3e 14 63 8a bd 3d 10 d1 3d
       -0.11115003 0.12674128 -0.06757179 0.10208175
000090 b1 af 7f be 1e 33 04 3e 0c 6f 3b 3d 97 74 9b be
       -0.24969365 0.12910125 0.0457602 -0.30362388
0000a0 2d 1b 4c bd 53 d2 e2 3d 29 93 f6 bd 17 d1 15 3e
       -0.049830604 0.110752724 -0.12039787 0.14630543
0000b0 76 9b 88 be 67 19 49 be 3b 97 0c 3d 03 cd 14 be
       -0.26681107 -0.19638596 0.034323912 -0.14531331
0000c0 4a 4a ca bd 93 4b 4f be 98 a0 03 be fe 2c 45 be
       -0.09877451 -0.20243673 -0.1285423 -0.19255444
0000d0 c8 bc 17 bc 53 00 ea 3d bc 6f 82 be 32 2a 81 bc
       -0.009261318 0.11425843 -0.25475872 -0.01576719
0000e0 30 63 2f 3e 7e 48 49 3e 65 9a 3a be c4 1d 43 3e
       0.17127681 0.1965656 -0.1822296 0.19054323
0000f0 a8 71 62 be b3 8f 26 be 1f 85 05 3e fb cd 1e bd
       -0.22113669 -0.16265754 0.13039063 -0.038770657
000100 42 1f c2 bd 1b 53 bd bd 32 a4 8e be 10 24 37 be
       -0.09478618 -0.09244367 -0.27859646 -0.1788485
000110 62 57 8e be 55 77 84 be 66 d0 79 be d5 11 a4 bd
       -0.27801043 -0.25872293 -0.24395904 -0.08011214
000120 c2 0e f9 3c 3c 68 af bd fc f6 a1 be 74 eb a7 be
       0.030402545 -0.08564803 -0.31633747 -0.32796824
000130 9c 75 07 3e 7a 10 5f 3d 2b c9 a8 3d d6 de a7 bd
       0.13228458 0.054459073 0.08241495 -0.081967995
000140 95 8f ae 3d 13 0c a0 bd e2 f5 b4 bd 52 52 86 bd
       0.0852348 -0.07814803 -0.08835961 -0.0655867
000150 84 12 0b 3e 32 0d bc bd ef 32 b3 bd e9 c8 a1 bd
       0.13581282 -0.09182204 -0.08749949 -0.07899649
000160 ab b0 1d bd 93 40 83 be 78 eb 30 bc ba 43 34 be
       -0.03849856 -0.25635204 -0.010798328 -0.1760396
000170 b0 b9 91 be 44 a3 f2 3d c8 2d 8e bd 38 59 74 3d
       -0.2846198 0.11847547 -0.06942326 0.059655398
000180 74 9b 89 be 6b 54 87 3d ba 2c f0 3d 19 28 9a bd
       -0.26876414 0.06607898 0.11727281 -0.07527179
000190 21 57 61 be 0d 2b 85 be 22 9c 1b 3e e2 1a 42 3d
       -0.22005893 -0.26009408 0.15196279 0.04738892
0001a0 9f da e9 bd 30 45 de bc bf 25 16 3c b6 16 9a be
       -0.11418652 -0.0271326 0.009164273 -0.30095452
0001b0 8b f9 cd bd bf ec 2a 3e aa 3f 21 3e 88 85 a1 be
       -0.10057362 0.16691874 0.15746942 -0.3154719
0001c0 93 d2 c4 be 69 b8 0c 3d ae 35 43 3e 3d a4 14 3d
       -0.38441905 0.034355555 0.19063446 0.036289442
0001d0 cb 54 0f bf cc 5e e6 bd 4a 58 97 3c 62 b5 a5 be
       -0.5598876 -0.1124855 0.018474717 -0.32364947
0001e0 1b 8e 02 3e 7c 24 bc be 9a 97 b7 3e 34 54 ef 3c
       0.12749521 -0.36746585 0.3585785 0.029214956
0001f0 6a a1 dd bd c8 2d 18 3e ca f2 13 be 02 cb b9 3d
       -0.10821803 0.14861214 -0.14448085 0.09071924
000200 9d 90 1d 3d 2f d3 ce 3c 5b 70 8d be e2 ff 46 be
       0.038467992 0.025247185 -0.27624783 -0.19433549
000210 a0 9f ae bd 87 59 9f 3d 00 a7 66 bc db f0 05 3e
       -0.0852654 0.07780748 -0.014077902 0.1308016
000220 32 de e7 3d 4e d7 82 be 6d 3f e4 3d a0 bd 61 3d
       0.11321677 -0.2555489 0.1114491 0.05511248
000230 fd af 45 3e 0d d0 a3 bd c4 64 0d 3c 51 58 09 be
       0.19305415 -0.07998667 0.008629981 -0.13412596
000240 a7 df 6f be 2d 5e 67 be a0 9a 98 be d0 a2 3d be
       -0.2342516 -0.22594519 -0.2980547 -0.1851914
000250 66 1d 3c 3e 7b 17 7f 3d 19 95 04 be bc 92 99 3d
       0.1837059 0.062278252 -0.12947501 0.074986905
000260 ee 1b cd 3d af bf 4f 3d e2 b8 05 bc 9b 97 90 bd
       0.10015093 0.050719913 -0.008161755 -0.070601664
000270 c3 19 14 3b 00 e7 14 be 6b 57 5e bd bc 0e b7 bd
       0.0022598363 -0.14541245 -0.054282587 -0.08938357
000280 22 12 4b 3d ef 8b 60 be c7 96 36 bd 44 32 02 be
       0.04957784 -0.2192838 -0.044577386 -0.12714487
000290 28 7d 8c bd 5e c5 22 3d 03 c6 13 be 4b 3a 7b be
       -0.06859809 0.039739005 -0.14431004 -0.24533956
0002a0 66 24 40 be 1c ff a5 be 01 37 d8 be 81 d9 93 bc
       -0.18763885 -0.32421196 -0.42229465 -0.01804805
0002b0 ab 7d 8b be 1a e2 41 bc dc 8f a5 bc 33 c3 26 3e
       -0.27244315 -0.011833692 -0.020210199 0.162854
0002c0 27 c0 8b bc 70 e2 87 3d 44 a9 13 3c 3d e1 56 3b
       -0.017059399 0.066349864 0.009012524 0.003278806
0002d0 4f 91 1e 3e 05 c2 66 be bf 78 41 be b3 11 77 bd
       0.15485118 -0.2253495 -0.18893717 -0.060319614
0002e0 22 77 1b 3e be 30 25 3e 1e 67 8d bd 76 fa 3e 3d
       0.15182164 0.16131875 -0.06904434 0.046625577
0002f0 63 b8 ae 3d e3 4b 8a be 87 cf 20 3e d5 8d 36 be
       0.08531263 -0.27011022 0.15704165 -0.17827542
000300 95 ab 03 3d 34 6a a9 bc 87 d5 12 3d 60 b5 b3 bd
       0.032146055 -0.020680524 0.035848167 -0.08774829
000310 9b eb 7b be c0 f4 2f be e8 07 3a bd 64 33 0c bd
       -0.24601595 -0.17183208 -0.045417696 -0.034228697
000320 cc bc a3 bd 32 75 37 3e d1 e7 d3 3d d4 78 94 be
       -0.079949945 0.179158 0.1034695 -0.28998435
000330 94 e0 b3 bc 8f 67 d9 bd 69 7c 8a be 76 4c f3 3d
       -0.021957673 -0.10615455 -0.27048042 0.11879818
000340 f3 23 84 be a3 d4 3a 3e c2 3a 09 bd d7 3c f3 3d
       -0.25808677 0.18245177 -0.0335033 0.11876839
000350 9f 8b 00 be 30 d8 d6 bc 8e ac 12 be 15 b9 07 be
       -0.12553261 -0.026226133 -0.14323637 -0.13254197
000360 84 1d 04 3e 8a 94 0f 3e eb 3f c1 bd 26 3d d1 bc
       0.12901884 0.14021507 -0.094360195 -0.025541853
000370 ed 02 42 3d c8 e2 9b bd 25 f7 f4 bd 23 9b e3 bd
       0.04736607 -0.076116145 -0.119612016 -0.11113574
000380 83 38 df be 02 1a 32 be 91 34 b9 bc 5d 5e 51 3e
       -0.43597803 -0.17392734 -0.022608073 0.20446153
000390 21 b7 47 be 80 e0 f0 3d ac d0 2a 3e 59 56 09 3d
       -0.19503452 0.1176157 0.16681165 0.033529613
0003a0 7a 4c 2d bc a9 87 40 be 72 07 23 bc 9e 74 a2 be
       -0.010577315 -0.1880175 -0.009950506 -0.31729597
0003b0 ba 00 3b 3c 05 81 9d be 03 a9 ae 3d f6 45 87 bd
       0.011413747 -0.30762497 0.0852833 -0.06605141
0003c0 a1 c2 79 be 9f 2e a5 be 2f d0 d2 3d e2 6e 96 be
       -0.24390651 -0.32262132 0.10293614 -0.29381472
0003d0 28 b1 54 be 5f 5b ba bb dd e4 59 3d b1 d1 10 3e
       -0.20770705 -0.005687162 0.053196777 0.14142491
0003e0 d0 03 a3 be c7 50 5c be 9d d7 a7 bc 71 0b 3b be
       -0.31838846 -0.21515189 -0.020488555 -0.18266083
0003f0 03 ce c1 3c f5 33 34 be b8 95 a7 3d 9b 9c 85 be
       0.023657804 -0.17597945 0.081828535 -0.26096043

encoder.conv1.bias f4 [32]
000000 2c 4a b3 be 5c 25 52 be 65 98 ce 3d 7d 4a f0 be
       -0.35017526 -0.20522064 0.10087661 -0.4693183
000010 9a f7 e5 3e db bc 2a be 60 75 1d 3e 2e 4c a6 bd
       0.44915468 -0.16673605 0.15376806 -0.08119999
000020 49 f4 ae be 1a 80 e5 be 0f fd a8 be d9 3a 9b be
       -0.3417075 -0.44824296 -0.33005568 -0.30318335
000030 66 64 34 be f3 52 69 be 8f 5c e3 3d 7f 42 14 bf
       -0.17616424 -0.22785549 0.111016385 -0.57913965
000040 ac 06 23 3f fe 68 a3 be b8 63 4b be 2c 38 1b bf
       0.63682055 -0.3191604 -0.19862258 -0.60632586
000050 e9 02 14 3e e6 5a 70 3e 2a 83 0f 3d a1 fb d0 be
       0.14454235 0.23472175 0.035037197 -0.40816978
000060 62 56 e5 bd 93 55 6a bc 65 72 6c be 0b 64 ee 3d
       -0.11198117 -0.014302629 -0.23090513 0.116401754
000070 21 fa bb 3d 7e c6 81 be 76 4c fe 3c 41 fe 22 3f
       0.09178568 -0.2534675 0.031042319 0.6366921

encoder.conv2.weight f4 [32, 32, 16]
000000 06 09 75 bd 53 07 a1 bc 01 52 5d bd 0d 77 93 bd
       -0.05982306 -0.019656813 -0.054033283 -0.072004415
000010 a8 42 97 bd 9c bd af bd e0 89 f5 ba 92 c0 37 bb
       -0.073857605 -0.08581087 -0.0018733107 -0.0028038365
000020 e6 90 41 bb 13 e1 1e bd 61 7d 87 bd 7e 66 5b bd
       -0.002953583 -0.038788866 -0.06615711 -0.05356454
000030 5b f5 1c bd 07 d6 79 bb cd 53 f1 bc 0d 52 e9 bc
       -0.038319927 -0.0038121955 -0.029458905 -0.028481508
000040 f4 b2 2f bd 69 d8 b3 bd 08 2c f6 bc a8 b5 d8 bd
       -0.042895272 -0.08781511 -0.030050293 -0.10581523
000050 b7 97 d5 bd 0a fd ac bc 75 82 2a bc 1f 85 95 bb
       -0.10429328 -0.021116752 -0.01040708 -0.0045629884
000060 87 5c a0 bd d7 09 92 bd 53 47 7d bc 11 f6 a6 bd
       -0.07830148 -0.07130783 -0.0154589 -0.08152402
000070 17 bb 38 bc 1c d8 87 bd b5 16 85 bd 00 13 95 bc
       -0.011275074 -0.066330165 -0.06498472 -0.018197536
000080 91 49 82 bd 9b 2c a3 bd 76 03 01 bd f0 ba b1 bd
       -0.06361688 -0.07967492 -0.03149744 -0.086782336
000090 be 40 3e bd bb 58 86 bd ff ac 0c bd 3c 9f 6f bd
       -0.04644846 -0.06559893 -0.03434467 -0.058501467
0000a0 3a 26 49 bd a3 ed 4c bc 2b c1 7a bd b3 4d 14 bd
       -0.04910872 -0.012507829 -0.061219376 -0.036206912
0000b0 74 0f d7 bc 4e 39 8f bd 58 d7 b0 bd 7c 98 8d bd
       -0.026252486 -0.06993352 -0.086348236 -0.0691385
0000c0 3e 57 3b bd 2a 1d 77 bd 58 9e 50 bd f1 f6 b8 bd
       -0.045737498 -0.060330547 -0.05093226 -0.09031475
0000d0 14 2a 0e bd 64 19 1a bd 0c 03 f1 bc e5 1f 00 bb
       -0.034708098 -0.03762187 -0.029420398 -0.001955026
0000e0 9f b4 ac bd 9d 3d d0 bd 3a a4 31 bd 24 bf a3 bd
       -0.08432888 -0.10168002 -0.04336951 -0.079954416
0000f0 59 f7 3d ba 56 bb 1e bd 67 78 12 bd 42 54 a2 bd
       -0.00072466355 -0.038752876 -0.035759356 -0.07926227
000100 d6 60 14 bd 60 84 b0 bd b9 7a e9 bc 2c fc 53 bd
       -0.036225162 -0.086189985 -0.028500902 -0.05175416
000110 5f d3 dc bd b4 79 dd bd 51 ed 95 bd 21 e1 a7 bc
       -0.10782503 -0.10814229 -0.07320655 -0.020493092
000120 1c 76 2a bd dc 0c 6c bc 30 03 71 bc f3 ad e4 bd
       -0.041616544 -0.014407363 -0.014710233 -0.11165991
000130 a4 c9 bc bd 70 cf 80 bd 00 2a 91 bd 85 a9 b5 bd
       -0.092181474 -0.062895656 -0.07088089 -0.08870224
000140 8c 77 a3 bd 82 42 b2 bd 5e 75 65 bd 76 f2 95 bd
       -0.07981786 -0.087040916 -0.056020133 -0.073216364
000150 bb 70 39 bd 82 db 8d bd d0 8d 9c bd 58 1e 6e bc
       -0.045273524 -0.069266334 -0.07644236 -0.014533602
000160 23 e0 07 bd bb 4e b8 bc a8 1f bd bd 80 cf ba bc
       -0.033172738 -0.02249848 -0.092345536 -0.022804022
000170 49 94 1e bd a2 35 00 bd 66 63 33 bc 79 4d c9 bb
       -0.038715634 -0.03130115 -0.010948991 -0.0061432687
000180 1a 4e ab bb ce d6 88 bd a6 3c 71 bd 48 66 a8 bd
       -0.0052278163 -0.06681596 -0.05889573 -0.082226336
000190 7c d8 93 bd ae 37 35 bd 9a 90 d2 bd fd 11 a7 bd
       -0.072190255 -0.044242553 -0.10281487 -0.08157728
0001a0 0d 5e 34 bd 2a 62 97 bc 41 40 24 bd 89 3e 9f bd
       -0.044035006 -0.018479425 -0.04010034 -0.077755995
0001b0 e2 0c a4 bd c5 98 d9 3a be dc a6 bc 2b b3 9a bb
       -0.0801027 0.0016601315 -0.02036893 -0.0047210655
0001c0 43 c2 b8 bd bb ca ba bc 87 20 3c bd 2e 1c 96 bd
       -0.090214275 -0.022801748 -0.045929458 -0.073295936
0001d0 5f f0 cd bc 0f f5 c6 bc 56 81 a3 bd de 9c 8a bd
       -0.025139032 -0.024286775 -0.07983653 -0.06768201
0001e0 5f 2e 8d bd 32 16 38 bd 8f 13 89 bd ab 2f 3e bd
       -0.0689361 -0.044943042 -0.06693184 -0.04643218
0001f0 14 d6 6b bd 02 5a ad bc f6 ec 5d bd 09 8b b8 bc
       -0.057577208 -0.021161083 -0.05418106 -0.022527235
000200 b1 71 da bc 95 ff 94 bb fc 04 ad bc ac 63 95 bc
       -0.02666554 -0.0045470693 -0.02112054 -0.018236004
000210 08 86 9c bd 4e e7 39 bd f1 52 a5 bd ec 62 d4 bc
       -0.07642752 -0.045386605 -0.080724604 -0.025926076
000220 d0 24 21 bd a0 c7 97 bd 4e a8 17 bd a7 eb 00 bd
       -0.039341748 -0.07411122 -0.037025742 -0.031474736
000230 5b ee 07 bc b7 e3 76 bc 90 7b 1b bd 6b e6 82 bd
       -0.0082965745 -0.01506894 -0.037959635 -0.06391605
000240 44 91 9e bd 36 28 bb bd 4a 1f 87 bd 6a d2 c7 bc
       -0.07742551 -0.09138529 -0.06597765 -0.024392325
000250 f4 63 ae bd 50 a8 e4 bb 77 65 2b bc 81 4e 86 bd
       -0.08515158 -0.006978072 -0.010461203 -0.06557942
000260 0c 8c e8 bc 08 3c 9a bd 2c b0 65 bb 96 c7 65 bd
       -0.028387092 -0.07530981 -0.0035047634 -0.056098543
000270 99 be 96 bd bb cb 7b bd 54 d2 88 bd 74 96 a4 bd
       -0.07360572 -0.06147359 -0.06680742 -0.08036509
000280 e9 41 7b bd 8c 92 02 bd 81 fd 3b bd b3 2c 18 bd
       -0.061342154 -0.03187804 -0.045896057 -0.037152003
000290 5b 1d 96 bd 9f 23 fa bc ae 08 b6 bd 0d 19 82 bd
       -0.07329818 -0.030534564 -0.08888374 -0.06352434
0002a0 32 7f 8a bd 7f 19 a9 bd bc 5e 9e bd c9 6e a2 bd
       -0.06762542 -0.08256816 -0.07732913 -0.07931287
0002b0 56 3a 2d bd dc ad a2 bd ac 02 9c bd 50 07 af bd
       -0.04229196 -0.07943317 -0.07617697 -0.085463166
0002c0 bf 4b 9e bd 45 aa 91 bc 75 fd 6e bd 3f 8f 79 bd
       -0.07729291 -0.017781386 -0.058347184 -0.060927626
0002d0 b6 f1 9e bc c8 a6 4e bd 6b 9f 21 bd 92 03 d9 bc
       -0.019402366 -0.050452024 -0.039458673 -0.02649096
0002e0 ae 12 dc bc 4c f5 4e bd bc 3a 29 bc 96 e3 ac bd
       -0.026864376 -0.050526902 -0.010328945 -0.08441846
0002f0 08 47 a5 bd b6 aa bf bc dd c0 66 bd d0 ba b0 bd
       -0.08070189 -0.023396831 -0.056336273 -0.08629382
000300 5d f9 83 bd 2d d4 40 bd 49 61 98 bd 38 df af bd
       -0.06444047 -0.047077347 -0.07440431 -0.085874975
000310 8c 49 af bd 0b 0e a0 bc 0e bf 67 bd 6e e4 4a bc
       -0.0855895 -0.019537946 -0.05657869 -0.012383563
000320 27 2c 94 bd 42 38 9f bd e8 eb 61 bd 44 ad cd bd
       -0.07234984 -0.07774402 -0.05515662 -0.100428134
000330 69 65 7d bc 40 ad fd bc d8 68 ff bb d3 a2 67 bc
       -0.015466073 -0.030966401 -0.007794481 -0.014137941
000340 a6 5d 61 bc 57 aa 01 bd 64 1b 07 bc 8f e3 97 bc
       -0.013755238 -0.03165659 -0.0082462765 -0.018541126
000350 be c7 1f bd 3e c0 9a bd 43 e0 74 bd 04 8f 52 bd
       -0.03900885 -0.075561985 -0.059784185 -0.05140592
000360 6c 0f e2 bd e2 66 f4 bb 82 89 b5 bd c2 bd 8a bd
       -0.11038098 -0.0074585536 -0.08864118 -0.06774475
000370 33 c1 79 bd 55 4c 61 bd 39 54 bc bc 09 1f a0 bd
       -0.060975265 -0.055004437 -0.02298938 -0.078184195
000380 af 4d 2e bd ee f6 2b bd 78 26 91 bd d2 54 9c bd
       -0.042554554 -0.041983537 -0.070874155 -0.07633366
000390 a0 b1 b2 bd 5a 76 ba bd 82 fe 88 bd 69 95 ad bd
       -0.087252855 -0.09104605 -0.066891685 -0.08475763
0003a0 88 b8 14 bd 41 57 5d bd 02 82 95 bd e7 9c 2c bd
       -0.036308795 -0.05403829 -0.07300188 -0.04214182
0003b0 4c 0a 0e bd bc d3 ab bd c2 a9 ab bc 49 7c a3 bd
       -0.03467779 -0.083899945 -0.02095497 -0.0798269
0003c0 77 ca ae bb 7a c6 24 bd 83 82 3e bd 1b b8 9a bd
       -0.0053341943 -0.040228345 -0.046511184 -0.075546466
0003d0 2a f1 11 bd 91 4f d8 bd c0 30 53 bd e4 35 8b bd
       -0.035630383 -0.10562051 -0.051560163 -0.06797388
0003e0 19 e3 a0 bd 6c e1 83 bd c3 37 b7 bc 95 34 b8 bb
       -0.078558154 -0.0643948 -0.022365456 -0.0056215026
0003f0 2d cb 08 bd 72 a9 66 bd a1 3e 97 bc 92 c9 ae bc
       -0.03339689 -0.05631394 -0.018462481 -0.02133635

encoder.conv2.bias f4 [32]
000000 d1 0b ff bb 15 b0 8d bd cb f2 a8 bd ca 66 22 bd
       -0.007783391 -0.069183506 -0.08249434 -0.03964881
000010 f8 df 7d bd 9e 92 4d bd ae 76 b2 bd 5c 4d a9 bd
       -0.06198117 -0.050188653 -0.087140426 -0.08266708
000020 3d 01 c0 bb d5 a3 3b bd 6f f0 99 bd 46 ab 91 bd
       -0.0058595226 -0.04581054 -0.07516562 -0.07112746
000030 aa 42 a9 bd 3d fd ba 3e 9d 1f d3 3b a0 38 41 bd
       -0.08264668 0.3652133 0.0064429776 -0.047173142
000040 fa 80 13 bd 3f b9 8e bd cc 08 85 bd 81 4a 9f 3d
       -0.036011674 -0.06968927 -0.064958185 0.07777882
000050 f6 ff 32 bd a9 d2 45 be c9 ad 2f bd 0d da 85 bb
       -0.043701135 -0.19318642 -0.042890344 -0.0040848316
000060 8c 0b c5 bc 4e b5 f1 bc 63 a7 05 bd bb 41 9a bd
       -0.024053358 -0.029505398 -0.032630336 -0.07532068
000070 8f 0e 2e bd 76 24 2a bd fe ac c0 bc ef 89 4f bd
       -0.042494353 -0.041538678 -0.02351999 -0.050668653

encoder.conv3.weight f4 [32, 32, 16]
000000 c3 58 b1 bd 82 29 c3 bd 40 5f 78 bd 08 2d 05 bd
       -0.08659508 -0.09529401 -0.060637712 -0.03251365
000010 61 91 aa bd ed 60 c2 bd 6d 2b a5 bd 49 95 a1 bd
       -0.0832851 -0.094911434 -0.080649234 -0.07889802
000020 fd f2 1d bd 61 60 89 bd 08 67 94 bd e8 7f 72 bd
       -0.03856181 -0.06707836 -0.07246214 -0.059204012
000030 9f b8 97 bd 09 f1 0d bd 86 89 5e bd 78 7b 38 bd
       -0.074082606 -0.034653697 -0.05433037 -0.045039624
000040 90 92 89 bc c0 ab 9b bd c6 56 a8 bc 77 b3 7e bd
       -0.01679352 -0.07601118 -0.02054919 -0.06218287
000050 da 52 67 bd 5b a2 a5 bb bf d7 39 bd 12 3e 54 bd
       -0.056475498 -0.0050547547 -0.045371767 -0.051817007
000060 5d 59 1d bd c1 23 8c bd bf 94 30 bd ba 16 dc bd
       -0.0384153 -0.06842757 -0.043110605 -0.10746522
000070 b0 4d a0 bd f5 64 29 bd 22 3b 78 bd 4b 01 c0 bd
       -0.07827318 -0.041356046 -0.06060327 -0.093752466
000080 00 70 bf bd c2 a6 99 3d d4 bf ba 3c ce cb 18 3d
       -0.09347534 0.0750251 0.022796549 0.03730374
000090 f4 f4 01 3d f1 26 81 3c 0f 48 28 3d e7 6c 51 3c
       0.031727746 0.015765639 0.041084345 0.012782312
0000a0 85 5a 92 bd 74 61 64 bd ee 46 4e bd d5 aa 9f bd
       -0.071461715 -0.055757 -0.050360613 -0.077962555
0000b0 cf f3 c3 bc 3c 96 cc bd 3d 25 7c bd 7a 31 63 bd
       -0.023919968 -0.099895924 -0.06155895 -0.055467106
0000c0 32 8c d5 bd ee ef 84 bd cf e5 2f bd 57 2e c9 bc
       -0.10427131 -0.064910755 -0.042943772 -0.02455823
0000d0 02 e7 0a bd fa 52 c9 bc dc dc cf ba 28 4e 41 bd
       -0.033911712 -0.0245757 -0.0015858668 -0.047193676
0000e0 c9 34 a4 bd 4d 5c da bd 72 99 17 bd a8 2d c7 bd
       -0.080178805 -0.10662136 -0.03701157 -0.09725505
0000f0 45 95 62 bd 3b 52 5a bd 04 cc e9 bc 8e 00 d7 bd
       -0.055318136 -0.053301077 -0.028539665 -0.10498153
000100 99 bb 8e bc 78 79 af bd 83 73 4c bd d8 25 db bd
       -0.017423438 -0.0856809 -0.049914848 -0.107005775
000110 74 5f a4 bd b9 37 4c bd 94 a9 d3 bd 88 e3 ba bd
       -0.08026019 -0.04985783 -0.10335079 -0.091254294
000120 cd 0c 82 bd d7 b7 5d bd d0 8a ce bd 9f 9a 97 bd
       -0.06350098 -0.0541304 -0.1008507 -0.074025385
000130 d1 47 41 bd 2e 37 f8 bd 5c 04 71 bd 78 1a aa bd
       -0.04718763 -0.121199 -0.058842048 -0.0830583
000140 00 29 bd bd 5d 5a b8 bd ba ba ab bd e6 e8 b0 bd
       -0.09236336 -0.090016104 -0.08385225 -0.08638172
000150 e9 c4 af bd df 6d 41 bd da ba 91 bd 8d 87 93 bd
       -0.085824795 -0.047223922 -0.07115717 -0.07203589
000160 15 3e 11 bd c1 b2 9c bd 06 f2 b0 bd a9 30 62 bd
       -0.035459597 -0.07651282 -0.08639912 -0.055222187
000170 88 fd b5 bd a8 42 d0 bd 5a c2 a7 bd a9 2b e4 bc
       -0.08886248 -0.10168964 -0.081913665 -0.02785285
000180 ab 37 a8 3d ae b1 5a 3d 87 49 a0 3d 12 14 9f bc
       0.08213743 0.053392105 0.07826524 -0.01941875
000190 4c c9 ea bc c1 c8 a6 bc 81 b4 c1 bd 6a 81 3b bd
       -0.028660439 -0.020359399 -0.094582565 -0.045777716
0001a0 22 1a b2 bd 04 12 cd bd 3e da 80 bd 95 3e d1 bd
       -0.08696391 -0.10013202 -0.062916264 -0.10217015
0001b0 ed cb bc 3d dd a3 48 bd 81 10 6c bd 83 9b ae 3d
       0.09218583 -0.048984397 -0.057632927 0.08525755
0001c0 c7 ab d1 bd 14 da 7c bd 6e 76 a4 bd 63 9a 3e bd
       -0.10237842 -0.061731413 -0.08030401 -0.046533953
0001d0 79 7d 18 bd da ab b5 bd b3 5d 7a bc 65 a5 56 bc
       -0.037229035 -0.08870669 -0.015281129 -0.013100957
0001e0 c7 f6 65 bd 61 9d 7e bd 16 ec 81 bd 2a 6a b4 bc
       -0.05614355 -0.062161807 -0.06343858 -0.02202328
0001f0 c9 bd 1c bc 84 aa 39 bd e3 ee 34 bd 8a 74 da bc
       -0.009566733 -0.045328632 -0.044173133 -0.026666898
000200 3f bf a5 bd 6e 10 f8 bd 38 ac c3 bd 4b 05 c7 bd
       -0.08093118 -0.12112509 -0.095543325 -0.097178064
000210 2b 5d 5f bd 3d 72 a8 bd 86 59 36 3d 62 4e 70 3c
       -0.05453221 -0.08224914 0.04451897 0.014667125
000220 83 df ea 3c f0 4a c6 bd 72 97 f3 bd 1e 32 02 be
       0.028671032 -0.09682262 -0.1189412 -0.1271443
000230 43 a2 4f bd 1b 2d a0 bd 7c f3 32 bd c3 ee 31 bc
       -0.050691854 -0.07821103 -0.043689236 -0.010860148
000240 1d 89 1e 3d 80 98 b3 3d c5 4a 0d 3d 78 9e 5b bd
       0.03870498 0.087693214 0.034495134 -0.053617924
000250 2c 12 a9 bd 34 ad 99 bd 74 f9 b9 3d 7e e4 b2 bd
       -0.08255419 -0.07503739 0.090807825 -0.08734988
000260 d9 31 b5 3c 3c b1 5f bd b0 0f b6 bd f6 f5 86 3d
       0.022118496 -0.054612383 -0.08889711 0.06589882
000270 b1 b0 6a 3d 0f 6f c9 3d e8 73 a4 bd c3 70 ad bc
       0.057297412 0.09835636 -0.0802992 -0.021171933
000280 e3 b5 21 3d b9 c8 c1 3d 15 e2 4b bd d6 fc bb bc
       0.0394801 0.09462113 -0.049776156 -0.02294771
000290 98 0d 88 bd 09 fc b4 bc 7c 6b 88 bd 56 7b c7 bc
       -0.06643218 -0.022092836 -0.06661126 -0.024350803
0002a0 e4 41 c2 bc 02 2c 94 bd 54 3a 87 bd e3 91 35 bd
       -0.02371306 -0.07234956 -0.06602922 -0.04432858
0002b0 2e d5 7e bd 6d ca d4 bd 3b f6 d4 bd d6 97 be bd
       -0.062215023 -0.10390172 -0.10398527 -0.09306304
0002c0 83 06 3e bd 9b 50 9e bd 84 72 76 bc bb c6 e0 bc
       -0.04639293 -0.07730218 -0.015041951 -0.027438512
0002d0 08 29 80 bd 49 47 47 bd da c3 d8 bd 92 43 e6 bc
       -0.06257826 -0.048651967 -0.10584231 -0.028108392
0002e0 de d7 25 bd 22 ca 29 bc 2d f0 0e bd af 4e 30 bc
       -0.04048907 -0.010363134 -0.03489702 -0.010760947
0002f0 5f e2 0f bd d9 6c 88 bd 5b 4a d7 bd e7 fd 8d bd
       -0.035127994 -0.06661386 -0.10512229 -0.06933194
000300 19 04 e8 bc 15 67 b0 bd 21 12 97 bd db 4c 63 bd
       -0.028322266 -0.08613411 -0.07376505 -0.055493217
000310 ca 74 03 bd 1c 32 81 bc 53 d6 85 bb 73 0b 67 bd
       -0.0320938 -0.015770964 -0.0040843873 -0.056407403
000320 ee f4 c2 bd 3b 34 d6 bd 7c 62 a5 bd bf 21 e8 bd
       -0.09519373 -0.10459181 -0.08075425 -0.113345616
000330 1a 9b 3f bd e1 f4 48 bd 57 f6 91 bd 0f 00 25 bd
       -0.046778776 -0.04906166 -0.07127064 -0.04028326
000340 cb 32 91 bd e5 ef a5 bd 97 d5 90 bd 47 79 e5 bc
       -0.07089766 -0.08102397 -0.07071989 -0.028011931
000350 67 0d d4 bc c0 d0 b5 bd b0 95 d4 bd 36 e2 8a bd
       -0.025885297 -0.088777065 -0.10380113 -0.067814276
000360 1d fd 8f bd 12 e0 b6 bd 12 07 16 bd 67 db a5 bd
       -0.070306994 -0.08929457 -0.036627837 -0.08098488
000370 38 2e dc bc d6 b5 e4 bd de 81 e3 bd bd 13 cc bd
       -0.026877508 -0.11167495 -0.111087546 -0.09964702
000380 cf 92 9b bd b1 9f cf bd 0e 9c 85 bd fa bf 4d bd
       -0.07596361 -0.101378806 -0.06523906 -0.05023191
000390 6d ad a0 bd db c8 8f bd e0 ca 2e bd b5 49 9c bd
       -0.07845578 -0.07020732 -0.042673945 -0.07631246
0003a0 14 26 83 bd f1 e6 a7 bd 75 9e a6 bc 1d a3 b6 bd
       -0.06403747 -0.081983455 -0.02033923 -0.0891783
0003b0 47 76 df bc 88 ae ce bd a6 e4 91 bd 51 d2 79 bd
       -0.027278079 -0.10091883 -0.07123689 -0.06099159
0003c0 dc 29 41 bd e9 8e c9 bd 6b e7 cc bd d7 2c 6e bd
       -0.04715906 -0.09841711 -0.10005077 -0.05814823
0003d0 d4 77 91 3c e4 85 6c 3d 0c 6c 82 3d 08 2b 26 3d
       0.017757334 0.057744876 0.063682646 0.04056838
0003e0 1e f7 9c 3d 18 a5 82 3d 30 8c b1 bd c9 73 40 3d
       0.07664321 0.063791454 -0.08669317 0.04698542
0003f0 ca 4c 4f bd 0d a0 32 bd 0b f4 b9 bd e1 0f 3d bd
       -0.05061034 -0.043609668 -0.090797506 -0.04615772

encoder.conv3.bias f4 [32]
000000 17 79 6d bd a6 02 b9 bd 86 03 95 bd 61 0c c1 bd
       -0.05797681 -0.09033708 -0.07276063 -0.09426189
000010 dd 98 65 3e ea 41 db bd 14 1d 88 bd 99 ad db bd
       0.22421594 -0.107059315 -0.06646171 -0.107264705
000020 63 98 3f bd a0 ad b4 bd c4 b6 fa bd 47 b1 64 bd
       -0.046776187 -0.08822179 -0.12241891 -0.055833127
000030 56 26 cf bc 67 0b 87 bd f3 62 c1 bd f4 cc 41 bd
       -0.025286835 -0.06593972 -0.09442701 -0.0473146
000040 30 6a 9c bd 41 88 d9 3d df 1a a8 bd 1e 68 d4 bd
       -0.07637441 0.106216915 -0.0820825 -0.10371421
000050 9c 9e f2 bd 3c 61 5f bd 1f 5c b2 bd 56 6b 65 3e
       -0.118466586 -0.05453609 -0.08708977 0.22404227
000060 ae 38 5e bd 68 f7 c9 bc 74 e4 ad bd b6 c5 47 bd
       -0.054253273 -0.024654105 -0.084908396 -0.048772536
000070 7b 8f 9e bd 2b 30 7d bd 5a 79 35 bd 8c 16 70 bd
       -0.077422105 -0.061813515 -0.044305183 -0.058615252

encoder.dense1.weight f4 [64, 2400]
000000 18 98 50 bd 60 e6 85 bd 76 a6 99 bd 3b 01 23 bd
       -0.050926298 -0.06538081 -0.07502453 -0.039796095
000010 d2 e4 80 bd 7a 72 80 bd b3 ba 25 3d 33 6b 3e bd
       -0.06293644 -0.06271835 0.040461253 -0.046488952
000020 e5 87 a0 bd dd 70 52 bd c7 3c 72 bd 2a a6 8e bd
       -0.0783842 -0.051377166 -0.059139993 -0.06965287
000030 b5 05 97 bd a2 ac 23 bd ee 9e 98 3b e9 32 63 bd
       -0.073741354 -0.039959557 0.004657618 -0.055468474
000040 23 63 68 bd 4f 55 3b bd ba 78 51 bd 30 e3 8a bd
       -0.05673517 -0.045735653 -0.051140524 -0.06781614
000050 99 82 84 bd 2d 3c 1e bd 29 fb 5c 3d c1 6a 9b bd
       -0.06470222 -0.038631607 0.053950462 -0.07588721
000060 41 d6 8d 2c db 21 41 bd 6b 5a 5a bd 0c 18 9e bd
       4.031248e-12 -0.047151428 -0.053308886 -0.0771943
000070 63 fb 91 bd c3 56 63 bd eb 04 93 bd 81 ae 9d bd
       -0.07128026 -0.055502664 -0.071786724 -0.076992996
000080 d1 dc 86 bd a1 b0 53 bd 09 b6 2a bd d2 c9 75 bd
       -0.06585086 -0.05168212 -0.04167751 -0.060006924
000090 fc ed 8a bd ff 33 90 bd bc a5 48 bd 8c ed 45 bd
       -0.06783673 -0.070411675 -0.04898618 -0.048322245
0000a0 db 07 60 bd f2 08 39 3d 72 d9 59 bd cc 8b 36 bd
       -0.05469499 0.045174547 -0.053185888 -0.044566914
0000b0 e0 c7 1c bd 9c eb e6 bc 90 62 3b bd 7e 60 8f 3d
       -0.038276553 -0.02818852 -0.045748293 0.07000826
0000c0 0b 51 8d b6 fa b3 81 bd 79 32 9b bd e4 1a 40 bd
       -4.211562e-06 -0.06333156 -0.07577986 -0.046900645
0000d0 f5 e5 a0 bd 64 f0 97 bd 1c e6 5b bd 68 f1 a6 bc
       -0.07856361 -0.07418898 -0.053686246 -0.020378783
0000e0 3c 29 5f bd 83 fd 44 bd d1 87 9b 3d 2f 06 0f bd
       -0.054482684 -0.04809333 0.07594264 -0.034918007
0000f0 78 fa 17 3d f5 f9 8d 3d 6e c9 66 3d e9 b9 87 bd
       0.0371041 0.06932441 0.056344442 -0.066272564
000100 8f 87 67 bd 44 15 9a bd 1c c8 84 bd f6 95 82 3d
       -0.056525763 -0.07523587 -0.0648348 0.06376259
000110 21 d9 87 bd a8 85 8a bd 41 58 79 bd ba 3f 88 bd
       -0.06633211 -0.06763774 -0.06087518 -0.0665278
000120 dd a7 0b bd 51 eb 72 bd b0 43 1d bd 4d 54 a0 bd
       -0.034095634 -0.059306446 -0.03839463 -0.07828579
000130 0e 7a a0 bd e4 e6 59 bd 63 15 5a bd 74 c4 58 bd
       -0.0783578 -0.05319871 -0.053243052 -0.052921727
000140 61 48 81 bd 90 40 36 bd f2 4b 87 bd 49 e6 52 bd
       -0.06312633 -0.044495165 -0.06606282 -0.05148915
000150 f7 ae 57 bd 64 7e 80 bd 39 51 95 3d 44 4f 7b bd
       -0.052657094 -0.06274107 0.072908826 -0.06135489
000160 32 67 4e bd e7 b9 32 bd 3f 0c 90 bd 46 d2 9d bd
       -0.050391383 -0.04363432 -0.07033586 -0.07706122
000170 4d 83 9c bd 4e 42 87 bd 4a db 39 bd 00 ac 90 bd
       -0.07642231 -0.066044435 -0.045375146 -0.070640564
000180 75 f0 31 bd 96 64 3b bd 0d 70 86 bd 2e 56 2e bd
       -0.04344221 -0.045750223 -0.06564341 -0.042562656
000190 a2 e8 8b bd e9 3e 89 bd 38 57 6a bd e1 9c 79 bd
       -0.068314806 -0.06701452 -0.057212085 -0.060940627
0001a0 f4 96 9a bd e4 a7 82 bd 16 b8 35 bd 1c 8c 98 bd
       -0.07548323 -0.06379679 -0.04436501 -0.07448599
0001b0 df 74 70 bd f8 69 93 bd e1 4d 84 bd 9a 17 6d bd
       -0.058705207 -0.07197946 -0.06460167 -0.057883836
0001c0 04 ab 51 bd 82 d1 77 bd 3e 2a 76 bd a0 6f 79 bd
       -0.051188484 -0.060502537 -0.06009888 -0.06089747
0001d0 c4 71 2f bd cc e8 3a bd da 5e 89 bd 05 1a 5d 3d
       -0.042833105 -0.04563217 -0.067075446 0.053979892
0001e0 3a d3 37 bd f1 37 8a 3d bf 84 3a bd c7 56 71 bd
       -0.044879176 0.06748951 -0.045536753 -0.058920648
0001f0 d1 fc 86 3d dc 1e 79 bd 2a f9 50 bd 8b 86 24 bd
       0.0659119 -0.060820445 -0.05101887 -0.040167373
000200 3d 80 8a bd a1 fe 9b bd c1 3c 73 bd 49 ff 84 bd
       -0.06762741 -0.07616926 -0.05938411 -0.06494004
000210 39 67 96 bd f8 bd 34 bd e3 e9 88 bd ac 4a 86 3d
       -0.07343907 -0.04412648 -0.06685235 0.06557211
000220 c2 11 94 bd fb b2 82 bd 43 00 92 bd 52 62 75 bd
       -0.072299495 -0.06381794 -0.07128956 -0.05990822
000230 8d ea 5d bd ea ce 58 3d de 94 66 bd 4b 5a 85 bd
       -0.054178763 0.052931704 -0.056294315 -0.06511363
000240 cb 62 9f 3d 0b a3 33 3d ec 6d 99 bd 0f 8d 2f bd
       0.07782515 0.04385666 -0.07491669 -0.042859133
000250 e7 ce 01 3d 87 0b 91 bd 0c ce 2f bd c5 bc 8f bd
       0.031691458 -0.07082277 -0.04292111 -0.07018427
000260 f9 e2 8d bd 6d 29 94 bd 43 82 75 bd 6e 66 6a bd
       -0.06928057 -0.07234464 -0.05993868 -0.05722659
000270 46 2a 90 bd 50 81 27 bd f8 2c 79 bd c9 26 28 bd
       -0.07039313 -0.040894806 -0.0608339 -0.041052613
000280 7a 0f 8e bd c9 3b 00 bd 80 20 bf 3c 8a 65 79 bd
       -0.06936546 -0.031307016 0.023330927 -0.06088785
000290 6b 08 49 bd 16 62 67 bd 1f 5b 57 bd ef 9d f7 2b
       -0.049080294 -0.056490026 -0.052577134 1.7594241e-12
0002a0 35 61 18 3d 7d 11 9f bd f0 16 3a bd 4c be 69 bd
       0.03720208 -0.077670075 -0.04543203 -0.057066247
0002b0 57 fb 7c bd 2a d7 82 bd c2 df 1f 3d d8 16 13 3d
       -0.061763134 -0.063886955 0.03903175 0.035910457
0002c0 9c b3 77 bd ed f1 99 bd 01 e7 9b bd 5f 38 54 bd
       -0.060474023 -0.07516847 -0.0761242 -0.051811572
0002d0 ae 8f 57 bd 28 c9 83 3d 91 9c 4a bd 30 44 77 bd
       -0.052627258 0.06434852 -0.04946572 -0.060367763
0002e0 09 89 88 bd e1 b4 72 bd 9f 0f 79 bd 08 eb 21 bd
       -0.066667624 -0.05925453 -0.060805913 -0.039530784
0002f0 3e f6 87 bd 73 a9 6a 3c 12 f3 85 bd c2 5d 01 bd
       -0.06638764 0.014322626 -0.065405026 -0.031583555
000300 6f 00 6d 3d f6 23 35 3d 9e f3 6b 3d c4 d7 ec bc
       0.05786174 0.04422375 0.05760538 -0.028911479
000310 16 0a 92 3d e1 6f 17 b6 9d 44 87 bd e2 e7 61 bd
       0.0713083 -2.2565875e-06 -0.06604884 -0.05515278
000320 4f 2a 3b bd 57 86 62 bd 37 9b 26 bd d7 22 83 bd
       -0.045694645 -0.055303898 -0.04067537 -0.064031295
000330 d3 07 62 bd 42 28 bd 3c 1e 00 4b 3d c1 08 8f bd
       -0.055183243 0.023090485 0.04956066 -0.069840916
000340 5a 26 64 bd 4d 11 27 3d 90 e3 94 3d 73 18 69 3d
       -0.055700637 0.040787984 0.072699666 0.056908082
000350 0c 45 5a bd 0d 8b 3f 3d 6e 96 37 bd b9 ec ae ac
       -0.053288504 0.04676347 -0.044821195 -4.971659e-12
000360 4a fe 9f 3d 3f 45 8a 3d d3 7a 0e bd 58 da 29 bd
       0.07812174 0.06751489 -0.034785103 -0.041467994
000370 67 d0 d0 bb 76 fa 87 3d 44 b0 4a 3d 20 89 16 bd
       -0.0063724997 0.066395685 0.049484506 -0.036751866
000380 0c 8d 97 bd 9b 6c 96 bd 47 80 73 bd 25 dc 29 bd
       -0.073999494 -0.073449336 -0.059448507 -0.04146971
000390 aa cf 37 bd 77 0f 86 bd f3 24 44 bd a7 13 7e bd
       -0.04487578 -0.065459184 -0.0478868 -0.06203046
0003a0 f5 aa 97 bd 33 3d 88 bd c8 21 25 bd 71 e2 56 bd
       -0.07405654 -0.06652298 -0.04031542 -0.052462045
0003b0 9b a1 2c bd 85 f9 66 bd 93 13 97 bd 52 b2 69 bd
       -0.042146306 -0.056390304 -0.0737678 -0.057054825
0003c0 b8 a8 2d bd ae c3 2d bd 03 cd a0 bd 8f 5f 5f bd
       -0.04239723 -0.042422943 -0.07851603 -0.05453449
0003d0 be 69 85 bd be 17 71 bd 30 b2 88 bd 0d 0a 2d bd
       -0.06514309 -0.058860533 -0.066746116 -0.042245913
0003e0 56 59 71 bd 18 b5 5a bd 47 e9 8e bd cf 63 43 bd
       -0.058923088 -0.05339536 -0.06978088 -0.047702607
0003f0 11 3b 33 bd eb d0 58 bd 92 08 4f bd 45 c1 4d bd
       -0.043757502 -0.052933615 -0.050545283 -0.050233144

encoder.dense1.bias f4 [64]
000000 e2 a7 58 3d 00 09 19 bd 18 25 33 bd 0d 21 86 bd
       0.05289448 -0.0373621 -0.043736547 -0.06549273
000010 73 45 bc 3d e8 ea db 3d 27 ee 4e bd ee c8 3f 3e
       0.09192934 0.10738164 -0.05052009 0.18728992
000020 06 d2 e7 3d 4f e6 17 3d e4 37 9d bd 8d a1 3e bd
       0.11319356 0.037084874 -0.07676676 -0.046540786
000030 42 ae 35 bd f4 8a 8b bd d8 67 1d 3d 8f be 64 3d
       -0.04435564 -0.068136126 0.03842911 0.055845793
000040 1b 05 68 bd e2 64 73 bd 45 a7 33 3e 4b f8 51 bd
       -0.056645494 -0.05942238 0.17544277 -0.05126218
000050 a1 4f 53 3e 09 44 8d bd 7f b9 83 bc 83 4d 36 3e
       0.20635845 -0.06897742 -0.016079662 0.17803006
000060 da 39 0d be b5 12 6e bd 36 d0 fb bd 2d 7c 8b 3e
       -0.137916 -0.05812331 -0.122955725 0.27243176
000070 c8 6c 0e bd a3 35 90 3e 88 2e 14 3d a5 e7 67 3e
       -0.03477171 0.28165922 0.03617719 0.22646959
000080 2b 76 13 be 19 90 6e bd 77 e0 9b bd a7 0c 01 3e
       -0.14400546 -0.05824289 -0.07611173 0.12602483
000090 1e 09 22 bd 1f aa 51 3e d1 42 4f 3c a8 7d 3e bc
       -0.039559476 0.20475052 0.012650208 -0.0116266385
0000a0 ba 41 3a bc 82 21 8c bd 35 0a 2b 3e ff ac 27 3c
       -0.0113682095 -0.068423286 0.16703112 0.010234117
0000b0 20 d7 42 3e f4 b4 0d 3e 44 34 44 3e 74 5e 32 bd
       0.19027376 0.1383856 0.19160563 -0.04354711
0000c0 12 11 db 3e f3 b9 81 3e dc 9e 11 3e 68 b5 82 bd
       0.4278646 0.2533718 0.14220756 -0.06382257
0000d0 cc 64 85 bd 8f 5a 5d bd dc 82 c4 3e 9a f7 82 bd
       -0.06513366 -0.05404144 0.38381088 -0.063948825
0000e0 94 51 f8 3d 05 69 5d bd 08 6f 53 3e 82 e8 2f bd
       0.12124935 -0.054055233 0.20647824 -0.042946346
0000f0 4c 1b 0e 3d 80 33 28 3e 5f 3c 12 3e 4a 42 28 3e
       0.034694 0.16425896 0.14280842 0.16431537

encoder.encoder1.0.weight f4 [32, 1, 16]
000000 6f 45 db bd 91 5b fd bd 40 0a 81 be 9a 8a 69 bb
       -0.10706603 -0.123709805 -0.25203133 -0.0035635591
000010 76 57 1d be 02 af d0 3d ff 75 36 be 7c 2d 2a be
       -0.15365395 0.1018963 -0.1781845 -0.16618913
000020 81 0f c0 bd ac 15 ba 3d 8f a8 7e bd 8c 4d 26 be
       -0.09377957 0.09086165 -0.06217247 -0.1624052
000030 5c 5b a4 be cf 3f 0c bc e9 29 13 3e db b6 02 be
       -0.32100952 -0.008560135 0.14371456 -0.12765066
000040 d6 18 69 be 6b f5 2f bd f3 0b 81 bd 31 fe 33 be
       -0.2276338 -0.04295866 -0.06301107 -0.17577435
000050 60 fe 27 be 36 a5 9a be e2 fa 75 bd b6 e0 fb 3c
       -0.1640563 -0.3020417 -0.060053714 0.030746799
000060 a4 cd 3b 3e bf db 7c bd 4f 1f 23 3e 64 75 88 be
       0.18340164 -0.061733004 0.15929912 -0.26652062
000070 d7 bd a4 3d 46 0c e8 bd 7b 6a 42 be d6 98 9d be
       0.080440216 -0.11330466 -0.18985932 -0.30780667
000080 a0 a2 e3 bd 77 c8 01 3e 14 63 8a bd 3d 10 d1 3d
       -0.11115003 0.12674128 -0.06757179 0.10208175
000090 b1 af 7f be 1e 33 04 3e 0c 6f 3b 3d 97 74 9b be
       -0.24969365 0.12910125 0.0457602 -0.30362388
0000a0 2d 1b 4c bd 53 d2 e2 3d 29 93 f6 bd 17 d1 15 3e
       -0.049830604 0.110752724 -0.12039787 0.14630543
0000b0 76 9b 88 be 67 19 49 be 3b 97 0c 3d 03 cd 14 be
       -0.26681107 -0.19638596 0.034323912 -0.14531331
0000c0 4a 4a ca bd 93 4b 4f be 98 a0 03 be fe 2c 45 be
       -0.09877451 -0.20243673 -0.1285423 -0.19255444
0000d0 c8 bc 17 bc 53 00 ea 3d bc 6f 82 be 32 2a 81 bc
       -0.009261318 0.11425843 -0.25475872 -0.01576719
0000e0 30 63 2f 3e 7e 48 49 3e 65 9a 3a be c4 1d 43 3e
       0.17127681 0.1965656 -0.1822296 0.19054323
0000f0 a8 71 62 be b3 8f 26 be 1f 85 05 3e fb cd 1e bd
       -0.22113669 -0.16265754 0.13039063 -0.038770657
000100 42 1f c2 bd 1b 53 bd bd 32 a4 8e be 10 24 37 be
       -0.09478618 -0.09244367 -0.27859646 -0.1788485
000110 62 57 8e be 55 77 84 be 66 d0 79 be d5 11 a4 bd
       -0.27801043 -0.25872293 -0.24395904 -0.08011214
000120 c2 0e f9 3c 3c 68 af bd fc f6 a1 be 74 eb a7 be
       0.030402545 -0.08564803 -0.31633747 -0.32796824
000130 9c 75 07 3e 7a 10 5f 3d 2b c9 a8 3d d6 de a7 bd
       0.13228458 0.054459073 0.08241495 -0.081967995
000140 95 8f ae 3d 13 0c a0 bd e2 f5 b4 bd 52 52 86 bd
       0.0852348 -0.07814803 -0.08835961 -0.0655867
000150 84 12 0b 3e 32 0d bc bd ef 32 b3 bd e9 c8 a1 bd
       0.13581282 -0.09182204 -0.08749949 -0.07899649
000160 ab b0 1d bd 93 40 83 be 78 eb 30 bc ba 43 34 be
       -0.03849856 -0.25635204 -0.010798328 -0.1760396
000170 b0 b9 91 be 44 a3 f2 3d c8 2d 8e bd 38 59 74 3d
       -0.2846198 0.11847547 -0.06942326 0.059655398
000180 74 9b 89 be 6b 54 87 3d ba 2c f0 3d 19 28 9a bd
       -0.26876414 0.06607898 0.11727281 -0.07527179
000190 21 57 61 be 0d 2b 85 be 22 9c 1b 3e e2 1a 42 3d
       -0.22005893 -0.26009408 0.15196279 0.04738892
0001a0 9f da e9 bd 30 45 de bc bf 25 16 3c b6 16 9a be
       -0.11418652 -0.0271326 0.009164273 -0.30095452
0001b0 8b f9 cd bd bf ec 2a 3e aa 3f 21 3e 88 85 a1 be
       -0.10057362 0.16691874 0.15746942 -0.3154719
0001c0 93 d2 c4 be 69 b8 0c 3d ae 35 43 3e 3d a4 14 3d
       -0.38441905 0.034355555 0.19063446 0.036289442
0001d0 cb 54 0f bf cc 5e e6 bd 4a 58 97 3c 62 b5 a5 be
       -0.5598876 -0.1124855 0.018474717 -0.32364947
0001e0 1b 8e 02 3e 7c 24 bc be 9a 97 b7 3e 34 54 ef 3c
       0.12749521 -0.36746585 0.3585785 0.029214956
0001f0 6a a1 dd bd c8 2d 18 3e ca f2 13 be 02 cb b9 3d
       -0.10821803 0.14861214 -0.14448085 0.09071924
000200 9d 90 1d 3d 2f d3 ce 3c 5b 70 8d be e2 ff 46 be
       0.038467992 0.025247185 -0.27624783 -0.19433549
000210 a0 9f ae bd 87 59 9f 3d 00 a7 66 bc db f0 05 3e
       -0.0852654 0.07780748 -0.014077902 0.1308016
000220 32 de e7 3d 4e d7 82 be 6d 3f e4 3d a0 bd 61 3d
       0.11321677 -0.2555489 0.1114491 0.05511248
000230 fd af 45 3e 0d d0 a3 bd c4 64 0d 3c 51 58 09 be
       0.19305415 -0.07998667 0.008629981 -0.13412596
000240 a7 df 6f be 2d 5e 67 be a0 9a 98 be d0 a2 3d be
       -0.2342516 -0.22594519 -0.2980547 -0.1851914
000250 66 1d 3c 3e 7b 17 7f 3d 19 95 04 be bc 92 99 3d
       0.1837059 0.062278252 -0.12947501 0.074986905
000260 ee 1b cd 3d af bf 4f 3d e2 b8 05 bc 9b 97 90 bd
       0.10015093 0.050719913 -0.008161755 -0.070601664
000270 c3 19 14 3b 00 e7 14 be 6b 57 5e bd bc 0e b7 bd
       0.0022598363 -0.14541245 -0.054282587 -0.08938357
000280 22 12 4b 3d ef 8b 60 be c7 96 36 bd 44 32 02 be
       0.04957784 -0.2192838 -0.044577386 -0.12714487
000290 28 7d 8c bd 5e c5 22 3d 03 c6 13 be 4b 3a 7b be
       -0.06859809 0.039739005 -0.14431004 -0.24533956
0002a0 66 24 40 be 1c ff a5 be 01 37 d8 be 81 d9 93 bc
       -0.18763885 -0.32421196 -0.42229465 -0.01804805
0002b0 ab 7d 8b be 1a e2 41 bc dc 8f a5 bc 33 c3 26 3e
       -0.27244315 -0.011833692 -0.020210199 0.162854
0002c0 27 c0 8b bc 70 e2 87 3d 44 a9 13 3c 3d e1 56 3b
       -0.017059399 0.066349864 0.009012524 0.003278806
0002d0 4f 91 1e 3e 05 c2 66 be bf 78 41 be b3 11 77 bd
       0.15485118 -0.2253495 -0.18893717 -0.060319614
0002e0 22 77 1b 3e be 30 25 3e 1e 67 8d bd 76 fa 3e 3d
       0.15182164 0.16131875 -0.06904434 0.046625577
0002f0 63 b8 ae 3d e3 4b 8a be 87 cf 20 3e d5 8d 36 be
       0.08531263 -0.27011022 0.15704165 -0.17827542
000300 95 ab 03 3d 34 6a a9 bc 87 d5 12 3d 60 b5 b3 bd
       0.032146055 -0.020680524 0.035848167 -0.08774829
000310 9b eb 7b be c0 f4 2f be e8 07 3a bd 64 33 0c bd
       -0.24601595 -0.17183208 -0.045417696 -0.034228697
000320 cc bc a3 bd 32 75 37 3e d1 e7 d3 3d d4 78 94 be
       -0.079949945 0.179158 0.1034695 -0.28998435
000330 94 e0 b3 bc 8f 67 d9 bd 69 7c 8a be 76 4c f3 3d
       -0.021957673 -0.10615455 -0.27048042 0.11879818
000340 f3 23 84 be a3 d4 3a 3e c2 3a 09 bd d7 3c f3 3d
       -0.25808677 0.18245177 -0.0335033 0.11876839
000350 9f 8b 00 be 30 d8 d6 bc 8e ac 12 be 15 b9 07 be
       -0.12553261 -0.026226133 -0.14323637 -0.13254197
000360 84 1d 04 3e 8a 94 0f 3e eb 3f c1 bd 26 3d d1 bc
       0.12901884 0.14021507 -0.094360195 -0.025541853
000370 ed 02 42 3d c8 e2 9b bd 25 f7 f4 bd 23 9b e3 bd
       0.04736607 -0.076116145 -0.119612016 -0.11113574
000380 83 38 df be 02 1a 32 be 91 34 b9 bc 5d 5e 51 3e
       -0.43597803 -0.17392734 -0.022608073 0.20446153
000390 21 b7 47 be 80 e0 f0 3d ac d0 2a 3e 59 56 09 3d
       -0.19503452 0.1176157 0.16681165 0.033529613
0003a0 7a 4c 2d bc a9 87 40 be 72 07 23 bc 9e 74 a2 be
       -0.010577315 -0.1880175 -0.009950506 -0.31729597
0003b0 ba 00 3b 3c 05 81 9d be 03 a9 ae 3d f6 45 87 bd
       0.011413747 -0.30762497 0.0852833 -0.06605141
0003c0 a1 c2 79 be 9f 2e a5 be 2f d0 d2 3d e2 6e 96 be
       -0.24390651 -0.32262132 0.10293614 -0.29381472
0003d0 28 b1 54 be 5f 5b ba bb dd e4 59 3d b1 d1 10 3e
       -0.20770705 -0.005687162 0.053196777 0.14142491
0003e0 d0 03 a3 be c7 50 5c be 9d d7 a7 bc 71 0b 3b be
       -0.31838846 -0.21515189 -0.020488555 -0.18266083
0003f0 03 ce c1 3c f5 33 34 be b8 95 a7 3d 9b 9c 85 be
       0.023657804 -0.17597945 0.081828535 -0.26096043

encoder.encoder1.0.bias f4 [32]
000000 2c 4a b3 be 5c 25 52 be 65 98 ce 3d 7d 4a f0 be
       -0.35017526 -0.20522064 0.10087661 -0.4693183
000010 9a f7 e5 3e db bc 2a be 60 75 1d 3e 2e 4c a6 bd
       0.44915468 -0.16673605 0.15376806 -0.08119999
000020 49 f4 ae be 1a 80 e5 be 0f fd a8 be d9 3a 9b be
       -0.3417075 -0.44824296 -0.33005568 -0.30318335
000030 66 64 34 be f3 52 69 be 8f 5c e3 3d 7f 42 14 bf
       -0.17616424 -0.22785549 0.111016385 -0.57913965
000040 ac 06 23 3f fe 68 a3 be b8 63 4b be 2c 38 1b bf
       0.63682055 -0.3191604 -0.19862258 -0.60632586
000050 e9 02 14 3e e6 5a 70 3e 2a 83 0f 3d a1 fb d0 be
       0.14454235 0.23472175 0.035037197 -0.40816978
000060 62 56 e5 bd 93 55 6a bc 65 72 6c be 0b 64 ee 3d
       -0.11198117 -0.014302629 -0.23090513 0.116401754
000070 21 fa bb 3d 7e c6 81 be 76 4c fe 3c 41 fe 22 3f
       0.09178568 -0.2534675 0.031042319 0.6366921

encoder.encoder1.2.weight f4 [32, 32, 16]
000000 06 09 75 bd 53 07 a1 bc 01 52 5d bd 0d 77 93 bd
       -0.05982306 -0.019656813 -0.054033283 -0.072004415
000010 a8 42 97 bd 9c bd af bd e0 89 f5 ba 92 c0 37 bb
       -0.073857605 -0.08581087 -0.0018733107 -0.0028038365
000020 e6 90 41 bb 13 e1 1e bd 61 7d 87 bd 7e 66 5b bd
       -0.002953583 -0.038788866 -0.06615711 -0.05356454
000030 5b f5 1c bd 07 d6 79 bb cd 53 f1 bc 0d 52 e9 bc
       -0.038319927 -0.0038121955 -0.029458905 -0.028481508
000040 f4 b2 2f bd 69 d8 b3 bd 08 2c f6 bc a8 b5 d8 bd
       -0.042895272 -0.08781511 -0.030050293 -0.10581523
000050 b7 97 d5 bd 0a fd ac bc 75 82 2a bc 1f 85 95 bb
       -0.10429328 -0.021116752 -0.01040708 -0.0045629884
000060 87 5c a0 bd d7 09 92 bd 53 47 7d bc 11 f6 a6 bd
       -0.07830148 -0.07130783 -0.0154589 -0.08152402
000070 17 bb 38 bc 1c d8 87 bd b5 16 85 bd 00 13 95 bc
       -0.011275074 -0.066330165 -0.06498472 -0.018197536
000080 91 49 82 bd 9b 2c a3 bd 76 03 01 bd f0 ba b1 bd
       -0.06361688 -0.07967492 -0.03149744 -0.086782336
000090 be 40 3e bd bb 58 86 bd ff ac 0c bd 3c 9f 6f bd
       -0.04644846 -0.06559893 -0.03434467 -0.058501467
0000a0 3a 26 49 bd a3 ed 4c bc 2b c1 7a bd b3 4d 14 bd
       -0.04910872 -0.012507829 -0.061219376 -0.036206912
0000b0 74 0f d7 bc 4e 39 8f bd 58 d7 b0 bd 7c 98 8d bd
       -0.026252486 -0.06993352 -0.086348236 -0.0691385
0000c0 3e 57 3b bd 2a 1d 77 bd 58 9e 50 bd f1 f6 b8 bd
       -0.045737498 -0.060330547 -0.05093226 -0.09031475
0000d0 14 2a 0e bd 64 19 1a bd 0c 03 f1 bc e5 1f 00 bb
       -0.034708098 -0.03762187 -0.029420398 -0.001955026
0000e0 9f b4 ac bd 9d 3d d0 bd 3a a4 31 bd 24 bf a3 bd
       -0.08432888 -0.10168002 -0.04336951 -0.079954416
0000f0 59 f7 3d ba 56 bb 1e bd 67 78 12 bd 42 54 a2 bd
       -0.00072466355 -0.038752876 -0.035759356 -0.07926227
000100 d6 60 14 bd 60 84 b0 bd b9 7a e9 bc 2c fc 53 bd
       -0.036225162 -0.086189985 -0.028500902 -0.05175416
000110 5f d3 dc bd b4 79 dd bd 51 ed 95 bd 21 e1 a7 bc
       -0.10782503 -0.10814229 -0.07320655 -0.020493092
000120 1c 76 2a bd dc 0c 6c bc 30 03 71 bc f3 ad e4 bd
       -0.041616544 -0.014407363 -0.014710233 -0.11165991
000130 a4 c9 bc bd 70 cf 80 bd 00 2a 91 bd 85 a9 b5 bd
       -0.092181474 -0.062895656 -0.07088089 -0.08870224
000140 8c 77 a3 bd 82 42 b2 bd 5e 75 65 bd 76 f2 95 bd
       -0.07981786 -0.087040916 -0.056020133 -0.073216364
000150 bb 70 39 bd 82 db 8d bd d0 8d 9c bd 58 1e 6e bc
       -0.045273524 -0.069266334 -0.07644236 -0.014533602
000160 23 e0 07 bd bb 4e b8 bc a8 1f bd bd 80 cf ba bc
       -0.033172738 -0.02249848 -0.092345536 -0.022804022
000170 49 94 1e bd a2 35 00 bd 66 63 33 bc 79 4d c9 bb
       -0.038715634 -0.03130115 -0.010948991 -0.0061432687
000180 1a 4e ab bb ce d6 88 bd a6 3c 71 bd 48 66 a8 bd
       -0.0052278163 -0.06681596 -0.05889573 -0.082226336
000190 7c d8 93 bd ae 37 35 bd 9a 90 d2 bd fd 11 a7 bd
       -0.072190255 -0.044242553 -0.10281487 -0.08157728
0001a0 0d 5e 34 bd 2a 62 97 bc 41 40 24 bd 89 3e 9f bd
       -0.044035006 -0.018479425 -0.04010034 -0.077755995
0001b0 e2 0c a4 bd c5 98 d9 3a be dc a6 bc 2b b3 9a bb
       -0.0801027 0.0016601315 -0.02036893 -0.0047210655
0001c0 43 c2 b8 bd bb ca ba bc 87 20 3c bd 2e 1c 96 bd
       -0.090214275 -0.022801748 -0.045929458 -0.073295936
0001d0 5f f0 cd bc 0f f5 c6 bc 56 81 a3 bd de 9c 8a bd
       -0.025139032 -0.024286775 -0.07983653 -0.06768201
0001e0 5f 2e 8d bd 32 16 38 bd 8f 13 89 bd ab 2f 3e bd
       -0.0689361 -0.044943042 -0.06693184 -0.04643218
0001f0 14 d6 6b bd 02 5a ad bc f6 ec 5d bd 09 8b b8 bc
       -0.057577208 -0.021161083 -0.05418106 -0.022527235
000200 b1 71 da bc 95 ff 94 bb fc 04 ad bc ac 63 95 bc
       -0.02666554 -0.0045470693 -0.02112054 -0.018236004
000210 08 86 9c bd 4e e7 39 bd f1 52 a5 bd ec 62 d4 bc
       -0.07642752 -0.045386605 -0.080724604 -0.025926076
000220 d0 24 21 bd a0 c7 97 bd 4e a8 17 bd a7 eb 00 bd
       -0.039341748 -0.07411122 -0.037025742 -0.031474736
000230 5b ee 07 bc b7 e3 76 bc 90 7b 1b bd 6b e6 82 bd
       -0.0082965745 -0.01506894 -0.037959635 -0.06391605
000240 44 91 9e bd 36 28 bb bd 4a 1f 87 bd 6a d2 c7 bc
       -0.07742551 -0.09138529 -0.06597765 -0.024392325
000250 f4 63 ae bd 50 a8 e4 bb 77 65 2b bc 81 4e 86 bd
       -0.08515158 -0.006978072 -0.010461203 -0.06557942
000260 0c 8c e8 bc 08 3c 9a bd 2c b0 65 bb 96 c7 65 bd
       -0.028387092 -0.07530981 -0.0035047634 -0.056098543
000270 99 be 96 bd bb cb 7b bd 54 d2 88 bd 74 96 a4 bd
       -0.07360572 -0.06147359 -0.06680742 -0.08036509
000280 e9 41 7b bd 8c 92 02 bd 81 fd 3b bd b3 2c 18 bd
       -0.061342154 -0.03187804 -0.045896057 -0.037152003
000290 5b 1d 96 bd 9f 23 fa bc ae 08 b6 bd 0d 19 82 bd
       -0.07329818 -0.030534564 -0.08888374 -0.06352434
0002a0 32 7f 8a bd 7f 19 a9 bd bc 5e 9e bd c9 6e a2 bd
       -0.06762542 -0.08256816 -0.07732913 -0.07931287
0002b0 56 3a 2d bd dc ad a2 bd ac 02 9c bd 50 07 af bd
       -0.04229196 -0.07943317 -0.07617697 -0.085463166
0002c0 bf 4b 9e bd 45 aa 91 bc 75 fd 6e bd 3f 8f 79 bd
       -0.07729291 -0.017781386 -0.058347184 -0.060927626
0002d0 b6 f1 9e bc c8 a6 4e bd 6b 9f 21 bd 92 03 d9 bc
       -0.019402366 -0.050452024 -0.039458673 -0.02649096
0002e0 ae 12 dc bc 4c f5 4e bd bc 3a 29 bc 96 e3 ac bd
       -0.026864376 -0.050526902 -0.010328945 -0.08441846
0002f0 08 47 a5 bd b6 aa bf bc dd c0 66 bd d0 ba b0 bd
       -0.08070189 -0.023396831 -0.056336273 -0.08629382
000300 5d f9 83 bd 2d d4 40 bd 49 61 98 bd 38 df af bd
       -0.06444047 -0.047077347 -0.07440431 -0.085874975
000310 8c 49 af bd 0b 0e a0 bc 0e bf 67 bd 6e e4 4a bc
       -0.0855895 -0.019537946 -0.05657869 -0.012383563
000320 27 2c 94 bd 42 38 9f bd e8 eb 61 bd 44 ad cd bd
       -0.07234984 -0.07774402 -0.05515662 -0.100428134
000330 69 65 7d bc 40 ad fd bc d8 68 ff bb d3 a2 67 bc
       -0.015466073 -0.030966401 -0.007794481 -0.014137941
000340 a6 5d 61 bc 57 aa 01 bd 64 1b 07 bc 8f e3 97 bc
       -0.013755238 -0.03165659 -0.0082462765 -0.018541126
000350 be c7 1f bd 3e c0 9a bd 43 e0 74 bd 04 8f 52 bd
       -0.03900885 -0.075561985 -0.059784185 -0.05140592
000360 6c 0f e2 bd e2 66 f4 bb 82 89 b5 bd c2 bd 8a bd
       -0.11038098 -0.0074585536 -0.08864118 -0.06774475
000370 33 c1 79 bd 55 4c 61 bd 39 54 bc bc 09 1f a0 bd
       -0.060975265 -0.055004437 -0.02298938 -0.078184195
000380 af 4d 2e bd ee f6 2b bd 78 26 91 bd d2 54 9c bd
       -0.042554554 -0.041983537 -0.070874155 -0.07633366
000390 a0 b1 b2 bd 5a 76 ba bd 82 fe 88 bd 69 95 ad bd
       -0.087252855 -0.09104605 -0.066891685 -0.08475763
0003a0 88 b8 14 bd 41 57 5d bd 02 82 95 bd e7 9c 2c bd
       -0.036308795 -0.05403829 -0.07300188 -0.04214182
0003b0 4c 0a 0e bd bc d3 ab bd c2 a9 ab bc 49 7c a3 bd
       -0.03467779 -0.083899945 -0.02095497 -0.0798269
0003c0 77 ca ae bb 7a c6 24 bd 83 82 3e bd 1b b8 9a bd
       -0.0053341943 -0.040228345 -0.046511184 -0.075546466
0003d0 2a f1 11 bd 91 4f d8 bd c0 30 53 bd e4 35 8b bd
       -0.035630383 -0.10562051 -0.051560163 -0.06797388
0003e0 19 e3 a0 bd 6c e1 83 bd c3 37 b7 bc 95 34 b8 bb
       -0.078558154 -0.0643948 -0.022365456 -0.0056215026
0003f0 2d cb 08 bd 72 a9 66 bd a1 3e 97 bc 92 c9 ae bc
       -0.03339689 -0.05631394 -0.018462481 -0.02133635

encoder.encoder1.2.bias f4 [32]
000000 d1 0b ff bb 15 b0 8d bd cb f2 a8 bd ca 66 22 bd
       -0.007783391 -0.069183506 -0.08249434 -0.03964881
000010 f8 df 7d bd 9e 92 4d bd ae 76 b2 bd 5c 4d a9 bd
       -0.06198117 -0.050188653 -0.087140426 -0.08266708
000020 3d 01 c0 bb d5 a3 3b bd 6f f0 99 bd 46 ab 91 bd
       -0.0058595226 -0.04581054 -0.07516562 -0.07112746
000030 aa 42 a9 bd 3d fd ba 3e 9d 1f d3 3b a0 38 41 bd
       -0.08264668 0.3652133 0.0064429776 -0.047173142
000040 fa 80 13 bd 3f b9 8e bd cc 08 85 bd 81 4a 9f 3d
       -0.036011674 -0.06968927 -0.064958185 0.07777882
000050 f6 ff 32 bd a9 d2 45 be c9 ad 2f bd 0d da 85 bb
       -0.043701135 -0.19318642 -0.042890344 -0.0040848316
000060 8c 0b c5 bc 4e b5 f1 bc 63 a7 05 bd bb 41 9a bd
       -0.024053358 -0.029505398 -0.032630336 -0.07532068
000070 8f 0e 2e bd 76 24 2a bd fe ac c0 bc ef 89 4f bd
       -0.042494353 -0.041538678 -0.02351999 -0.050668653
