CAC/DC/networks/weights/DC/DC_4_myTestCACclassifierAccuracy.pth (torch, 754052 bytes, 19 tensors)

anchors f8 [4, 4]
0	0x4024000000000000	10.0
1	0x0000000000000000	0.0
2	0x0000000000000000	0.0
3	0x0000000000000000	0.0
4	0x0000000000000000	0.0
5	0x4024000000000000	10.0
6	0x0000000000000000	0.0
7	0x0000000000000000	0.0
8	0x0000000000000000	0.0
9	0x0000000000000000	0.0
10	0x4024000000000000	10.0
11	0x0000000000000000	0.0
12	0x0000000000000000	0.0
13	0x0000000000000000	0.0
14	0x0000000000000000	0.0
15	0x4024000000000000	10.0

encoder.conv1.weight f4 [32, 1, 16]
0	0xbe0a463e	-0.13503358
1	0xbdd068ec	-0.10176262
2	0xbe6c26e9	-0.23061718
3	0xbe1d0dcf	-0.15337299
4	0xbd12e420	-0.03586209
5	0xbe7d1cff	-0.24718092
6	0xbe99b628	-0.30021787
7	0x3db4f628	0.08836013
8	0x3da065be	0.07831906
9	0xbda590f5	-0.08084289
10	0x3e15d6df	0.14632748
11	0x3d825b72	0.06365098
12	0xbe53c8ad	-0.2068202
13	0xbea49300	-0.32143402
14	0xbdbacab2	-0.09120692
15	0xbe1742a3	-0.14771514
16	0x3ad6c175	0.0016384559
17	0xbe018b96	-0.12650904
18	0x3d4a9cd2	0.04946596
19	0xbe088bd3	-0.13334589
20	0xbe0aea24	-0.1356588
21	0xbdfb70b8	-0.12277359
22	0xbe8996d5	-0.26872888
23	0xbcafbb6f	-0.02145168
24	0xbe141a45	-0.14463146
25	0xbea6fb41	-0.32613567
26	0xbebd4476	-0.36966294
27	0x3e5320d7	0.20617996
28	0x3e26dea1	0.16295864
29	0x3d845d08	0.06463057
30	0xbd8aaa29	-0.06770737
31	0xbdc385cb	-0.09547003
32	0xbe236965	-0.15958174
33	0xbdf43843	-0.119247936
34	0xbe63bf96	-0.22241053
35	0x3d6811ca	0.05665759
36	0xbe5356ee	-0.2063863
37	0x3bb62d7b	0.005559621
38	0xbe08f38e	-0.13374159
39	0x3db678bd	0.08909748
40	0xbea323ec	-0.31863344
41	0xbd0fb449	-0.035084043
42	0x3daf4c2a	0.08559449
43	0x3d05a146	0.032624505
44	0xbc0f3624	-0.0087409355
45	0xbe59998b	-0.21249978
46	0xbe39827d	-0.18116184
47	0xbdffa0be	-0.12481831
48	0xbe2e7676	-0.17037377
49	0xbe2176ff	-0.1576805
50	0x3b16a8b3	0.0022988736
51	0xbd318038	-0.04333517
52	0x3b0f1568	0.0021832827
53	0xbe2dc783	-0.16970639
54	0xbe75bbf1	-0.23997475
55	0xbdcf555b	-0.10123702
56	0x3de9e4f6	0.11420624
57	0xbe5d2495	-0.21595986
58	0xbee808d9	-0.4531925
59	0xbe952827	-0.29132196
60	0xbd285b4d	-0.041102696
61	0xbd272ab8	-0.040812224
62	0x3df83b05	0.12120632
63	0xbd4a0902	-0.049324997
64	0xbe944a45	-0.28962913
65	0x3d6e2907	0.058144595
66	0xbcd4767d	-0.025935406
67	0xbceea194	-0.02912978
68	0xbe2495dc	-0.16072792
69	0x3ca0e5cc	0.019640826
70	0xbd116b44	-0.035502687
71	0xbea36273	-0.31911048
72	0xbeacb51e	-0.3373193
73	0xbe41bad1	-0.18918921
74	0xbe21f64f	-0.15816616
75	0x3c759b28	0.014990605
76	0xbda60a50	-0.08107436
77	0xbdb03e1f	-0.08605599
78	0xbd5cb67d	-0.053884972
79	0xbe469b4b	-0.19395177
80	0xbd12b230	-0.035814464
81	0xbd6f8527	-0.058476593
82	0xbe9a102e	-0.3009047
83	0xbeb01622	-0.34391886
84	0x3e8f6e31	0.28013757
85	0xbdecbd72	-0.11559571
86	0xbe7bc0f4	-0.24585325
87	0xbe98707f	-0.29773328
88	0x3db0d30c	0.08634004
89	0x3cb47908	0.022030368
90	0xbe494906	-0.19656762
91	0xbe2150b6	-0.15753445
92	0x3daa50c6	0.083161876
93	0xbe1673e3	-0.14692645
94	0xbe9d6365	-0.30739895
95	0xbe02a5f0	-0.12758613
96	0xbe1864f0	-0.14882255
97	0xbe865428	-0.2623608
98	0xbebe2588	-0.3713801
99	0xbe8352c9	-0.25649098
100	0xbec712e3	-0.38881597
101	0xbedca653	-0.43095645
102	0xbe917f65	-0.28417507
103	0xbef95b0f	-0.48702285
104	0xbe927b9b	-0.28609928
105	0xbcc196d5	-0.023631493
106	0xbe58c245	-0.21167858
107	0xbdf05cfb	-0.117364846
108	0xbe26911c	-0.16266292
109	0xbe6cbe64	-0.23119503
110	0xbe8d1f43	-0.27562913
111	0xbca7c7be	-0.020480987
112	0xbd0bc7c7	-0.03412607
113	0xbd6061b4	-0.054780677
114	0x3dc35269	0.09537203
115	0xbe5dd6e8	-0.21664011
116	0x3c98077b	0.018558254
117	0xbe6a9997	-0.22910152
118	0x3d95f1ea	0.07321532
119	0xbd57937d	-0.05263089
120	0xbd68825b	-0.05676494
121	0xbd05b99f	-0.032647725
122	0xbd470075	-0.04858442
123	0xbe51d947	-0.20493041
124	0x3dd7abbc	0.105308026
125	0xbe038887	-0.1284505
126	0xbdb59c1f	-0.08867668
127	0xbe44db0f	-0.19224189
128	0xbc03261d	-0.008004692
129	0xbe6befe7	-0.23040734
130	0xbda02834	-0.07820168
131	0xbdcd7855	-0.10032717
132	0xbc0096b6	-0.007848432
133	0x3d9e1b14	0.077200085
134	0xbcd3d99d	-0.025860602
135	0xbdd3da2e	-0.10344349
136	0x3d05908e	0.03260856
137	0xbe73f044	-0.23822123
138	0x3e068330	0.13135982
139	0xbe1deba4	-0.15421921
140	0x3d5487e1	0.051887397
141	0xbda307e5	-0.0796049
142	0xbe63c57d	-0.22243305
143	0xbdea9752	-0.11454643
144	0xbe38a4ba	-0.18031588
145	0xbd8a2174	-0.06744662
146	0x3b8417e0	0.0040311664
147	0xbd7eb390	-0.062182963
148	0x3d9563dc	0.07294437
149	0xbce5aac4	-0.028035529
150	0xbe39cd38	-0.18144691
151	0x3d99c04d	0.075073816
152	0xbe1d6c3f	-0.15373324
153	0xbc8df16b	-0.017327031
154	0xbe22d093	-0.15899877
155	0xbe7dfed2	-0.24804237
156	0xbc880eae	-0.016608562
157	0x3d306866	0.043068312
158	0x3d41e80b	0.047340434
159	0xbe68b19b	-0.22724001
160	0xbe3d2911	-0.18472697
161	0xbe18b137	-0.14911352
162	0xbe0a00fa	-0.13476935
163	0xbe3370fc	-0.17523569
164	0xbd3e5578	-0.046468228
165	0xbda7a90e	-0.081865415
166	0xbd138b00	-0.036021233
167	0x3cbad872	0.022808287
168	0x3deadd30	0.114679694
169	0xbe9724d4	-0.29520285
170	0xbe892141	-0.26783183
171	0x3deb9271	0.11502541
172	0xbcf78b26	-0.030217718
173	0xbd788d16	-0.060681425
174	0x3db53a00	0.08848953
175	0xbd901311	-0.07034887
176	0xbe1320e4	-0.14368016
177	0xbed24f9a	-0.41076356
178	0x3d1b4782	0.037909992
179	0x3c539222	0.012913259
180	0xbdd98c35	-0.106224455
181	0xbdd590ef	-0.104280345
182	0xbe8c69f0	-0.27424574
183	0xbea14bde	-0.31503195
184	0x3cdd0575	0.026980141
185	0x3e1131d5	0.14179166
186	0x3d243c5a	0.04009662
187	0x3e4bc403	0.19898991
188	0xbd2f4537	-0.042790618
189	0x3d3da1d5	0.046296913
190	0x3e047db2	0.12938574
191	0x3daeb5cb	0.08530768
192	0xbd980497	-0.074227504
193	0xbe8d9ee4	-0.27660286
194	0xbe51d777	-0.2049235
195	0xbdf86e96	-0.121304676
196	0xbe84ea4e	-0.2596001
197	0xbda40c76	-0.08010189
198	0xbd2a4bca	-0.041576184
199	0xbda2b50d	-0.07944689
200	0xbc191e89	-0.009345659
201	0xbe1017e0	-0.14071608
202	0xbd8033c5	-0.06259874
203	0xbda86779	-0.08222861
204	0xbdc7a3fc	-0.097480744
205	0xbeb11e9b	-0.34593663
206	0xbd12f07b	-0.03587387
207	0xbb9ee6e1	-0.0048493003
208	0xbc8bfd57	-0.017088575
209	0xbdb7a02a	-0.08966096
210	0xbe6affeb	-0.22949187
211	0x3dd26b34	0.102743536
212	0xbe3f0313	-0.18653516
213	0xbc44236a	-0.011971334
214	0xbe9e1782	-0.3087731
215	0x3dd1a2d4	0.10236135
216	0xbeaa020d	-0.3320469
217	0xbe25283b	-0.16128628
218	0x3e0756c8	0.13216698
219	0xbe9e8843	-0.30963334
220	0x3e093474	0.13398916
221	0x3dd2349c	0.10263941
222	0xbd9e0ecf	-0.07717668
223	0xbdfd222a	-0.12360032
224	0xbe8a7f11	-0.2705007
225	0xbe0719f1	-0.1319349
226	0xbe65e13a	-0.22449198
227	0xbe436e34	-0.19085008
228	0xbcef73d3	-0.029230034
229	0x3c623e61	0.013808818
230	0x3d594f2c	0.05305402
231	0xbd42d18e	-0.04756313
232	0x3de53282	0.11191274
233	0xbe9fc31c	-0.31203544
234	0xbe2f0da9	-0.17095055
235	0x3d4639ca	0.048394956
236	0xbec2ba41	-0.38032725
237	0xbe0dd88d	-0.13852139
238	0xbebecf09	-0.3726733
239	0xbe83c6a9	-0.25737503
240	0xbebb3a83	-0.36568078
241	0xbe9d9437	-0.3077714
242	0x3c6c33f5	0.014416684
243	0xbe5b95cb	-0.2144386
244	0xbe25076b	-0.16116111
245	0xbeca9a03	-0.39570627
246	0xbe0f8a63	-0.14017634
247	0xbe552625	-0.20815332
248	0x3c8be691	0.017077716
249	0x3d2ccfd6	0.042190395
250	0x3dcd467b	0.10023209
251	0x3c856676	0.016284209
252	0xbe7e7bd5	-0.24851926
253	0xbea630fd	-0.3245925
254	0x3dd6c3fe	0.10486601
255	0x3dfc5b57	0.12322109

encoder.conv1.bias f4 [32]
0	0x3d83fa25	0.06444196
1	0xbd1d1b3f	-0.038356062
2	0xbe8af190	-0.27137423
3	0xbf08a22f	-0.5337247
4	0xbeb5e132	-0.35523373
5	0xbdcc3a05	-0.09972004
6	0x3ef8520c	0.48500097
7	0xbe364836	-0.17800984
8	0xbddbee4c	-0.10738811
9	0xbe553d7a	-0.20824233
10	0xbf0774a3	-0.5291235
11	0xbf18557e	-0.5950545
12	0xbf351b12	-0.7074443
13	0xbc10362b	-0.008801977
14	0xbe5905d4	-0.2119363
15	0xbe1192ea	-0.142162
16	0xbdbcbd8f	-0.09215843
17	0x3d7d675d	0.061866153
18	0xbe36e032	-0.17858961
19	0x3e674585	0.22585113
20	0xbe1454c9	-0.14485468
21	0xbd430f15	-0.047621805
22	0xbcf74600	-0.030184746
23	0xbf13dd51	-0.5775958
24	0x3e9a1691	0.30095342
25	0x3c56eafb	0.013117547
26	0xbf497681	-0.7869645
27	0xbec63a74	-0.3871647
28	0xbdaf81cc	-0.08569679
29	0x3e2cd817	0.16879307
30	0xbdb5ddfa	-0.08880229
31	0xbce24ff5	-0.027626017

encoder.conv2.weight f4 [32, 32, 16]
0	0xbdcc7961	-0.09984089
1	0xbd5c5dd6	-0.053800426
2	0xbd8e452e	-0.06946789
3	0xbd1c87ae	-0.03821533
4	0xbdbae09b	-0.09124871
5	0x3d8b5420	0.06803155
6	0x3d837d6c	0.06420407
7	0x3d8b8728	0.068128884
8	0xbdb751f6	-0.0895118
9	0xbdc699e1	-0.09697319
10	0xbdc6fc7b	-0.097161256
11	0xbd199264	-0.037493125
12	0xbd545440	-0.05183816
13	0x3d1e7217	0.038683023
14	0x3c931bd1	0.0179576
15	0xbd359b42	-0.04433752
16	0xbdcacd47	-0.09902435
17	0xbdcad4f5	-0.099038996
18	0x3d66871c	0.056281194
19	0x3d065c7c	0.032803044
20	0xbdacd643	-0.08439305
21	0xbc94a334	-0.018144228
22	0xbccc27e4	-0.024921365
23	0xbd8375b9	-0.06418938
24	0xbdac845e	-0.084236845
25	0xbcfef7c1	-0.031123998
26	0xbda32e77	-0.07967847
27	0xbd200c86	-0.039074443
28	0xbd55c422	-0.052189
29	0x3d0e3051	0.034714047
30	0xbdfda2fa	-0.12384601
31	0xbce4c15f	-0.027924238
32	0xbd09128c	-0.033464953
33	0xbdcfaa39	-0.10139889
34	0xbda3b9eb	-0.079944454
35	0xbd381924	-0.04494585
36	0xbd8f2c07	-0.069908194
37	0xbdaf776d	-0.085677005
38	0xbd98275f	-0.074293844
39	0xbd14810b	-0.036255877
40	0x3d41ebce	0.04734402
41	0x3d1d56de	0.03841292
42	0x3db37376	0.08762257
43	0x3d81aa12	0.063312665
44	0xbd98a849	-0.07453973
45	0x3da7ad65	0.08187369
46	0x3d8a5642	0.067547336
47	0x3d3247b8	0.043525428
48	0x3dc405ce	0.0957142
49	0x3d796774	0.060889676
50	0xbda9c0f9	-0.0828876
51	0xbdcede81	-0.10101033
52	0xbd214c4b	-0.0393794
53	0xbd1a684c	-0.03769712
54	0xbdbad9a1	-0.09123541
55	0xbd16d402	-0.03682328
56	0xbd3855c6	-0.045003675
57	0xbd54ca02	-0.051950462
58	0xbd9cc8c3	-0.0765548
59	0x3c692636	0.014230302
60	0x3d4bb104	0.049729362
61	0xbd05ccec	-0.03266613
62	0xbdcf3872	-0.10118188
63	0xbd97a3d2	-0.07404293
64	0x3d6b868a	0.057501353
65	0xbd4bc6cf	-0.049750146
66	0xbda3b5f8	-0.07993692
67	0xbd6ef4f2	-0.058339067
68	0xbd8b4885	-0.068009414
69	0xbd846025	-0.064636506
70	0xbd337614	-0.04381378
71	0xbd2a6687	-0.041601684
72	0xbd703a2c	-0.058649227
73	0x3d63d0a4	0.055618897
74	0xbd3dc0d5	-0.046326477
75	0x3d5c7c1e	0.053829305
76	0x3d477abe	0.04870104
77	0x3d1609bd	0.03663038
78	0x3d44ac9c	0.048016176
79	0x3cc819ec	0.024426423
80	0xbdb6555c	-0.08903
81	0xbd42648d	-0.047459174
82	0xbd87c595	-0.06629483
83	0xbd549e2f	-0.051908668
84	0xbdace202	-0.08441545
85	0x3d262e85	0.04057171
86	0xbd69ae68	-0.057051092
87	0xbd54157c	-0.0517783
88	0xbcb5db62	-0.022199336
89	0xbd4f7af3	-0.050654363
90	0xbd9efe49	-0.07763345
91	0xbcbc9896	-0.023021977
92	0xbda593a3	-0.080848
93	0xbcb93d3a	-0.022612203
94	0xbde3a903	-0.11116221
95	0x3d8b1186	0.06790452
96	0xbd32adba	-0.04362271
97	0x3ce08637	0.027407749
98	0x3da2ead2	0.07954945
99	0x3d295f37	0.04135057
100	0xbda6195c	-0.08110306
101	0x3caadf3d	0.020858401
102	0x3d195379	0.03743312
103	0xbd75e3b0	-0.060031593
104	0x3d360b12	0.04444415
105	0xbda81122	-0.08206393
106	0xbd731a17	-0.059351053
107	0xbd2735fb	-0.040822964
108	0x3db5df96	0.08880536
109	0x3d15f686	0.036612056
110	0x3d4f3b7f	0.05059385
111	0x3d7f48ff	0.062325474
112	0xbdc76b79	-0.09737296
113	0xbdcdd7f4	-0.100509554
114	0xbd9b0acb	-0.07570418
115	0xbd7c13ed	-0.06154244
116	0xbdc8f511	-0.09812368
117	0xbd3a0fd7	-0.045425262
118	0xbdaa5bbf	-0.083182804
119	0xbd284fa2	-0.04109157
120	0xbdbeef18	-0.09322947
121	0xbd0da206	-0.034578346
122	0xbcb64984	-0.022251852
123	0xbd52603d	-0.05136131
124	0xbd73fa60	-0.059564948
125	0x3d5d7832	0.054069705
126	0x3cbe8745	0.02325786
127	0xbddb5e30	-0.10711324
128	0xbd27a74f	-0.040931042
129	0xbd296d05	-0.041363735
130	0xbdc50be3	-0.09621408
131	0xbcda01bb	-0.026612153
132	0xbc8ef52c	-0.017450891
133	0xbdc54be0	-0.09633613
134	0xbdab8896	-0.08375661
135	0xbdbc0e30	-0.091823936
136	0x3c0498be	0.008093057
137	0x3d28bf18	0.041197866
138	0x3cc739db	0.02431958
139	0xbcafba84	-0.021451242
140	0xbcc6b6d4	-0.024257101
141	0xbd463ebb	-0.04839967
142	0x3d3415c9	0.04396609
143	0xbdc3ecd0	-0.09566653
144	0xbc8fdb9a	-0.017560769
145	0xbdcba0ec	-0.09942803
146	0xbd5ade10	-0.05343443
147	0xbdd43574	-0.10361758
148	0xbd79836d	-0.060916353
149	0xbda09005	-0.078399695
150	0xbd8834da	-0.06650706
151	0xbdccd744	-0.10001996
152	0xbdc4b19c	-0.09604189
153	0xbd86dda2	-0.06585242
154	0xbdc03b13	-0.093862675
155	0x3d5ea685	0.054358024
156	0x3dc52131	0.096254714
157	0xbd124cfa	-0.03571794
158	0xbdba6b03	-0.09102442
159	0xbccdf30c	-0.025140308
160	0xbdc0a32b	-0.09406122
161	0xbd9c6d58	-0.07638043
162	0xbdd1aae8	-0.10237676
163	0xbd3379a8	-0.043817192
164	0xbdc93df3	-0.09826269
165	0xbdbd4338	-0.092413366
166	0xbcfaf3fc	-0.030633919
167	0xbd19349d	-0.03740369
168	0xbe046e51	-0.12932707
169	0xbd9d3e38	-0.07677883
170	0xbd7cb6a8	-0.061697632
171	0xbda7428c	-0.0816699
172	0xbd5b2d4b	-0.05350999
173	0xbda9549b	-0.0826809
174	0xbd9d6c74	-0.076867014
175	0xbcf84c80	-0.030309916
176	0xbcfe19e0	-0.031018198
177	0xbce93d91	-0.02847174
178	0xbd8a5cb9	-0.06755967
179	0xbdd14acc	-0.102193445
180	0xbdc63a55	-0.09679095
181	0xbdaad79c	-0.083419055
182	0xbde6a634	-0.112621695
183	0xbccecae3	-0.025243228
184	0xbd31f6c9	-0.043448243
185	0xbd3593f1	-0.04433054
186	0x3c7e2ac1	0.015513123
187	0xbc945879	-0.018108593
188	0xbd90a0de	-0.07061933
189	0xbdafa2cd	-0.08575974
190	0xbdbbfe04	-0.09179309
191	0xbd8bc392	-0.068244115
192	0xbce657b8	-0.028118
193	0xbcc88805	-0.024478922
194	0xbd5a5e17	-0.053312387
195	0xbda17bae	-0.07884918
196	0xbdc03caa	-0.09386571
197	0x3d81cacf	0.06337511
198	0x3cd2d3f6	0.025735836
199	0x3dd15386	0.10221009
200	0x3c9cd9ed	0.019146884
201	0x3d3ecaf7	0.04658028
202	0xbc9d673f	-0.01921427
203	0xbd9f07f7	-0.07765191
204	0xbd5a25f4	-0.05325885
205	0xbdbb32e8	-0.09140569
206	0x3d5269c2	0.05137039
207	0xbd4881e7	-0.04895201
208	0xbd91bc1a	-0.07115956
209	0xbd97dddd	-0.07415364
210	0x3db3eaa7	0.08784991
211	0x3da09298	0.078404605
212	0xbd39395d	-0.04522072
213	0xbd7b91f3	-0.061418485
214	0xbd91dbc0	-0.07121992
215	0xbd60b6c4	-0.0548618
216	0xbdadf1e6	-0.08493404
217	0xbdc598c1	-0.09648276
218	0xbdc656e6	-0.09684543
219	0xbd13e971	-0.0361113
220	0xbd861b55	-0.06548182
221	0xbdb8aa14	-0.09016815
222	0xbdb960f5	-0.09051696
223	0xbcdc48cd	-0.026890183
224	0xbdca5ede	-0.09881376
225	0xbdce0945	-0.10060362
226	0xbd327180	-0.043565273
227	0xbdc45a14	-0.095874935
228	0xbdbacc33	-0.09120979
229	0xbd0d577f	-0.03450727
230	0xbdca3e93	-0.09875216
231	0x3d354553	0.044255566
232	0x3cbe7fb4	0.023254253
233	0x3cab6929	0.020924168
234	0x3d5add88	0.053433925
235	0xbd9bc0f1	-0.0760516
236	0xbd62eacf	-0.055399712
237	0x3cdef212	0.027215037
238	0xbca3e863	-0.020008272
239	0xbd6624e2	-0.056187518
240	0xbda069dd	-0.07832692
241	0xbd4316d2	-0.047629185
242	0xbd298996	-0.041390978
243	0xbdd17572	-0.10227479
244	0xbdcc9ac8	-0.0999046
245	0xbe2dc8e2	-0.16971162
246	0x3c8c451d	0.0171228
247	0xbd804335	-0.06262819
248	0xbd864c91	-0.06557573
249	0xbd9915b2	-0.07474841
250	0xbd4dbf14	-0.050231054
251	0xbd4dbb41	-0.050227407
252	0xbd9f1671	-0.07767952
253	0xbdb3cefe	-0.08779715
254	0x3d93b34e	0.07211934
255	0xbd0c67b6	-0.034278594

encoder.conv2.bias f4 [32]
0	0xbe343b77	-0.17600809
1	0xbe5de09e	-0.21667716
2	0xbda69462	-0.081337705
3	0xbe32093b	-0.17386334
4	0xbe91d432	-0.28482205
5	0xbe376c63	-0.1791244
6	0xbcf8e023	-0.030380314
7	0xbdbb54f7	-0.09147065
8	0xbca1a886	-0.019733679
9	0xbdcfa9d4	-0.10139814
10	0xbdf56549	-0.11982209
11	0xbeb1d93b	-0.34736046
12	0xbe14f08f	-0.14544891
13	0xbdc2759c	-0.094950885
14	0xbea6e872	-0.32599217
15	0xbe6530f6	-0.22381958
16	0xbe04f4d9	-0.12984027
17	0xbce815b0	-0.028330654
18	0xbc87fbca	-0.016599555
19	0xbdbb628a	-0.09149654
20	0xbe3d0826	-0.1846014
21	0xbd8ec77d	-0.06971643
22	0xbda306fd	-0.07960317
23	0xbcc0457f	-0.023470638
24	0xbda44434	-0.08020821
25	0xbebc2331	-0.367456
26	0xbda6dc7a	-0.08147521
27	0xbe922155	-0.28541055
28	0xbd984d40	-0.07436609
29	0xbe056dfa	-0.13030234
30	0xbd0fefc6	-0.035140775
31	0xbdd6e14f	-0.10492193

encoder.conv3.weight f4 [32, 32, 16]
0	0xbd74e565	-0.05978908
1	0xbdb5ca49	-0.088764735
2	0xbd4310ab	-0.047623318
3	0xbd186cab	-0.03721301
4	0xbd92138c	-0.071326345
5	0xbdbdd69f	-0.09269451
6	0xbd4e594d	-0.050378133
7	0xbdb4a38c	-0.088202566
8	0xbdbade1f	-0.091243975
9	0xbcb5e582	-0.022204164
10	0xbd7224b5	-0.059117038
11	0xbd18a8b1	-0.03727025
12	0xbd8b72f6	-0.068090364
13	0xbd55e5c3	-0.05222107
14	0xbdc5e691	-0.09663118
15	0xbd93ae24	-0.07210949
16	0xbd1726ab	-0.03690211
17	0xbcf3b9d0	-0.029751688
18	0xbcfdb844	-0.030971654
19	0xbd59cde5	-0.053174872
20	0xbdb4beaa	-0.08825429
21	0xbd2902d8	-0.041262478
22	0xbd8e8e84	-0.069607764
23	0xbd6e8818	-0.058235258
24	0xbdbc09d2	-0.091815606
25	0xbdb160b9	-0.086610265
26	0xbceb9e3b	-0.028761974
27	0xbdbf4ea7	-0.093411736
28	0xbd8dfe83	-0.0693331
29	0xbd3f3060	-0.046676993
30	0xbd063983	-0.03276969
31	0xbd941c7c	-0.072319955
32	0xbd2bb6a9	-0.041922245
33	0xbd8829e0	-0.06648612
34	0x3da4ef64	0.08053473
35	0xbdc50d13	-0.09621634
36	0xbdbc0236	-0.09180109
37	0xbd96ead2	-0.07369007
38	0xbd580fdc	-0.0527495
39	0xbdc8565c	-0.09782097
40	0xbdac9e9d	-0.084286906
41	0x3ce7edc5	0.02831162
42	0xbd9d74d7	-0.07688301
43	0xbda06bb1	-0.078330405
44	0xbda932da	-0.08261652
45	0xbd3e8fbb	-0.04652379
46	0xbd91a1e5	-0.07110957
47	0xbc8cdc4c	-0.01719489
48	0xbd39b135	-0.045335013
49	0xbd8915dc	-0.066936225
50	0xbd0ba554	-0.034093216
51	0xbd411a44	-0.04714419
52	0xbdd1d871	-0.10246361
53	0xbd8117bc	-0.06303355
54	0xbd06ada2	-0.032880433
55	0xbcd0656e	-0.02543899
56	0xbdbc7c15	-0.09203354
57	0xbd567875	-0.05236097
58	0xbdc3d2e9	-0.09561712
59	0xbd884e77	-0.06655591
60	0xbcf2b98f	-0.029629497
61	0xbcdc41cc	-0.026886843
62	0xbd96e279	-0.07367415
63	0xbd42cee9	-0.047560606
64	0xbdbde845	-0.092728175
65	0xbd915b1b	-0.07097455
66	0xbd383d68	-0.044980437
67	0xbd34c844	-0.0441363
68	0xbc8c7b16	-0.017148536
69	0xbdbf6d0e	-0.093469724
70	0xbced764f	-0.028987078
71	0xbdc23888	-0.09483439
72	0xbd4a3e90	-0.04937607
73	0xbcee2d0f	-0.02907422
74	0xbd162193	-0.036653113
75	0xbda73245	-0.08163885
76	0xbcbe9f2b	-0.023269257
77	0xbd853d7d	-0.065058686
78	0xbcc96c65	-0.02458782
79	0xbd81be1a	-0.06335087
80	0xbd729d74	-0.05923219
81	0xbdbdc9f0	-0.09267032
82	0xbcf38ebd	-0.029731149
83	0xbdc8a1e3	-0.097965024
84	0xbdc64be0	-0.09682441
85	0xbd2c2c70	-0.042034566
86	0xbd5ca497	-0.053867903
87	0xbd0a4bb7	-0.033763614
88	0xbdc79a22	-0.097461954
89	0xbd03ff7e	-0.03222608
90	0xbd889e36	-0.06670801
91	0xbdaee14d	-0.085390665
92	0xbdca5f47	-0.09881454
93	0xbd176e67	-0.036970522
94	0xbd54d8bd	-0.05196451
95	0xbd300df7	-0.042982068
96	0xbd816094	-0.06317249
97	0xbda14869	-0.07875139
98	0xbd973078	-0.073822916
99	0xbdc505cf	-0.096202485
100	0xbcb985cb	-0.022646805
101	0xbd6da63b	-0.058019858
102	0xbd8284ff	-0.06373023
103	0xbcdccedf	-0.026954113
104	0xbce4ef37	-0.027946098
105	0xbce29ae9	-0.027661758
106	0xbd568781	-0.05237532
107	0xbdb04b89	-0.08608157
108	0xbdbaeaf6	-0.091268465
109	0xbdbfa1ba	-0.09357019
110	0x3d353604	0.044240966
111	0xbd983fde	-0.07434057
112	0x3ceea790	0.029132634
113	0x3cf126fe	0.029437538
114	0x3d9c7604	0.07639697
115	0xbdaf2f9c	-0.08554003
116	0x3ce1c0c6	0.027557742
117	0x3d4baf2d	0.049727608
118	0xbda3abbc	-0.0799174
119	0xbd2a401b	-0.041565042
120	0x3cac138b	0.021005413
121	0xbd974da4	-0.07387856
122	0xbd471088	-0.04859975
123	0xbc6a3d17	-0.0142967915
124	0x3d91f0fb	0.071260415
125	0xbd954ad4	-0.07289663
126	0xbd980cab	-0.07424291
127	0xbda9a9c8	-0.08284336
128	0xbd54645f	-0.051853534
129	0xbd9e12aa	-0.07718404
130	0xbd1a473d	-0.037665594
131	0xbcf6d007	-0.030128492
132	0xbdd1d92d	-0.10246501
133	0xbd573e77	-0.052549805
134	0xbd3e05c2	-0.04639221
135	0xbcce85c0	-0.025210261
136	0xbcbf5f64	-0.023360915
137	0xbd8c1a6c	-0.06840977
138	0xbd1aa1a4	-0.03775181
139	0xbd8a8aa5	-0.067647256
140	0xbd92b90a	-0.071642
141	0xbdc225d2	-0.0947987
142	0xbd20e7c4	-0.03928353
143	0xbd1225d9	-0.035680626
144	0xbd8cbce0	-0.068719625
145	0xbd812ddb	-0.06307574
146	0xbd4f3202	-0.0505848
147	0xbd6e5c0f	-0.058193263
148	0xbd3071ed	-0.043077398
149	0xbd8ea805	-0.06965641
150	0xbdd2dacd	-0.10295639
151	0xbd9c88fc	-0.07643315
152	0xbd9a135c	-0.07523224
153	0xbd913a71	-0.07091225
154	0xbd6bd102	-0.057572372
155	0xbd840797	-0.0644676
156	0xbd216038	-0.039398402
157	0xbd42a185	-0.04751732
158	0xbdbd4337	-0.09241336
159	0xbd61dac5	-0.055140276
160	0xbda5347b	-0.080666505
161	0xbd0d5d28	-0.03451267
162	0xbd82a97c	-0.06379983
163	0xbd128a5e	-0.03577649
164	0xbdd30dc4	-0.1030536
165	0xbcc05e5b	-0.023482492
166	0xbdc53129	-0.09628517
167	0x3cb7cacb	0.022435566
168	0xbd0afd42	-0.03393293
169	0xbd2da535	-0.04239388
170	0xbd72ff30	-0.059325397
171	0xbd499dfb	-0.049222928
172	0xbd8fcffb	-0.07022091
173	0xbd07b5a0	-0.033132195
174	0xbd232931	-0.039834205
175	0xbd61af67	-0.055098917
176	0xbdcf969b	-0.101361476
177	0xbd9e9426	-0.07743101
178	0xbd6b5b0e	-0.057459883
179	0xbdd311b8	-0.10306114
180	0xbdc73282	-0.097264305
181	0xbdb83b81	-0.089957245
182	0xbd592cfb	-0.053021412
183	0xbdcf8ca3	-0.10134246
184	0xbcc8e306	-0.024522316
185	0xbcc56be9	-0.024099307
186	0xbd8c35c8	-0.068461955
187	0xbd609cc7	-0.054837015
188	0xbd8b8678	-0.06812757
189	0xbda194b5	-0.07889692
190	0xbd24fbbf	-0.040279146
191	0xbd51a40e	-0.051181845
192	0xbda3ec97	-0.0800411
193	0xbd48a0e5	-0.048981566
194	0xbd031257	-0.031999912
195	0xbd237b27	-0.03991237
196	0xbdd022f5	-0.101629175
197	0xbcb4d434	-0.022073843
198	0xbd2be4b4	-0.041966155
199	0x3cc8a3f9	0.02449225
200	0xbdc626ed	-0.09675393
201	0xbd5cc3e3	-0.05389775
202	0xbd0c79b9	-0.03429577
203	0xbca5f469	-0.020258145
204	0xbdc8fbbb	-0.09813639
205	0xbcecee5c	-0.028922252
206	0xbd426748	-0.047461778
207	0xbd9598e1	-0.0730455
208	0xbdb103fd	-0.08643339
209	0xbdae0642	-0.08497287
210	0x3c828e96	0.01593713
211	0xbd2e3545	-0.04253127
212	0x3d93b5d9	0.07212419
213	0x3db29d97	0.08721464
214	0xbdbbf1d6	-0.09176986
215	0xbd344644	-0.044012323
216	0xbdc052dd	-0.09390805
217	0xbd56cb44	-0.052439943
218	0xbd30b0b3	-0.043137264
219	0xbd5f683e	-0.054542772
220	0xbd85ff74	-0.065428644
221	0xbd7bf752	-0.06151516
222	0xbd97469c	-0.073865145
223	0xbd72a083	-0.059235107
224	0xbcc24d83	-0.023718601
225	0xbd2729a9	-0.040811215
226	0xbd76b602	-0.06023217
227	0xbdc8536b	-0.09781536
228	0xbdcba44b	-0.09943446
229	0xbdb98ed8	-0.090604484
230	0xbd8c9404	-0.06864169
231	0xbcfdd932	-0.030987356
232	0xbcad3b46	-0.021146428
233	0xbd46d09f	-0.0485388
234	0xbd2970d8	-0.04136738
235	0xbd453755	-0.04814847
236	0xbd222cc4	-0.039593473
237	0xbc9f5e5a	-0.01945417
238	0xbc9086ce	-0.017642405
239	0xbced2647	-0.028948916
240	0xbdacc303	-0.08435633
241	0xbdbc7aff	-0.09203147
242	0xbda71459	-0.08158178
243	0xbe1bda22	-0.1521993
244	0xbe15aebe	-0.1461744
245	0xbd07f0ce	-0.033188634
246	0xbe011566	-0.12605819
247	0xbe2622e3	-0.16224246
248	0xbe5eb478	-0.21748531
249	0xbe3f34a7	-0.18672429
250	0xbde8a16e	-0.11358915
251	0xbd936e88	-0.071988165
252	0xbd9edbea	-0.07756789
253	0xbda307a4	-0.07960442
254	0xbd508529	-0.05090824
255	0xbd949db6	-0.072566435

encoder.conv3.bias f4 [32]
0	0xbe16cd57	-0.14726768
1	0xbd756b21	-0.05991662
2	0xbda0aa4e	-0.07844983
3	0xbd8ac360	-0.06775546
4	0x3d647af8	0.055781335
5	0xbdb47b11	-0.088125356
6	0xbd73c8be	-0.059517615
7	0xbdb9a2bb	-0.090642415
8	0x3e468d8c	0.19389933
9	0xbcd8655a	-0.026415516
10	0xbd9e0f51	-0.07717765
11	0xbdaeba12	-0.08531584
12	0xbe0b353b	-0.13594525
13	0xbccc685a	-0.024952102
14	0xbd0beb40	-0.0341599
15	0xbd89ab61	-0.06722141
16	0xbd17bf6c	-0.03704779
17	0xbdc4b238	-0.09604305
18	0xbe38ffaa	-0.18066278
19	0xbdcbb1f1	-0.09946049
20	0xbda4eaa7	-0.08052569
21	0xbe4000c9	-0.187503
22	0xbca61068	-0.020271495
23	0xbe1283b4	-0.14308053
24	0xbd828da1	-0.0637467
25	0xbdfefdef	-0.12450778
26	0xbdda431c	-0.10657331
27	0xbd1b4f91	-0.037917677
28	0xbdd3e28b	-0.10345944
29	0xbd18c369	-0.037295733
30	0xbde44272	-0.11145486
31	0xbe0a6419	-0.13514747

encoder.dense1.weight f4 [64, 2400]
0	0x3d9a7f0f	0.07543766
1	0x3d9936a7	0.07481127
2	0x3d80a8f7	0.062822275
3	0x3d5427a8	0.05179563
4	0x3d56efca	0.052474774
5	0x3d37a710	0.044837058
6	0x3d489cbb	0.048977595
7	0xbd24fceb	-0.040280264
8	0xbd656350	-0.056002915
9	0xbd2bd898	-0.041954607
10	0x3d8a3a91	0.06749452
11	0x3d8c2ffc	0.0684509
12	0xbd5fcd90	-0.0546394
13	0x3d8cc5b3	0.06873646
14	0x3d92cb64	0.071677
15	0x3d805eff	0.06268119
16	0x3d427231	0.047472183
17	0xbd8107c1	-0.06300307
18	0x3d6467e5	0.055763144
19	0x3d86b347	0.06577163
20	0x3d494148	0.049134523
21	0x3d80bbe3	0.062858365
22	0x3d9e458c	0.07728109
23	0x3d57d712	0.05269534
24	0x3d7ac3d5	0.061221916
25	0xbd288ac4	-0.041147962
26	0x3d691ed1	0.056914154
27	0xbd686e95	-0.056746084
28	0xbd2ce51a	-0.042210676
29	0x3d984e69	0.074368306
30	0x3d70e179	0.058808777
31	0x3d399198	0.045304865
32	0x3d9b15ac	0.07572493
33	0x3d5a53c0	0.053302526
34	0x3d449316	0.047991835
35	0x3d92de20	0.07171273
36	0x3d8b7a4a	0.06810434
37	0xbd54a84f	-0.051918324
38	0x3d706bb1	0.058696453
39	0x3d49da8e	0.049280696
40	0x3d72d2ed	0.059283186
41	0x3d7ec9ae	0.062204055
42	0x3d9c30c2	0.07626487
43	0xbd986c68	-0.07442552
44	0xbd2f5c06	-0.04281237
45	0x3d5f75dc	0.05455576
46	0x3da05712	0.07829107
47	0x3da4206a	0.08013995
48	0xbd6eaffd	-0.058273304
49	0xbd3b96f7	-0.04579827
50	0xbd8cbafd	-0.06871603
51	0x3d82ed01	0.06392861
52	0xbd279206	-0.040910743
53	0x3d4c82a3	0.049929272
54	0x3d3794fe	0.044819824
55	0x3d984c58	0.074364364
56	0x3d8e339b	0.06943437
57	0xbd923f61	-0.07140995
58	0x3d4d9c6c	0.050198004
59	0xbd2b92fa	-0.041888215
60	0xbd666f75	-0.056258637
61	0x3d7e6a24	0.062112942
62	0xbd8a1641	-0.06742526
63	0xbd84eba0	-0.064902544
64	0xbd7834fe	-0.060597412
65	0x3d375df4	0.044767335
66	0x3d78cd96	0.060742937
67	0x3d66b624	0.056326047
68	0x3da15b7d	0.07878778
69	0xbda29aa4	-0.079396516
70	0xbd257137	-0.040391173
71	0xbd62704d	-0.05528288
72	0xbd4db2a0	-0.05021918
73	0x3d83f407	0.06443029
74	0x3da0fc2d	0.07860599
75	0xbd102bcb	-0.035198014
76	0xbcfa8f9e	-0.03058606
77	0xbd8ef72c	-0.06980738
78	0xbd98c68e	-0.07459746
79	0xbd385c0c	-0.045009658
80	0xbd817a47	-0.06322151
81	0xbd6b6322	-0.057467587
82	0xbd0153d6	-0.031574093
83	0xbd705b72	-0.05868096
84	0xbcabfeb8	-0.020995483
85	0xbd3e5e7d	-0.04647683
86	0xbcd2a53a	-0.025713552
87	0xbd6b0fa2	-0.057387955
88	0xbd7faf7b	-0.06242321
89	0xbc9f773e	-0.019466039
90	0xbd52dcf0	-0.051480234
91	0xbd654567	-0.05597439
92	0xbd376a25	-0.04477896
93	0xbdabfbef	-0.08397662
94	0xbd6518e7	-0.05593195
95	0xbd717548	-0.05894974
96	0xbd4f8337	-0.050662246
97	0xbd153c6a	-0.03643457
98	0xbda9b06d	-0.08285604
99	0xbd33ed85	-0.04392769
100	0xbd3cd344	-0.046099916
101	0xbd4a8383	-0.049441826
102	0xbd802de2	-0.062587515
103	0xbdb7be5a	-0.089718536
104	0xbd8ad38f	-0.06778633
105	0xbcb8ce19	-0.022559213
106	0xbd11b7c7	-0.035575654
107	0xbdce6cf4	-0.10079375
108	0xbdb1c167	-0.08679467
109	0xbda05200	-0.0782814
110	0xbd1b29f9	-0.037881825
111	0xbdb1297c	-0.08650491
112	0xbdbc7924	-0.09202793
113	0xbd857d78	-0.06518072
114	0xbd12d4c2	-0.035847433
115	0xbc920886	-0.01782633
116	0xbd09f26f	-0.03367847
117	0xbca194c3	-0.019724255
118	0xbd8f7528	-0.07004768
119	0xbd43db14	-0.04781635
120	0xbd740f25	-0.059584755
121	0xbd93bbaa	-0.072135285
122	0xbd0f3204	-0.034959808
123	0xbd6e1946	-0.05812957
124	0xbcd9525d	-0.026528532
125	0xbd53ce13	-0.0517102
126	0xbdae9a3c	-0.085255116
127	0xbd90b4a3	-0.07065704
128	0xbd3ff347	-0.046862867
129	0xbd7e390a	-0.062066115
130	0xbd5daa0f	-0.05411726
131	0xbcb26f54	-0.021781601
132	0x3cf08a98	0.029362962
133	0xbd9e1c0b	-0.077201925
134	0xbd4b671a	-0.049658872
135	0xbcb33936	-0.021877866
136	0xbca8dfa6	-0.020614456
137	0xbd877454	-0.06613985
138	0xbd4a8199	-0.04944
139	0xbd98116e	-0.074251994
140	0xbd889079	-0.06668181
141	0xbccd664d	-0.025073195
142	0xbbb7645a	-0.0055966796
143	0xbd752d74	-0.0598578
144	0xbd5b5c32	-0.05355472
145	0xbd0f5ced	-0.03500073
146	0xbdb882cd	-0.09009323
147	0xbdcec0f5	-0.100953974
148	0xbd4bb503	-0.049733173
149	0xbdadfd88	-0.08495623
150	0x3d430976	0.047616445
151	0xbd45adb0	-0.048261344
152	0xbd94fecf	-0.072751634
153	0x3d739ca9	0.059475575
154	0x3d268747	0.040656354
155	0xbd41bd88	-0.04729989
156	0xbda368b5	-0.07978956
157	0x3da2bf03	0.07946589
158	0x3d97eaaf	0.07417809
159	0x3d9ad9ac	0.07561049
160	0x3d575e67	0.052580263
161	0xbd76f299	-0.060289953
162	0xbd365f22	-0.04452432
163	0x3d8db971	0.06920136
164	0x3d5aa850	0.05338317
165	0xbd41cfa3	-0.04731716
166	0xbda24bfe	-0.079246506
167	0x3d74d2e0	0.05977142
168	0xbd525873	-0.051353883
169	0x3d6608ec	0.056160852
170	0x3d82a522	0.06379153
171	0xbd9489c2	-0.07252838
172	0xbd958d39	-0.07302327
173	0xbd8478cf	-0.06468355
174	0x3d60662a	0.05478493
175	0x3d261864	0.040550604
176	0x3d520b7d	0.051280487
177	0x3d9daab9	0.076985784
178	0x3d3ce155	0.04611333
179	0x3d5acedd	0.053419936
180	0x3c81e370	0.015855521
181	0xbd9c1600	-0.07621384
182	0x3d4d326c	0.050096914
183	0x3d5dd720	0.054160237
184	0x3d563136	0.052293025
185	0xbd8a5385	-0.06754211
186	0xbd639e2b	-0.055570763
187	0x3d90f1f2	0.070773974
188	0x3d328ad3	0.043589424
189	0x3d826ee6	0.063688084
190	0xbd8c759c	-0.0685837
191	0xbd204c9a	-0.039135553
192	0x3d78ca46	0.060739778
193	0xbd3589ec	-0.044320986
194	0x3d735ad6	0.0594128
195	0x3d32cb2f	0.043650802
196	0xbd57da86	-0.052698635
197	0x3da02255	0.07819048
198	0x3d418c09	0.04725269
199	0x3d46d407	0.04854205
200	0x3d8d47f7	0.06898492
201	0xbd9d97ff	-0.076950066
202	0x3d503e31	0.05084056
203	0xbd7a70b3	-0.061142635
204	0x3d6efa94	0.05834444
205	0xbd198c28	-0.03748718
206	0x3d96b58c	0.07358846
207	0xbd909d3b	-0.07061239
208	0x3d3ec0b6	0.046570502
209	0x3d7f61cb	0.062349122
210	0x3d7d8087	0.06189015
211	0xbd8a4065	-0.067505635
212	0x3da22e48	0.07918984
213	0x3d4008cb	0.046883386
214	0x3d6cf69e	0.05785238
215	0x3d1d9d59	0.038480137
216	0x3d4bb77f	0.049735542
217	0x3d9e281f	0.07722496
218	0xbd2b657d	-0.041844834
219	0x3d74e7cd	0.059791375
220	0x3d805523	0.062662385
221	0xbd3416f4	-0.043967202
222	0x3d4ae552	0.049535103
223	0x3d5f5c93	0.054531645
224	0x3d51109c	0.05104123
225	0x3d27f7b4	0.041007712
226	0x3d97d044	0.074127704
227	0x3d679405	0.056537647
228	0x3d74fd7d	0.059812058
229	0x3d61480f	0.05500036
230	0xbd636d7e	-0.05552434
231	0x3d52dd1e	0.051480405
232	0x3d3039ee	0.043023996
233	0x3d83d98d	0.06437979
234	0x3d7f6670	0.06235355
235	0xbd30f591	-0.04320294
236	0xbd801773	-0.062544726
237	0xbd4f7d35	-0.050656516
238	0x3d405bf1	0.046962682
239	0x3d86c0e0	0.06579757
240	0x3d8d9468	0.06913072
241	0xbd497971	-0.04918808
242	0x3d8797f7	0.06620782
243	0x3da34af1	0.07973278
244	0x3d95a53f	0.07306909
245	0x3d8cb346	0.06870131
246	0x3d609183	0.05482627
247	0x3d9a84c9	0.07544858
248	0x3d89be0c	0.06725702
249	0x3d9aee24	0.07564953
250	0x3d3d401d	0.04620372
251	0x3d85616e	0.06512724
252	0x3d8f66b2	0.070020095
253	0x3d897ec7	0.06713634
254	0xbd942fe6	-0.072356984
255	0x3d955ce4	0.07293108

encoder.dense1.bias f4 [64]
0	0x3e3613a5	0.17780931
1	0x3e901d16	0.2814719
2	0xbb529f9e	-0.0032138596
3	0x3f3bf0de	0.7341441
4	0x3ebc2ef7	0.3675458
5	0xbe285c9e	-0.1644158
6	0xbdbd229c	-0.09235117
7	0x3f62e788	0.8863454
8	0xbe32a6cb	-0.17446439
9	0x3e04174e	0.12899515
10	0x3ec1d11b	0.37854847
11	0x3f07720c	0.52908397
12	0x3f5532fa	0.8328091
13	0x3eaffd83	0.34373102
14	0x3f5672b8	0.83768797
15	0x3f3c40f3	0.73536605
16	0x3eb22695	0.3479506
17	0x3ea6ff41	0.32616618
18	0x3f3b2e2f	0.73117346
19	0x3e7bfd81	0.24608423
20	0x3eb415ff	0.35173032
21	0x3e9a9e6d	0.30198994
22	0x3f0f0054	0.55859876
23	0xbd61cb5d	-0.055125583
24	0xbd9d7c10	-0.07689679
25	0x3f5737d3	0.84069556
26	0x3dbbbba9	0.09166653
27	0x3f25e421	0.6480122
28	0x3cd7660d	0.026293779
29	0x3eb3077e	0.34966654
30	0x3e5eb6ac	0.21749371
31	0x3f1bd0d3	0.60865515
32	0x3ef4b547	0.47794554
33	0xbda65e59	-0.08123464
34	0x3ed7ffcf	0.42187354
35	0x3f6cb319	0.9246078
36	0xbdafb493	-0.08579364
37	0x3f06b203	0.52615374
38	0x3ecd0535	0.40043035
39	0x3ee73525	0.45157734
40	0x3dec5dcf	0.1154133
41	0x3f16970d	0.58824235
42	0x3f067217	0.5251784
43	0x3f493b6c	0.78606296
44	0xbea590c5	-0.32337013
45	0xbc344357	-0.011002383
46	0xbd8a03ff	-0.067390434
47	0x3ec051f0	0.37562513
48	0x3f4e606c	0.8061588
49	0x3f6d2b44	0.92644143
50	0x3e9adf2e	0.30248398
51	0x3e5f32c4	0.2179671
52	0x3f3d5636	0.7395967
53	0x3f6475bf	0.89242166
54	0x3eadcdd9	0.33946112
55	0x3e4cb47c	0.19990724
56	0x3ebc0096	0.36719197
57	0xbd642821	-0.055702332
58	0xbe8afd8f	-0.27146575
59	0x3d212668	0.039343268
60	0x3f2b4aec	0.66911197
61	0xbe7e063d	-0.24807067
62	0x3e742429	0.23841919
63	0x3f895afb	1.073089

encoder.encoder1.0.weight f4 [32, 1, 16]
0	0xbe0a463e	-0.13503358
1	0xbdd068ec	-0.10176262
2	0xbe6c26e9	-0.23061718
3	0xbe1d0dcf	-0.15337299
4	0xbd12e420	-0.03586209
5	0xbe7d1cff	-0.24718092
6	0xbe99b628	-0.30021787
7	0x3db4f628	0.08836013
8	0x3da065be	0.07831906
9	0xbda590f5	-0.08084289
10	0x3e15d6df	0.14632748
11	0x3d825b72	0.06365098
12	0xbe53c8ad	-0.2068202
13	0xbea49300	-0.32143402
14	0xbdbacab2	-0.09120692
15	0xbe1742a3	-0.14771514
16	0x3ad6c175	0.0016384559
17	0xbe018b96	-0.12650904
18	0x3d4a9cd2	0.04946596
19	0xbe088bd3	-0.13334589
20	0xbe0aea24	-0.1356588
21	0xbdfb70b8	-0.12277359
22	0xbe8996d5	-0.26872888
23	0xbcafbb6f	-0.02145168
24	0xbe141a45	-0.14463146
25	0xbea6fb41	-0.32613567
26	0xbebd4476	-0.36966294
27	0x3e5320d7	0.20617996
28	0x3e26dea1	0.16295864
29	0x3d845d08	0.06463057
30	0xbd8aaa29	-0.06770737
31	0xbdc385cb	-0.09547003
32	0xbe236965	-0.15958174
33	0xbdf43843	-0.119247936
34	0xbe63bf96	-0.22241053
35	0x3d6811ca	0.05665759
36	0xbe5356ee	-0.2063863
37	0x3bb62d7b	0.005559621
38	0xbe08f38e	-0.13374159
39	0x3db678bd	0.08909748
40	0xbea323ec	-0.31863344
41	0xbd0fb449	-0.035084043
42	0x3daf4c2a	0.08559449
43	0x3d05a146	0.032624505
44	0xbc0f3624	-0.0087409355
45	0xbe59998b	-0.21249978
46	0xbe39827d	-0.18116184
47	0xbdffa0be	-0.12481831
48	0xbe2e7676	-0.17037377
49	0xbe2176ff	-0.1576805
50	0x3b16a8b3	0.0022988736
51	0xbd318038	-0.04333517
52	0x3b0f1568	0.0021832827
53	0xbe2dc783	-0.16970639
54	0xbe75bbf1	-0.23997475
55	0xbdcf555b	-0.10123702
56	0x3de9e4f6	0.11420624
57	0xbe5d2495	-0.21595986
58	0xbee808d9	-0.4531925
59	0xbe952827	-0.29132196
60	0xbd285b4d	-0.041102696
61	0xbd272ab8	-0.040812224
62	0x3df83b05	0.12120632
63	0xbd4a0902	-0.049324997
64	0xbe944a45	-0.28962913
65	0x3d6e2907	0.058144595
66	0xbcd4767d	-0.025935406
67	0xbceea194	-0.02912978
68	0xbe2495dc	-0.16072792
69	0x3ca0e5cc	0.019640826
70	0xbd116b44	-0.035502687
71	0xbea36273	-0.31911048
72	0xbeacb51e	-0.3373193
73	0xbe41bad1	-0.18918921
74	0xbe21f64f	-0.15816616
75	0x3c759b28	0.014990605
76	0xbda60a50	-0.08107436
77	0xbdb03e1f	-0.08605599
78	0xbd5cb67d	-0.053884972
79	0xbe469b4b	-0.19395177
80	0xbd12b230	-0.035814464
81	0xbd6f8527	-0.058476593
82	0xbe9a102e	-0.3009047
83	0xbeb01622	-0.34391886
84	0x3e8f6e31	0.28013757
85	0xbdecbd72	-0.11559571
86	0xbe7bc0f4	-0.24585325
87	0xbe98707f	-0.29773328
88	0x3db0d30c	0.08634004
89	0x3cb47908	0.022030368
90	0xbe494906	-0.19656762
91	0xbe2150b6	-0.15753445
92	0x3daa50c6	0.083161876
93	0xbe1673e3	-0.14692645
94	0xbe9d6365	-0.30739895
95	0xbe02a5f0	-0.12758613
96	0xbe1864f0	-0.14882255
97	0xbe865428	-0.2623608
98	0xbebe2588	-0.3713801
99	0xbe8352c9	-0.25649098
100	0xbec712e3	-0.38881597
101	0xbedca653	-0.43095645
102	0xbe917f65	-0.28417507
103	0xbef95b0f	-0.48702285
104	0xbe927b9b	-0.28609928
105	0xbcc196d5	-0.023631493
106	0xbe58c245	-0.21167858
107	0xbdf05cfb	-0.117364846
108	0xbe26911c	-0.16266292
109	0xbe6cbe64	-0.23119503
110	0xbe8d1f43	-0.27562913
111	0xbca7c7be	-0.020480987
112	0xbd0bc7c7	-0.03412607
113	0xbd6061b4	-0.054780677
114	0x3dc35269	0.09537203
115	0xbe5dd6e8	-0.21664011
116	0x3c98077b	0.018558254
117	0xbe6a9997	-0.22910152
118	0x3d95f1ea	0.07321532
119	0xbd57937d	-0.05263089
120	0xbd68825b	-0.05676494
121	0xbd05b99f	-0.032647725
122	0xbd470075	-0.04858442
123	0xbe51d947	-0.20493041
124	0x3dd7abbc	0.105308026
125	0xbe038887	-0.1284505
126	0xbdb59c1f	-0.08867668
127	0xbe44db0f	-0.19224189
128	0xbc03261d	-0.008004692
129	0xbe6befe7	-0.23040734
130	0xbda02834	-0.07820168
131	0xbdcd7855	-0.10032717
132	0xbc0096b6	-0.007848432
133	0x3d9e1b14	0.077200085
134	0xbcd3d99d	-0.025860602
135	0xbdd3da2e	-0.10344349
136	0x3d05908e	0.03260856
137	0xbe73f044	-0.23822123
138	0x3e068330	0.13135982
139	0xbe1deba4	-0.15421921
140	0x3d5487e1	0.051887397
141	0xbda307e5	-0.0796049
142	0xbe63c57d	-0.22243305
143	0xbdea9752	-0.11454643
144	0xbe38a4ba	-0.18031588
145	0xbd8a2174	-0.06744662
146	0x3b8417e0	0.0040311664
147	0xbd7eb390	-0.062182963
148	0x3d9563dc	0.07294437
149	0xbce5aac4	-0.028035529
150	0xbe39cd38	-0.18144691
151	0x3d99c04d	0.075073816
152	0xbe1d6c3f	-0.15373324
153	0xbc8df16b	-0.017327031
154	0xbe22d093	-0.15899877
155	0xbe7dfed2	-0.24804237
156	0xbc880eae	-0.016608562
157	0x3d306866	0.043068312
158	0x3d41e80b	0.047340434
159	0xbe68b19b	-0.22724001
160	0xbe3d2911	-0.18472697
161	0xbe18b137	-0.14911352
162	0xbe0a00fa	-0.13476935
163	0xbe3370fc	-0.17523569
164	0xbd3e5578	-0.046468228
165	0xbda7a90e	-0.081865415
166	0xbd138b00	-0.036021233
167	0x3cbad872	0.022808287
168	0x3deadd30	0.114679694
169	0xbe9724d4	-0.29520285
170	0xbe892141	-0.26783183
171	0x3deb9271	0.11502541
172	0xbcf78b26	-0.030217718
173	0xbd788d16	-0.060681425
174	0x3db53a00	0.08848953
175	0xbd901311	-0.07034887
176	0xbe1320e4	-0.14368016
177	0xbed24f9a	-0.41076356
178	0x3d1b4782	0.037909992
179	0x3c539222	0.012913259
180	0xbdd98c35	-0.106224455
181	0xbdd590ef	-0.104280345
182	0xbe8c69f0	-0.27424574
183	0xbea14bde	-0.31503195
184	0x3cdd0575	0.026980141
185	0x3e1131d5	0.14179166
186	0x3d243c5a	0.04009662
187	0x3e4bc403	0.19898991
188	0xbd2f4537	-0.042790618
189	0x3d3da1d5	0.046296913
190	0x3e047db2	0.12938574
191	0x3daeb5cb	0.08530768
192	0xbd980497	-0.074227504
193	0xbe8d9ee4	-0.27660286
194	0xbe51d777	-0.2049235
195	0xbdf86e96	-0.121304676
196	0xbe84ea4e	-0.2596001
197	0xbda40c76	-0.08010189
198	0xbd2a4bca	-0.041576184
199	0xbda2b50d	-0.07944689
200	0xbc191e89	-0.009345659
201	0xbe1017e0	-0.14071608
202	0xbd8033c5	-0.06259874
203	0xbda86779	-0.08222861
204	0xbdc7a3fc	-0.097480744
205	0xbeb11e9b	-0.34593663
206	0xbd12f07b	-0.03587387
207	0xbb9ee6e1	-0.0048493003
208	0xbc8bfd57	-0.017088575
209	0xbdb7a02a	-0.08966096
210	0xbe6affeb	-0.22949187
211	0x3dd26b34	0.102743536
212	0xbe3f0313	-0.18653516
213	0xbc44236a	-0.011971334
214	0xbe9e1782	-0.3087731
215	0x3dd1a2d4	0.10236135
216	0xbeaa020d	-0.3320469
217	0xbe25283b	-0.16128628
218	0x3e0756c8	0.13216698
219	0xbe9e8843	-0.30963334
220	0x3e093474	0.13398916
221	0x3dd2349c	0.10263941
222	0xbd9e0ecf	-0.07717668
223	0xbdfd222a	-0.12360032
224	0xbe8a7f11	-0.2705007
225	0xbe0719f1	-0.1319349
226	0xbe65e13a	-0.22449198
227	0xbe436e34	-0.19085008
228	0xbcef73d3	-0.029230034
229	0x3c623e61	0.013808818
230	0x3d594f2c	0.05305402
231	0xbd42d18e	-0.04756313
232	0x3de53282	0.11191274
233	0xbe9fc31c	-0.31203544
234	0xbe2f0da9	-0.17095055
235	0x3d4639ca	0.048394956
236	0xbec2ba41	-0.38032725
237	0xbe0dd88d	-0.13852139
238	0xbebecf09	-0.3726733
239	0xbe83c6a9	-0.25737503
240	0xbebb3a83	-0.36568078
241	0xbe9d9437	-0.3077714
242	0x3c6c33f5	0.014416684
243	0xbe5b95cb	-0.2144386
244	0xbe25076b	-0.16116111
245	0xbeca9a03	-0.39570627
246	0xbe0f8a63	-0.14017634
247	0xbe552625	-0.20815332
248	0x3c8be691	0.017077716
249	0x3d2ccfd6	0.042190395
250	0x3dcd467b	0.10023209
251	0x3c856676	0.016284209
252	0xbe7e7bd5	-0.24851926
253	0xbea630fd	-0.3245925
254	0x3dd6c3fe	0.10486601
255	0x3dfc5b57	0.12322109

encoder.encoder1.0.bias f4 [32]
0	0x3d83fa25	0.06444196
1	0xbd1d1b3f	-0.038356062
2	0xbe8af190	-0.27137423
3	0xbf08a22f	-0.5337247
4	0xbeb5e132	-0.35523373
5	0xbdcc3a05	-0.09972004
6	0x3ef8520c	0.48500097
7	0xbe364836	-0.17800984
8	0xbddbee4c	-0.10738811
9	0xbe553d7a	-0.20824233
10	0xbf0774a3	-0.5291235
11	0xbf18557e	-0.5950545
12	0xbf351b12	-0.7074443
13	0xbc10362b	-0.008801977
14	0xbe5905d4	-0.2119363
15	0xbe1192ea	-0.142162
16	0xbdbcbd8f	-0.09215843
17	0x3d7d675d	0.061866153
18	0xbe36e032	-0.17858961
19	0x3e674585	0.22585113
20	0xbe1454c9	-0.14485468
21	0xbd430f15	-0.047621805
22	0xbcf74600	-0.030184746
23	0xbf13dd51	-0.5775958
24	0x3e9a1691	0.30095342
25	0x3c56eafb	0.013117547
26	0xbf497681	-0.7869645
27	0xbec63a74	-0.3871647
28	0xbdaf81cc	-0.08569679
29	0x3e2cd817	0.16879307
30	0xbdb5ddfa	-0.08880229
31	0xbce24ff5	-0.027626017

encoder.encoder1.2.weight f4 [32, 32, 16]
0	0xbdcc7961	-0.09984089
1	0xbd5c5dd6	-0.053800426
2	0xbd8e452e	-0.06946789
3	0xbd1c87ae	-0.03821533
4	0xbdbae09b	-0.09124871
5	0x3d8b5420	0.06803155
6	0x3d837d6c	0.06420407
7	0x3d8b8728	0.068128884
8	0xbdb751f6	-0.0895118
9	0xbdc699e1	-0.09697319
10	0xbdc6fc7b	-0.097161256
11	0xbd199264	-0.037493125
12	0xbd545440	-0.05183816
13	0x3d1e7217	0.038683023
14	0x3c931bd1	0.0179576
15	0xbd359b42	-0.04433752
16	0xbdcacd47	-0.09902435
17	0xbdcad4f5	-0.099038996
18	0x3d66871c	0.056281194
19	0x3d065c7c	0.032803044
20	0xbdacd643	-0.08439305
21	0xbc94a334	-0.018144228
22	0xbccc27e4	-0.024921365
23	0xbd8375b9	-0.06418938
24	0xbdac845e	-0.084236845
25	0xbcfef7c1	-0.031123998
26	0xbda32e77	-0.07967847
27	0xbd200c86	-0.039074443
28	0xbd55c422	-0.052189
29	0x3d0e3051	0.034714047
30	0xbdfda2fa	-0.12384601
31	0xbce4c15f	-0.027924238
32	0xbd09128c	-0.033464953
33	0xbdcfaa39	-0.10139889
34	0xbda3b9eb	-0.079944454
35	0xbd381924	-0.04494585
36	0xbd8f2c07	-0.069908194
37	0xbdaf776d	-0.085677005
38	0xbd98275f	-0.074293844
39	0xbd14810b	-0.036255877
40	0x3d41ebce	0.04734402
41	0x3d1d56de	0.03841292
42	0x3db37376	0.08762257
43	0x3d81aa12	0.063312665
44	0xbd98a849	-0.07453973
45	0x3da7ad65	0.08187369
46	0x3d8a5642	0.067547336
47	0x3d3247b8	0.043525428
48	0x3dc405ce	0.0957142
49	0x3d796774	0.060889676
50	0xbda9c0f9	-0.0828876
51	0xbdcede81	-0.10101033
52	0xbd214c4b	-0.0393794
53	0xbd1a684c	-0.03769712
54	0xbdbad9a1	-0.09123541
55	0xbd16d402	-0.03682328
56	0xbd3855c6	-0.045003675
57	0xbd54ca02	-0.051950462
58	0xbd9cc8c3	-0.0765548
59	0x3c692636	0.014230302
60	0x3d4bb104	0.049729362
61	0xbd05ccec	-0.03266613
62	0xbdcf3872	-0.10118188
63	0xbd97a3d2	-0.07404293
64	0x3d6b868a	0.057501353
65	0xbd4bc6cf	-0.049750146
66	0xbda3b5f8	-0.07993692
67	0xbd6ef4f2	-0.058339067
68	0xbd8b4885	-0.068009414
69	0xbd846025	-0.064636506
70	0xbd337614	-0.04381378
71	0xbd2a6687	-0.041601684
72	0xbd703a2c	-0.058649227
73	0x3d63d0a4	0.055618897
74	0xbd3dc0d5	-0.046326477
75	0x3d5c7c1e	0.053829305
76	0x3d477abe	0.04870104
77	0x3d1609bd	0.03663038
78	0x3d44ac9c	0.048016176
79	0x3cc819ec	0.024426423
80	0xbdb6555c	-0.08903
81	0xbd42648d	-0.047459174
82	0xbd87c595	-0.06629483
83	0xbd549e2f	-0.051908668
84	0xbdace202	-0.08441545
85	0x3d262e85	0.04057171
86	0xbd69ae68	-0.057051092
87	0xbd54157c	-0.0517783
88	0xbcb5db62	-0.022199336
89	0xbd4f7af3	-0.050654363
90	0xbd9efe49	-0.07763345
91	0xbcbc9896	-0.023021977
92	0xbda593a3	-0.080848
93	0xbcb93d3a	-0.022612203
94	0xbde3a903	-0.11116221
95	0x3d8b1186	0.06790452
96	0xbd32adba	-0.04362271
97	0x3ce08637	0.027407749
98	0x3da2ead2	0.07954945
99	0x3d295f37	0.04135057
100	0xbda6195c	-0.08110306
101	0x3caadf3d	0.020858401
102	0x3d195379	0.03743312
103	0xbd75e3b0	-0.060031593
104	0x3d360b12	0.04444415
105	0xbda81122	-0.08206393
106	0xbd731a17	-0.059351053
107	0xbd2735fb	-0.040822964
108	0x3db5df96	0.08880536
109	0x3d15f686	0.036612056
110	0x3d4f3b7f	0.05059385
111	0x3d7f48ff	0.062325474
112	0xbdc76b79	-0.09737296
113	0xbdcdd7f4	-0.100509554
114	0xbd9b0acb	-0.07570418
115	0xbd7c13ed	-0.06154244
116	0xbdc8f511	-0.09812368
117	0xbd3a0fd7	-0.045425262
118	0xbdaa5bbf	-0.083182804
119	0xbd284fa2	-0.04109157
120	0xbdbeef18	-0.09322947
121	0xbd0da206	-0.034578346
122	0xbcb64984	-0.022251852
123	0xbd52603d	-0.05136131
124	0xbd73fa60	-0.059564948
125	0x3d5d7832	0.054069705
126	0x3cbe8745	0.02325786
127	0xbddb5e30	-0.10711324
128	0xbd27a74f	-0.040931042
129	0xbd296d05	-0.041363735
130	0xbdc50be3	-0.09621408
131	0xbcda01bb	-0.026612153
132	0xbc8ef52c	-0.017450891
133	0xbdc54be0	-0.09633613
134	0xbdab8896	-0.08375661
135	0xbdbc0e30	-0.091823936
136	0x3c0498be	0.008093057
137	0x3d28bf18	0.041197866
138	0x3cc739db	0.02431958
139	0xbcafba84	-0.021451242
140	0xbcc6b6d4	-0.024257101
141	0xbd463ebb	-0.04839967
142	0x3d3415c9	0.04396609
143	0xbdc3ecd0	-0.09566653
144	0xbc8fdb9a	-0.017560769
145	0xbdcba0ec	-0.09942803
146	0xbd5ade10	-0.05343443
147	0xbdd43574	-0.10361758
148	0xbd79836d	-0.060916353
149	0xbda09005	-0.078399695
150	0xbd8834da	-0.06650706
151	0xbdccd744	-0.10001996
152	0xbdc4b19c	-0.09604189
153	0xbd86dda2	-0.06585242
154	0xbdc03b13	-0.093862675
155	0x3d5ea685	0.054358024
156	0x3dc52131	0.096254714
157	0xbd124cfa	-0.03571794
158	0xbdba6b03	-0.09102442
159	0xbccdf30c	-0.025140308
160	0xbdc0a32b	-0.09406122
161	0xbd9c6d58	-0.07638043
162	0xbdd1aae8	-0.10237676
163	0xbd3379a8	-0.043817192
164	0xbdc93df3	-0.09826269
165	0xbdbd4338	-0.092413366
166	0xbcfaf3fc	-0.030633919
167	0xbd19349d	-0.03740369
168	0xbe046e51	-0.12932707
169	0xbd9d3e38	-0.07677883
170	0xbd7cb6a8	-0.061697632
171	0xbda7428c	-0.0816699
172	0xbd5b2d4b	-0.05350999
173	0xbda9549b	-0.0826809
174	0xbd9d6c74	-0.076867014
175	0xbcf84c80	-0.030309916
176	0xbcfe19e0	-0.031018198
177	0xbce93d91	-0.02847174
178	0xbd8a5cb9	-0.06755967
179	0xbdd14acc	-0.102193445
180	0xbdc63a55	-0.09679095
181	0xbdaad79c	-0.083419055
182	0xbde6a634	-0.112621695
183	0xbccecae3	-0.025243228
184	0xbd31f6c9	-0.043448243
185	0xbd3593f1	-0.04433054
186	0x3c7e2ac1	0.015513123
187	0xbc945879	-0.018108593
188	0xbd90a0de	-0.07061933
189	0xbdafa2cd	-0.08575974
190	0xbdbbfe04	-0.09179309
191	0xbd8bc392	-0.068244115
192	0xbce657b8	-0.028118
193	0xbcc88805	-0.024478922
194	0xbd5a5e17	-0.053312387
195	0xbda17bae	-0.07884918
196	0xbdc03caa	-0.09386571
197	0x3d81cacf	0.06337511
198	0x3cd2d3f6	0.025735836
199	0x3dd15386	0.10221009
200	0x3c9cd9ed	0.019146884
201	0x3d3ecaf7	0.04658028
202	0xbc9d673f	-0.01921427
203	0xbd9f07f7	-0.07765191
204	0xbd5a25f4	-0.05325885
205	0xbdbb32e8	-0.09140569
206	0x3d5269c2	0.05137039
207	0xbd4881e7	-0.04895201
208	0xbd91bc1a	-0.07115956
209	0xbd97dddd	-0.07415364
210	0x3db3eaa7	0.08784991
211	0x3da09298	0.078404605
212	0xbd39395d	-0.04522072
213	0xbd7b91f3	-0.061418485
214	0xbd91dbc0	-0.07121992
215	0xbd60b6c4	-0.0548618
216	0xbdadf1e6	-0.08493404
217	0xbdc598c1	-0.09648276
218	0xbdc656e6	-0.09684543
219	0xbd13e971	-0.0361113
220	0xbd861b55	-0.06548182
221	0xbdb8aa14	-0.09016815
222	0xbdb960f5	-0.09051696
223	0xbcdc48cd	-0.026890183
224	0xbdca5ede	-0.09881376
225	0xbdce0945	-0.10060362
226	0xbd327180	-0.043565273
227	0xbdc45a14	-0.095874935
228	0xbdbacc33	-0.09120979
229	0xbd0d577f	-0.03450727
230	0xbdca3e93	-0.09875216
231	0x3d354553	0.044255566
232	0x3cbe7fb4	0.023254253
233	0x3cab6929	0.020924168
234	0x3d5add88	0.053433925
235	0xbd9bc0f1	-0.0760516
236	0xbd62eacf	-0.055399712
237	0x3cdef212	0.027215037
238	0xbca3e863	-0.020008272
239	0xbd6624e2	-0.056187518
240	0xbda069dd	-0.07832692
241	0xbd4316d2	-0.047629185
242	0xbd298996	-0.041390978
243	0xbdd17572	-0.10227479
244	0xbdcc9ac8	-0.0999046
245	0xbe2dc8e2	-0.16971162
246	0x3c8c451d	0.0171228
247	0xbd804335	-0.06262819
248	0xbd864c91	-0.06557573
249	0xbd9915b2	-0.07474841
250	0xbd4dbf14	-0.050231054
251	0xbd4dbb41	-0.050227407
252	0xbd9f1671	-0.07767952
253	0xbdb3cefe	-0.08779715
254	0x3d93b34e	0.07211934
255	0xbd0c67b6	-0.034278594

encoder.encoder1.2.bias f4 [32]
0	0xbe343b77	-0.17600809
1	0xbe5de09e	-0.21667716
2	0xbda69462	-0.081337705
3	0xbe32093b	-0.17386334
4	0xbe91d432	-0.28482205
5	0xbe376c63	-0.1791244
6	0xbcf8e023	-0.030380314
7	0xbdbb54f7	-0.09147065
8	0xbca1a886	-0.019733679
9	0xbdcfa9d4	-0.10139814
10	0xbdf56549	-0.11982209
11	0xbeb1d93b	-0.34736046
12	0xbe14f08f	-0.14544891
13	0xbdc2759c	-0.094950885
14	0xbea6e872	-0.32599217
15	0xbe6530f6	-0.22381958
16	0xbe04f4d9	-0.12984027
17	0xbce815b0	-0.028330654
18	0xbc87fbca	-0.016599555
19	0xbdbb628a	-0.09149654
20	0xbe3d0826	-0.1846014
21	0xbd8ec77d	-0.06971643
22	0xbda306fd	-0.07960317
23	0xbcc0457f	-0.023470638
24	0xbda44434	-0.08020821
25	0xbebc2331	-0.367456
26	0xbda6dc7a	-0.08147521
27	0xbe922155	-0.28541055
28	0xbd984d40	-0.07436609
29	0xbe056dfa	-0.13030234
30	0xbd0fefc6	-0.035140775
31	0xbdd6e14f	-0.10492193
