CAC/DC/networks/weights/DC/DC_4_myTestCACclassifierCACLoss.pth (torch, 754052 bytes, 19 tensors)

anchors f8 [4, 4]
10.0 0.0 0.0 0.0 0.0 10.0 0.0 0.0
0.0 0.0 10.0 0.0 0.0 0.0 0.0 10.0
00000000: 0000 0000 0000 2440 0000 0000 0000 0000
00000010: 0000 0000 0000 0000 0000 0000 0000 0000
00000020: 0000 0000 0000 0000 0000 0000 0000 2440
00000030: 0000 0000 0000 0000 0000 0000 0000 0000
00000040: 0000 0000 0000 0000 0000 0000 0000 0000
00000050: 0000 0000 0000 2440 0000 0000 0000 0000
00000060: 0000 0000 0000 0000 0000 0000 0000 0000
00000070: 0000 0000 0000 0000 0000 0000 0000 2440

encoder.conv1.weight f4 [32, 1, 16]
-0.22813533 -0.20665917 -0.22183265 -0.04337135 -0.032402024 -0.21715143 -0.24709626 0.13200796
0.1419795 -0.062268674 0.1546173 0.029810745 -0.18364406 -0.33490387 -0.06871586 -0.09733937
0.08916081 -0.09816553 0.08707516 -0.15518872 -0.132243 -0.098835625 -0.2887891 0.09472191
-0.10349712 -0.32963043 -0.3305764 0.14812359 0.1221538 0.023646554 -0.09008335 -0.1405017
-0.1565904 -0.07474273 -0.2225617 0.12691365 -0.19866577 0.007668432 -0.12026422 0.07176932
-0.3149132 -0.009112037 0.13320582 0.02156682 0.012535518 -0.2102395 -0.17630868 -0.12324655
-0.14185196 -0.12093785 0.090890676 0.011449846 0.02026525 -0.16368102 -0.21892685 -0.1183162
0.15966557 -0.21962082 -0.2687802 -0.25018206 0.028485507 0.0024036986 0.18081631 -0.009845972
-0.2843786 0.022066174 -0.042613663 -0.020759793 -0.15954001 0.055135652 0.032629445 -0.3280121
-0.30533373 -0.1854948 -0.12080066 0.0061672097 -0.10094529 -0.07915605 0.0290256 -0.17644909
0.047330216 0.07463074 -0.29479817 -0.32661313 0.14843935 -0.18136561 -0.17028977 -0.16470617
0.16266616 0.08912409 -0.08542382 -0.099506944 0.0814874 -0.17615342 -0.28345332 -0.038763687
-0.0388788 -0.1630254 -0.25437567 -0.15412973 -0.24030715 -0.28098506 -0.12595783 -0.30039713
-0.18952602 -0.050380673 -0.19947188 -0.019469868 0.0003271039 -0.19638215 -0.25530282 -0.0117066465
-0.012288442 -0.028914912 0.1281237 -0.21637112 0.011932822 -0.22346322 0.094916604 -0.05131212
-0.05974878 -0.016011052 -0.038847234 -0.20161353 0.09986031 -0.09286773 -0.09151022 -0.20856081
0.006922464 -0.23306543 -0.08437508 -0.09613333 0.009974186 0.097929515 -0.008981138 -0.097779475
0.03339979 -0.23726282 0.12070309 -0.1486233 0.08665147 -0.07647323 -0.2186219 -0.10388287
-0.18641399 -0.06809091 0.0137038175 -0.022449147 0.13299394 -0.008545953 -0.17347942 0.07813444
-0.14865175 -0.0063174274 -0.1525524 -0.24747711 0.021829005 0.060355213 0.038655587 -0.20603731
-0.114985004 -0.09843594 -0.10064598 -0.19874011 0.004145777 -0.030742856 0.011885464 0.10743052
0.14506069 -0.20646332 -0.2516323 0.076873705 -0.031471495 -0.012762222 0.11958266 -0.07151635
-0.08023029 -0.24645826 0.061124474 0.035896096 -0.11039761 -0.023228 -0.18502171 -0.2044707
0.045197498 0.1481287 0.018232523 0.15858427 -0.0973587 0.07559672 0.1542928 0.10240802
-4.1802345e-05 -0.28249016 -0.18107444 -0.107769385 -0.24371758 -0.05145321 -0.043348577 -0.084881276
-0.020139143 -0.13890386 -0.05561901 -0.07650668 -0.06829232 -0.3430904 0.0054249177 0.08583329
0.06380481 -0.04657633 -0.12717196 0.15608542 -0.1934489 -0.053330563 -0.28281036 0.15221144
-0.29447642 -0.124537796 0.12163502 -0.25842455 0.13300362 0.052898366 -0.11660279 -0.14366572
-0.24360257 -0.13792963 -0.22386065 -0.18744312 -0.025319053 0.022927267 0.07146544 -0.029105207
0.091595 -0.31573588 -0.1690871 0.085292846 -0.34975833 -0.12617892 -0.34212127 -0.24646683
-0.32524496 -0.2664275 -0.056018397 -0.089161284 0.003525811 -0.29386425 -0.04655523 -0.14955643
0.059651136 0.06429715 0.12322677 0.037885882 -0.21933629 -0.25904146 0.20363599 0.20076059
00000000: 4f9c 69be 769e 53be 1928 63be 28a6 31bd
00000010: fcb7 04bd f25c 5ebe cd06 7dbe 182d 073e
00000020: 1363 113e 700d 7fbd ff53 1e3e aa35 f43c
00000030: 300d 3cbe 8578 abbe e7ba 8cbd dd59 c7bd
00000040: f199 b63d 020b c9bd 7654 b23d cbe9 1ebe
00000050: b66a 07be 556a cabd 2adc 93be 90fd c13d
00000060: 4cf6 d3bd 52c5 a8be 4f41 a9be b6ad 173e
00000070: c62b fa3d 6bb6 c13c 9f7d b8bd addf 0fbe
00000080: 3c59 20be b712 99bd 37e7 63be a7f5 013e
00000090: 0a6f 4bbe 7847 fb3b 164d f6bd cbfb 923d
000000a0: 4e3c a1be a74a 15bc 1b67 083e e6ac b03c
000000b0: c661 4d3c 0649 57be 438a 34be b068 fcbd
000000c0: a441 11be 43ae f7bd e424 ba3d 2398 3b3c
000000d0: 4f03 a63c ff9b 27be 5c2e 60be c44f f2bd
000000e0: 5f7f 233e 48e4 60be 8f9d 89be dd17 80be
000000f0: 705a e93c 5f87 1d3b e927 393e 0051 21bc
00000100: 129a 91be 1fc4 b43c aa8b 2ebd 7110 aabc
00000110: 755e 23be ecd5 613d 74a6 053d 34f1 a7be
00000120: b454 9cbe 59f2 3dbe 5666 f7bd 4e16 ca3b
00000130: 67bc cebd 911c a2bd 18c7 ed3c 12af 34be
00000140: 54dd 413d 00d8 983d c9ef 96be d639 a7be
00000150: 7c00 183e e8b7 39be 7160 2ebe bca8 28be
00000160: f591 263e b186 b63d aff2 aebd 4cca cbbd
00000170: dee2 a63d 9061 34be cb20 91be acc6 1ebd
00000180: 603f 1fbd 21f0 26be 873d 82be 2fd4 1dbe
00000190: 1413 76be 46dd 8fbe 17fb 00be a7cd 99be
000001a0: 1c13 42be f75b 4ebd 5b42 4cbe 467f 9fbc
000001b0: 247f ab39 6718 49be 0db7 82be 3ccd 3fbc
000001c0: 7655 49bc f7de ecbc dc32 033e 6490 5dbe
000001d0: e281 433c 8bd3 64be a363 c23d a82c 52bd
000001e0: 23bb 74bd 9c29 83bc 471e 1fbd c773 4ebe
000001f0: 9083 cc3d 7031 bebd b669 bbbd f790 55be
00000200: d6d5 e23b b4a8 6ebe d8cc acbd 8de1 c4bd
00000210: c56a 233c 458f c83d 9f25 13bc 9b40 c8bd
00000220: 38ce 083d 06f5 72be 2f33 f73d b530 18be
00000230: 5376 b13d ff9d 9cbd 6bde 5fbe 8bc0 d4bd
00000240: 4fe3 3ebe 3f73 8bbd fa85 603c 46e7 b7bc
00000250: 902f 083e 5304 0cbc 97a4 31be f304 a03d
00000260: 2a38 18be 6c02 cfbb b236 1cbe a46a 7dbe
00000270: bed2 b23c 0737 773d 5255 1e3d 72fb 52be
00000280: 427d ebbd c898 c9bd 7b1f cebd 8782 4bbe
00000290: 4cd9 873b 71d8 fbbc 40bb 423c 8804 dc3d
000002a0: ca8a 143e 1f6b 53be f3d5 80be f66f 9d3d
000002b0: 41e8 00bd a418 51bc c1e7 f43d 2a77 92bd
000002c0: c74f a4bd 8e5f 7cbe a85d 7a3d c907 133d
000002d0: 2418 e2bd a648 bebc 5576 3dbe c460 51be
000002e0: 0321 393d 0daf 173e 5f5c 953c ea63 223e
000002f0: 0064 c7bd 74d2 9a3d effe 1d3e 4cbb d13d
00000300: ed54 2fb8 8da2 90be 946b 39be 32b6 dcbd
00000310: 1a91 79be 9ac0 52bd 478e 31bd 3cd6 adbd
00000320: d8fa a4bc d03c 0ebe c2d0 63bd 89af 9cbd
00000330: d8dc 8bbd 8ba9 afbe 82c3 b13b 5dc9 af3d
00000340: 19ac 823d d2c6 3ebd 5e39 02be dbd4 1f3e
00000350: 7817 46be 2671 5abd 85cc 90be 51dd 1b3e
00000360: 9dc5 96be ac0d ffbd c81b f93d 3950 84be
00000370: 1a32 083e f5ab 583d 72cd eebd 1b1d 13be
00000380: f472 79be 6d3d 0dbe ba3b 65be 17f1 3fbe
00000390: e769 cfbc f7d1 bb3c 795c 923d 0b6e eebc
000003a0: 2996 bb3d 22a8 a1be 2b25 2dbe 04ae ae3d
000003b0: 8613 b3be 0c35 01be 852a afbe cd61 7cbe
000003c0: 8286 a6be 2f69 88be 8c73 65bd 319a b6bd
000003d0: 4b11 673b 6075 96be b2b0 3ebd 5225 19be
000003e0: c054 743d 39ae 833d 515e fc3d 3a2e 1b3d
000003f0: b199 60be 15a1 84be f485 503e 2f94 4d3e

encoder.conv1.bias f4 [32]
0.04785898 -0.046396643 -0.22861783 -0.19308333 -0.2371659 -0.020956099 0.4517974 -0.1568618
-0.29536146 -0.3226456 -0.27454138 -0.090142 -0.5537007 -0.23582597 0.005690295 0.018870868
-0.043458305 -0.05976591 -0.2744175 0.18988009 -0.09383069 0.083194345 0.07071979 -0.17366606
0.14863226 0.04828645 -0.45738384 -0.4270554 -0.009503221 0.0253424 -0.054764796 -0.07645811
00000000: c707 443d 680a 3ebd cb1a 6abe a3b7 45be
00000010: 9edb 72be 20ac abbc fd51 e73e 61a0 20be
00000020: 9e39 97be ce31 a5be b090 8cbe 5e9c b8bd
00000030: 54bf 0dbf 5d7c 71be a775 ba3b 1497 9a3c
00000040: 5601 32bd 19cd 74bd 7380 8cbe ed6f 423e
00000050: 4e2a c0bd cc61 aa3d 8ad5 903d 84d5 31be
00000060: 0e33 183e 03c8 453d 372e eabe 01a7 dabe
00000070: 66b3 1bbc dd9a cf3c 0d51 60bd 1296 9cbd

encoder.conv2.weight f4 [32, 32, 16]
-0.0999039 -0.053830214 -0.06950964 -0.038254894 -0.09140686 0.068383 0.06428023 0.06828294
-0.08974747 -0.097215146 -0.097686075 -0.038310513 -0.052196037 0.03891437 0.018065564 -0.045080367
-0.099115506 -0.09931074 0.05723131 0.031411026 -0.08445236 -0.018158266 -0.024936972 -0.06423468
-0.08427805 -0.031136815 -0.079713605 -0.039095685 -0.05178663 0.043371752 -0.12600976 -0.027972965
-0.033500347 -0.10149385 -0.08005111 -0.045053 -0.070464395 -0.08598639 -0.07450038 -0.036855634
0.048087534 0.038724124 0.08786754 0.064475 -0.07532189 0.08641631 0.06782479 0.043731324
0.07610328 0.06902565 -0.08313044 -0.1010877 -0.0394 -0.03771895 -0.09128526 -0.036828868
-0.045023113 -0.05197683 -0.07641967 0.026688367 0.05345817 -0.032778464 -0.101361595 -0.074195564
0.05764663 -0.050106328 -0.08401972 -0.05856697 -0.06816397 -0.064693935 -0.043915596 -0.041663487
-0.058847167 0.056659617 -0.05091801 0.053990964 0.04888794 0.03709586 0.0486598 0.024837894
-0.089078665 -0.047503497 -0.06636555 -0.052028064 -0.08616648 0.040656004 -0.057253394 -0.051418398
-0.022220798 -0.05069423 -0.07770417 -0.023039773 -0.080919005 -0.022665372 -0.11164624 0.06866446
-0.0485829 0.027820429 0.08170637 0.042806413 -0.08171529 0.02322576 0.052321352 -0.060408298
0.045010857 -0.08411765 -0.061830208 -0.041070376 0.090392366 0.037075117 0.051723756 0.06293041
-0.09745494 -0.1007489 -0.07579643 -0.061704285 -0.09825337 -0.04547157 -0.08326991 -0.041126143
-0.093309395 -0.034601394 -0.022266652 -0.05141664 -0.05971506 0.05434797 0.023835354 -0.11196776
-0.040952157 -0.04138067 -0.09625444 -0.026624074 -0.017458301 -0.096389756 -0.08381205 -0.09196695
0.008213451 0.041281592 0.024367053 -0.021603476 -0.02432239 -0.05213808 0.044449594 -0.10082477
-0.017645545 -0.09969431 -0.05346454 -0.1036553 -0.060935628 -0.078428455 -0.06653361 -0.10006281
-0.09612208 -0.06595022 -0.09427426 0.057393778 0.09810824 -0.035828013 -0.09118191 -0.025522796
-0.094113715 -0.075943604 -0.1024411 -0.043865364 -0.0983071 -0.092499755 -0.030770008 -0.0420957
-0.13102897 -0.07749905 -0.061930887 -0.08128015 -0.053683028 -0.08287107 -0.07701148 -0.030284313
-0.030384144 -0.028276788 -0.067119494 -0.10225988 -0.070475936 0.014221839 0.09151706 -0.01299261
-0.043237213 -0.04267784 0.022406874 -0.014156311 -0.07052321 -0.08584186 -0.09194088 -0.06669181
-0.028153643 -0.024517143 -0.053468008 -0.07905518 -0.094274245 0.063699156 0.025937688 0.102676585
0.019238679 0.04722405 -0.019418491 -0.07775984 -0.053381 -0.092911005 0.05196055 -0.049397755
-0.07220079 -0.07429792 0.08803249 0.07785336 -0.045307264 -0.059117146 -0.071355775 -0.054939862
-0.08505359 -0.09661567 -0.09695182 -0.03669075 -0.056315925 -0.091057435 -0.09116667 -0.020744715
-0.09892694 -0.100747384 -0.04363189 -0.09601396 -0.09136059 -0.03455347 -0.09902467 0.044715576
0.0232867 0.020947358 0.053978425 -0.07635837 -0.05581307 0.027750138 -0.021649912 -0.056765683
-0.078102954 -0.0472025 -0.04057949 -0.10240499 -0.100235395 -0.1670033 0.06490863 -0.06753304
-0.065855466 -0.06562939 0.02511298 -0.04703403 -0.0775928 -0.088362545 0.040352225 -0.06170921
00000000: 6a9a ccbd 127d 5cbd 125b 8ebd 2ab1 1cbd
00000010: 8533 bbbd 630c 8c3d 5aa5 833d edd7 8b3d
00000020: 86cd b7bd bc18 c7bd a30f c8bd 7ceb 1cbd
00000030: 83cb 55bd ad64 1f3d 3cfe 933c 31a6 38bd
00000040: 12fd cabd 6e63 cbbd 616b 6a3d d9a8 003d
00000050: 5cf5 acbd a5c0 94bc 9f48 ccbc 798d 83bd
00000060: f899 acbd a212 ffbc e340 a3bd cc22 20bd
00000070: 381e 54bd 94a6 313d b408 01be 8f27 e5bc
00000080: a937 09bd 02dc cfbd d6f1 a3bd 7f89 38bd
00000090: a34f 90bd a219 b0bd a893 98bd eff5 16bd
000000a0: 6ff7 443d 309d 1e3d e6f3 b33d 780b 843d
000000b0: 5d42 9abd 09fb b03d b9e7 8a3d 9e1f 333d
000000c0: 09dc 9b3d 525d 8d3d 4b40 aabd 1107 cfbd
000000d0: e561 21bd 307f 1abd c4f3 babd ded9 16bd
000000e0: 286a 38bd a8e5 54bd ea81 9cbd 90a1 da3c
000000f0: f4f6 5a3d b642 06bd ab96 cfbd d8f3 97bd
00000100: df1e 6c3d 4b3c 4dbd 8812 acbd ebe3 6fbd
00000110: 8d99 8bbd 417e 84bd d7e0 33bd 55a7 2abd
00000120: ba09 71bd ea13 683d 678f 50bd a125 5d3d
00000130: b83e 483d d4f1 173d 804f 473d d778 cb3c
00000140: e06e b6bd 0793 42bd a9ea 87bd 611b 55bd
00000150: 0d78 b0bd e986 263d 8982 6abd 199c 52bd
00000160: 6408 b6bc c1a4 4fbd 5d23 9fbd e8bd bcbc
00000170: ddb8 a5bd bbac b9bc c9a6 e4bd f49f 8c3d
00000180: ddfe 46bd abe7 e33c ab55 a73d c755 2f3d
00000190: 595a a7bd f343 be3c ea4e 563d b16e 77bd
000001a0: 4e5d 383d e045 acbd ac41 7dbd 6939 28bd
000001b0: a21f b93d 14dc 173d 4adc 533d a9e1 803d
000001c0: 7596 c7bd 7055 cebd 293b 9bbd a2bd 7cbd
000001d0: 1039 c9bd 6640 3abd 6a89 aabd e373 28bd
000001e0: ff18 bfbd 31ba 0dbd 8e68 b6bc 419a 52bd
000001f0: c797 74bd fa9b 5e3d 5c42 c33c 5a4f e5bd
00000200: 73bd 27bd c77e 29bd 0c21 c5bd bb1a dabc
00000210: b604 8fbc fe67 c5bd a7a5 abbd 2b59 bcbd
00000220: b691 063c e316 293d 6a9d c73c c6f9 b0bc
00000230: c03f c7bc bd8e 55bd c710 363d 387d cebd
00000240: 648d 90bc 882c ccbd a2fd 5abd 3b49 d4bd
00000250: a397 79bd 199f a0bd c642 88bd bbed ccbd
00000260: a7db c4bd e910 87bd dd12 c1bd bd15 6b3d
00000270: f9ec c83d 65c0 12bd 95bd babd 2f15 d1bc
00000280: b1be c0bd 5288 9bbd a4cc d1bd 2bac 33bd
00000290: 3c55 c9bd 8370 bdbd 6211 fcbc 8a6c 2cbd
000002a0: 752c 06be d2b7 9ebd 3eab 7dbd 3576 a6bd
000002b0: bce2 5bbd 4fb8 a9bd 32b8 9dbd cf16 f8bc
000002c0: 2be8 f8bc b9a4 e7bc f275 89bd a16d d1bd
000002d0: b055 90bd b702 693c 4c6d bb3d f5de 54bc
000002e0: 8119 31bd f5ce 2ebd 9f8e b73c dfef 67bc
000002f0: 796e 90bd dbcd afbd 804b bcbd b795 88bd
00000300: 78a2 e6bc 2dd8 c8bc 4501 5bbd afe7 a1bd
00000310: db12 c1bd b474 823d 467b d43c 1a48 d23d
00000320: 6f9a 9d3c 016e 413d 8713 9fbc 8d40 9fbd
00000330: 09a6 5abd 2048 bebd 96d4 543d 4d55 4abd
00000340: 02de 93bd 8229 98bd 614a b43d 9571 9f3d
00000350: 1c94 39bd d224 72bd fa22 92bd 9f08 61bd
00000360: 9430 aebd 70de c5bd ad8e c6bd 0a49 16bd
00000370: 87ab 66bd 527c babd 97b5 babd d2f0 a9bc
00000380: 359a cabd a554 cebd 5ab7 32bd f8a2 c4bd
00000390: 431b bbbd f087 0dbd 72cd cabd ae27 373d
000003a0: c0c3 be3c cb99 ab3c 7b18 5d3d c761 9cbd
000003b0: 3f9c 64bd 4254 e33c 285b b1bc 2283 68bd
000003c0: 71f4 9fbd 6957 41bd ae36 26bd b5b9 d1bd
000003d0: 3748 cdbd ea02 2bbe d1ee 843d c34e 8abd
000003e0: 3bdf 86bd b468 86bd bcb9 cd3c c1a6 40bd
000003f0: f9e8 9ebd 6cf7 b4bd 6048 253d ccc2 7cbd

encoder.conv2.bias f4 [32]
-0.025449332 -0.122453 -0.08490319 -0.013810014 -0.15174043 -0.06272213 -0.020363687 -0.09275594
-0.03523213 -0.08710768 -0.07563927 -0.21809076 -0.09085172 -0.09609159 -0.1711154 -0.17333554
-0.009067599 -0.005695678 -0.015170544 -0.09218564 -0.053490493 -0.07146817 -0.08661689 -0.051519684
-0.06896614 -0.022950914 -0.06749085 -0.11828087 -0.07497144 -0.11865328 -0.011778332 -0.105584376
00000000: 1e7b d0bc a3c8 fabd b9e1 adbd 6643 62bc
00000010: d861 1bbe 7674 80bd bfd1 a6bc d4f6 bdbd
00000020: 914f 10bd 8365 b2bd c3e8 9abd 2f53 5fbe
00000030: 7710 babd abcb c4bd e038 2fbe df7e 31be
00000040: 4490 14bc cfa2 babb e08d 78bc d3cb bcbd
00000050: d918 5bbd e75d 92bd 3264 b1bd 4e06 53bd
00000060: 1f3e 8dbd 8e03 bcbc a538 8abd 3e3d f2bd
00000070: a08a 99bd 7e00 f3bd e8f9 40bc 9f3c d8bd

encoder.conv3.weight f4 [32, 32, 16]
-0.05986382 -0.08888352 -0.047720857 -0.037326146 -0.07140942 -0.092845 -0.050484184 -0.08866875
-0.09150387 -0.022367435 -0.05949813 -0.037394065 -0.06817313 -0.052302368 -0.09671713 -0.072154626
-0.036919158 -0.029767051 -0.030992076 -0.05319776 -0.088297166 -0.04128544 -0.06964131 -0.05826512
-0.09189346 -0.08676266 -0.028824175 -0.0937735 -0.069450945 -0.04670132 -0.032785203 -0.072359115
-0.04203182 -0.066628195 0.08132376 -0.09652328 -0.09194157 -0.07385264 -0.05285494 -0.098012015
-0.084623724 0.031590607 -0.077062584 -0.07856252 -0.08305093 -0.046634667 -0.07117524 -0.017222615
-0.04543103 -0.0670555 -0.034153342 -0.04736172 -0.102648966 -0.06310107 -0.03290154 -0.025458785
-0.09209215 -0.052406482 -0.09569538 -0.066595025 -0.029645847 -0.026905073 -0.073719345 -0.04758561
-0.09278559 -0.07103537 -0.045016814 -0.044162452 -0.017155817 -0.09351101 -0.029002905 -0.094897784
-0.049408868 -0.029087065 -0.03666986 -0.0816952 -0.023283252 -0.06509688 -0.024606964 -0.06339144
-0.05929515 -0.09303837 -0.029776473 -0.098047175 -0.09691631 -0.04223178 -0.053963784 -0.033827584
-0.097937234 -0.032298714 -0.066796735 -0.085465655 -0.098920256 -0.037029143 -0.052024975 -0.043049045
-0.06322658 -0.078824334 -0.07388469 -0.09626593 -0.022660293 -0.058052734 -0.063766055 -0.026979025
-0.027959151 -0.027673444 -0.052406725 -0.0861586 -0.09142571 -0.093833126 0.046423107 -0.07443228
0.04043897 0.044508524 0.08586675 -0.0957953 0.031269614 0.05394379 -0.08495419 -0.043695454
0.02337898 -0.07667584 -0.05160512 -0.017636996 0.074632175 -0.074640095 -0.076673485 -0.08459262
-0.051976178 -0.077339776 -0.037833262 -0.030235475 -0.10265227 -0.052742023 -0.046439655 -0.025226964
-0.023374267 -0.06846896 -0.037770707 -0.06767617 -0.07167247 -0.09483726 -0.039297726 -0.035693984
-0.068780564 -0.06311088 -0.050651435 -0.058316063 -0.04311402 -0.06973449 -0.10309273 -0.07650987
-0.075292796 -0.070981935 -0.0576017 -0.06449988 -0.039415926 -0.047535256 -0.09244429 -0.055158753
-0.08089018 -0.035191566 -0.06387602 -0.0358254 -0.10329936 -0.023515796 -0.09655844 0.022815382
-0.03397168 -0.04241798 -0.059354186 -0.049244687 -0.07024501 -0.033145968 -0.0398447 -0.055113286
-0.10142149 -0.07748788 -0.05749607 -0.103112735 -0.0973038 -0.08999098 -0.053042375 -0.10137888
-0.02453226 -0.02410772 -0.06848601 -0.054855444 -0.06816888 -0.07899029 -0.040340193 -0.051236402
-0.08679933 -0.05950115 -0.032030065 -0.039979182 -0.10182297 -0.022110904 -0.042002715 0.02466814
-0.09685023 -0.053968254 -0.034328133 -0.02027238 -0.09818978 -0.028942196 -0.04747926 -0.07307707
-0.08666223 -0.08540903 0.020166848 -0.0427232 0.07256656 0.0874971 -0.09204957 -0.0441404
-0.095617265 -0.052643653 -0.044322386 -0.05519104 -0.06591568 -0.061736718 -0.0740132 -0.059312418
-0.023742285 -0.040831048 -0.06025398 -0.09785661 -0.09949478 -0.09064123 -0.068679474 -0.031003142
-0.02115495 -0.04855425 -0.04138789 -0.04816999 -0.03960846 -0.01946104 -0.017650062 -0.028961293
-0.08478578 -0.09189565 -0.07877455 0.004130843 0.015511942 -0.032630652 -0.12808904 -0.16532472
-0.22225799 -0.0066164806 -0.101375625 -0.06979594 -0.07835795 -0.08051314 -0.046137955 -0.072849534
00000000: c433 75bd 9008 b6bd f276 43bd 4de3 18bd
00000010: 1a3f 92bd 8525 bebd 81c8 4ebd f697 b5bd
00000020: 6266 bbbd e93b b7bc 50b4 73bd 852a 19bd
00000030: 5b9e 8bbd 023b 56bd a113 c6bd cec5 93bd
00000040: 8b38 17bd 08da f3bc 18e3 fdbc e5e5 59bd
00000050: 25d5 b4bd ec1a 29bd 1aa0 8ebd 68a7 6ebd
00000060: a332 bcbd 9fb0 b1bd ad20 ecbc 520c c0bd
00000070: 4c3c 8ebd e249 3fbd c749 06bd 0431 94bd
00000080: 8f29 2cbd 5d74 88bd 128d a63d ffad c5bd
00000090: dd4b bcbd 0e40 97bd 6c7e 58bd 86ba c8bd
000000a0: 344f adbd 2765 013d fdd2 9dbd 63e5 a0bd
000000b0: 9b16 aabd fe03 3fbd 53c4 91bd 7116 8dbc
000000c0: e315 3abd 6554 89bd 60e4 0bbd 5dfe 41bd
000000d0: 9f39 d2bd 223b 81bd c4c3 06bd f18e d0bc
000000e0: cf9a bcbd 2ea8 56bd f0fb c3bd f962 88bd
000000f0: d9db f2bc 0768 dcbc 2bfa 96bd 21e9 42bd
00000100: 5f06 bebd fe7a 91bd 8d63 38bd b0e3 34bd
00000110: 5b8a 8cbc b382 bfbd 8097 edbc c559 c2bd
00000120: f460 4abd ff47 eebc 2333 16bd d04f a7bd
00000130: 85bc bebc 8351 85bd 8b94 c9bc 5fd3 81bd
00000140: 79df 72bd e78a bebd caed f3bc f5cc c8bd
00000150: 0f7c c6bd 3bfb 2cbd 2109 5dbd cb8e 0abd
00000160: 5193 c8bd a84b 04bd bacc 88bd 9e08 afbd
00000170: b496 cabd dfab 17bd 2418 55bd 3254 30bd
00000180: f07c 81bd a76e a1bd db50 97bd 1227 c5bd
00000190: 14a2 b9bc b4c8 6dbd c797 82bd 1e03 ddbc
000001a0: 970a e5bc 6bb3 e2bc 6fa8 56bd ec73 b0bd
000001b0: 673d bbbd 952b c0bd 2826 3e3d f46f 98bd
000001c0: 55a3 253d 924e 363d e8da af3d 5430 c4bd
000001d0: 9114 003d 2af4 5c3d 76fc adbd 01fa 32bd
000001e0: 4685 bf3c 3908 9dbd e45f 53bd 767b 90bc
000001f0: c1d8 983d e8dc 98bd fd06 9dbd e53e adbd
00000200: f9e4 54bd 5164 9ebd 0df7 1abd 63b0 f7bc
00000210: 5a3b d2bd 0508 58bd 8237 3ebd c7a8 cebc
00000220: 647b bfbc 7439 8cbd 75b5 1abd ce99 8abd
00000230: 04c9 92bd 0a3a c2bd a7f6 20bd db33 12bd
00000240: d3dc 8cbd 4740 81bd e177 4fbd d3dc 6ebd
00000250: 5498 30bd f5d0 8ebd 4822 d3bd 35b1 9cbd
00000260: 1c33 9abd fa5e 91bd c3ef 6bbd 8318 84bd
00000270: 9872 21bd 54b4 42bd 6f53 bdbd 25ee 61bd
00000280: c0a9 a5bd 0825 10bd 6ed1 82bd a8bd 12bd
00000290: 9d8e d3bd 33a4 c0bc 6ec0 c5bd 53e7 ba3c
000002a0: e325 0bbd 7abe 2dbd 601d 73bd ccb4 49bd
000002b0: 9edc 8fbd 11c4 07bd 3234 23bd 78be 61bd
000002c0: 12b6 cfbd f7b1 9ebd 0081 6bbd c52c d3bd
000002d0: 3747 c7bd 314d b8bd f642 59bd bb9f cfbd
000002e0: e1f7 c8bc 8e7d c5bc 6542 8cbd 1ab0 60bd
000002f0: 209c 8bbd a9c5 a1bd c23b 25bd 43dd 51bd
00000300: d9c3 b1bd 7ab7 73bd f531 03bd 36c1 23bd
00000310: 9088 d0bd ed21 b5bc 0a0b 2cbd d714 ca3c
00000320: 6a59 c6bd d10d 5dbd a89b 0cbd 4312 a6bc
00000330: b917 c9bd 2f18 edbc 9d79 42bd 6ea9 95bd
00000340: f87b b1bd eeea aebd f234 a53c 86fe 2ebd
00000350: c79d 943d ae31 b33d 7c84 bcbd 90cc 34bd
00000360: fcd2 c3bd dfa0 57bd 648b 35bd 0010 62bd
00000370: cdfe 86bd a4df 7cbd 3c94 97bd 94f1 72bd
00000380: 2e7f c2bc 753e 27bd e1cc 76bd 0c69 c8bd
00000390: ebc3 cbbd 1ca2 b9bd d3a7 8cbd 4dfa fdbc
000003a0: 254d adbc d2e0 46bd 5986 29bd e54d 45bd
000003b0: 7b3c 22bd c26c 9fbc dd96 90bc 3c40 edbc
000003c0: 2ba4 adbd c933 bcbd 8d54 a1bd 065c 873b
000003d0: cd25 7e3c b8a7 05bd c629 03be e24a 29be
000003e0: 9997 63be 10cf d8bb 069e cfbd 2cf1 8ebd
000003f0: 227a a0bd 13e4 a4bd 27fb 3cbd 2332 95bd

encoder.conv3.bias f4 [32]
-0.108433865 -0.009421363 -0.057255205 -0.060319126 0.04694226 -0.037616353 -0.048541557 -0.08401125
-0.00753972 0.0037444497 -0.06514917 0.0004704612 -0.08701513 -0.026800735 -0.015831234 -0.09364747
-0.034454733 -0.042239554 -0.11051043 -0.09814078 -0.062658384 -0.12948895 -0.02439709 -0.07337775
-0.05199926 -0.119500384 -0.09100359 -0.060186666 -0.10064132 -0.055509966 -0.08239669 -0.112549536
00000000: 9312 debd 0f5c 1abc 6f84 6abd 3011 77bd
00000010: 8746 403d 9b13 1abd 83d3 46bd 170e acbd
00000020: c10f f7bb 7165 753b ee6c 85bd 3ca8 f639
00000030: fd34 b2bd 378d dbbc 81b0 81bc 3fca bfbd
00000040: 6820 0dbd 6203 2dbd 4b53 e2bd 09fe c8bd
00000050: 0a53 80bd c098 04be 68dc c7bc 1347 96bd
00000060: 2dfd 54bd 9ebc f4bd 1760 babd 4b86 76bd
00000070: 091d cebd 6b5e 63bd 99bf a8bd 5f80 e6bd

encoder.dense1.weight f4 [64, 2400]
0.07546967 0.07483026 0.06289422 0.052506167 0.052495927 0.044857915 0.0490058 -0.040408242
-0.0560214 -0.042087868 0.067528255 0.06848071 -0.054686714 0.068892755 0.07170774 0.062714994
0.047509167 -0.06348271 0.056000154 0.065914266 0.04922242 0.06293482 0.07742808 0.053260293
0.061244484 -0.04138117 0.05698413 -0.056765426 -0.042235535 0.07448322 0.058822833 0.045337487
0.07582802 0.053442184 0.048031714 0.07173404 0.06812577 -0.051961474 0.05892995 0.04929807
0.059309453 0.06656965 0.07641225 -0.07455691 -0.043132354 0.05462877 0.07844619 0.08017638
-0.05892062 -0.04602799 -0.06929028 0.06509467 -0.04096538 0.05251111 0.045315787 0.07450489
0.069488615 -0.0718546 0.050310355 -0.046210222 -0.056703374 0.062226515 -0.06758976 -0.065919556
-0.0668995 0.044916242 0.060802262 0.056364167 0.07886876 -0.079769574 -0.040576898 -0.05537489
-0.050287344 0.064746015 0.07879246 -0.034881826 -0.030600227 -0.06983616 -0.07461505 -0.045030106
-0.06307237 -0.05756904 -0.031476546 -0.0586102 -0.021004172 -0.046491563 -0.025726072 -0.05716611
-0.062463712 -0.01936325 -0.051429663 -0.056074332 -0.04538624 -0.08391298 -0.055982422 -0.05897315
-0.05068654 -0.03644708 -0.082886316 -0.04399348 -0.046125468 -0.049466964 -0.0626294 -0.08979208
-0.06780446 -0.022566203 -0.035596088 -0.1008462 -0.08681973 -0.07830426 -0.037896022 -0.086531535
-0.09206494 -0.06523253 -0.035862125 -0.017834296 -0.033691917 -0.019732913 -0.07016034 -0.04779086
-0.05959557 -0.07207849 -0.034076255 -0.057912316 -0.026538752 -0.051771656 -0.08573761 -0.07039999
-0.047004428 -0.06216292 -0.05395371 -0.02105728 0.029577473 -0.07731422 -0.048942827 -0.020439683
-0.019003307 -0.06542519 -0.049199592 -0.07434564 -0.06690611 -0.025092587 -0.005855138 -0.059932426
-0.05372438 -0.035049453 -0.09035905 -0.101099715 -0.04979145 -0.08499947 0.04764155 -0.048430517
-0.072950795 0.059566963 0.04067811 -0.047486655 -0.07990401 0.07965747 0.07424274 0.07566583
0.052618694 -0.06037031 -0.04458685 0.06926449 0.05341092 -0.047456548 -0.079749405 0.059317894
-0.05152851 0.056206416 0.063869946 -0.073270805 -0.07322438 -0.065388255 0.054853205 0.040757887
0.051706582 0.07704157 0.046144225 0.053461466 0.037724458 -0.07629141 0.05016264 0.054242827
0.05232545 -0.06773974 -0.05568302 0.07083891 0.043623455 0.06372494 -0.06884915 -0.039718084
0.060815472 -0.044544358 0.05953978 0.043741208 -0.055719048 0.07893139 0.05011063 0.04860512
0.06914389 -0.07805254 0.052254792 -0.06209104 0.041732725 -0.04041466 0.07374701 -0.07178715
0.04737313 0.062422127 0.06198766 -0.06935194 0.080071785 0.047680262 0.061948046 0.038720004
0.049828347 0.0777825 -0.04373524 0.059874848 0.06276691 -0.044438154 0.050345495 0.05472668
0.05130303 0.04105381 0.07416755 0.056606464 0.05984287 0.05502957 -0.055819716 0.051541783
0.04313078 0.06445435 0.062497646 -0.04353588 -0.062648274 -0.050758656 0.04698649 0.06582958
0.06943442 -0.049690258 0.0662539 0.079968065 0.07313389 0.06877385 0.055333707 0.075624175
0.06731249 0.07573011 0.046265908 0.065161236 0.07004998 0.067258045 -0.07242121 0.07335598
00000000: d88f 9a3d 9b40 993d afce 803d b510 573d
00000010: f805 573d efbc 373d 4eba 483d 1d83 25bd
00000020: b276 65bd 5464 2cbd 414c 8a3d 9d3f 8c3d
00000030: 2dff 5fbd a517 8d3d 82db 923d b870 803d
00000040: f998 423d 3903 82bd 6b60 653d 0ffe 863d
00000050: 739d 493d f9e3 803d 9d92 9e3d 7727 5a3d
00000060: 7fdb 7a3d 4d7f 29bd 3168 693d dd82 68bd
00000070: 2bff 2cbd a98a 983d 36f0 703d cdb3 393d
00000080: b94b 9b3d 31e6 5a3d e7bc 443d 4ce9 923d
00000090: 8685 8b3d 8ed5 54bd 8860 713d c6ec 493d
000000a0: 78ee 723d ab55 883d 077e 9c3d 4bb1 98bd
000000b0: 8dab 30bd 6bc2 5f3d 65a8 a03d 8433 a43d
000000c0: bf56 71bd d887 3cbd 10e8 8dbd 5b50 853d
000000d0: 50cb 27bd e415 573d 0c9d 393d 0596 983d
000000e0: 0c50 8e3d 8128 93bd 3b12 4e3d ee46 3dbd
000000f0: cc41 68bd 3be1 7e3d 806c 8abd d500 87bd
00000100: 9b02 89bd 18fa 373d cb0b 793d 1dde 663d
00000110: f285 a13d 3b5e a3bd f633 26bd c8d0 62bd
00000120: 1afa 4dbd 8f99 843d f15d a13d 3fe0 0ebd
00000130: 54ad fabc 4306 8fbd c6cf 98bd 7d71 38bd
00000140: 162c 81bd 84cd 6bbd 8ded 00bd 4011 70bd
00000150: f110 acbc f06d 3ebd 7cbf d2bc 0327 6abd
00000160: f3d9 7fbd ae9f 9ebc e9a7 52bd 33ae 65bd
00000170: ece6 39bd 92da abbd d34d 65bd d48d 71bd
00000180: b09c 4fbd 8949 15bd 4dc0 a9bd 8232 34bd
00000190: 0fee 3cbd df9d 4abd d843 80bd e9e4 b7bd
000001a0: 11dd 8abd c2dc b8bc 34cd 11bd 7488 cebd
000001b0: 8bce b1bd fc5d a0bd dc38 1bbd 7237 b1bd
000001c0: 8b8c bcbd a298 85bd 2ae4 12bd 3b19 92bc
000001d0: 8900 0abd eba6 a1bc 39b0 8fbd 59c0 43bd
000001e0: 7c1a 74bd e39d 93bd 8b93 0bbd 7735 6dbd
000001f0: cc67 d9bc 840e 54bd 3397 afbd df2d 90bd
00000200: b787 40bd 8c9e 7ebd 91fe 5cbd 5180 acbc
00000210: 754c f23c eb56 9ebd 4678 48bd 1f71 a7bc
00000220: d3ac 9bbc a4fd 85bd 8385 49bd 8742 98bd
00000230: 1206 89bd f88e cdbc 75dc bfbb b47b 75bd
00000240: 180e 5cbd 0490 0fbd 2a0e b9bd 5e0d cfbd
00000250: 1ff2 4bbd 3414 aebd c923 433d 145f 46bd
00000260: 3a67 95bd 7dfc 733d 179e 263d 5e81 42bd
00000270: b7a4 a3bd 7523 a33d 940c 983d b0f6 9a3d
00000280: b386 573d dc46 77bd b3a0 36bd 8ada 8d3d
00000290: 69c5 5a3d cc61 42bd a853 a3bd 52f7 723d
000002a0: 8f0f 53bd b338 663d 3fce 823d 010f 96bd
000002b0: aaf6 95bd 47ea 85bd c1ad 603d bef1 263d
000002c0: 48ca 533d f8c7 9d3d ba01 3d3d 69fa 5a3d
000002d0: f684 1a3d ac3e 9cbd 5777 4d3d ba2d 5e3d
000002e0: 3653 563d 22bb 8abd e113 64bd fe13 913d
000002f0: 82ae 323d 3982 823d c800 8dbd 6eaf 22bd
00000300: a519 793d 2574 36bd fcdf 733d fb29 333d
00000310: a839 64bd c8a6 a13d ce40 4d3d 2a16 473d
00000320: 509b 8d3d 03da 9fbd 1f09 563d 2d53 7ebd
00000330: efef 2a3d d889 25bd ac08 973d 2405 93bd
00000340: 540a 423d 58ae 7f3d c6e6 7d3d 6408 8ebd
00000350: adfc a33d 614c 433d 3cbd 7d3d de98 1e3d
00000360: cf18 4c3d 6e4c 9f3d b923 33bd 543f 753d
00000370: f08b 803d c804 36bd 1437 4e3d 1529 603d
00000380: 2023 523d 0a28 283d 28e5 973d 2edc 673d
00000390: cc1d 753d b066 613d 37a3 64bd 7a1d 533d
000003a0: e7a9 303d a400 843d 88fd 7f3d ae52 32bd
000003b0: bd4d 80bd 4fe8 4fbd e874 403d a9d1 863d
000003c0: a233 8e3d 0388 4bbd 20b0 873d 4cc6 a33d
000003d0: 39c7 953d 4ed9 8c3d 99a5 623d d9e0 9a3d
000003e0: 21db 893d 6318 9b3d 5281 3d3d 4173 853d
000003f0: 5d76 8f3d 96be 893d 9251 94bd a93b 963d

encoder.dense1.bias f4 [64]
-0.10959042 0.21041416 -0.09117056 0.09417822 0.12302044 -0.16720925 -0.09024544 0.46968228
-0.113676324 -0.13379931 0.04832705 0.18212177 0.54321855 0.114053115 0.48235628 0.40328875
0.01129721 0.14728233 0.4123061 0.12901488 0.25577307 -0.04226467 0.12946439 -0.106935635
-0.07773655 0.53989303 -0.16819163 0.43210134 -0.19096069 0.06447859 0.072352424 0.292856
0.26710463 -0.07528259 0.13554779 0.5911093 -0.08636619 0.3455562 -0.05011158 0.29552984
-0.08958895 0.22606178 0.25933805 0.39069948 -0.18271549 -0.08446936 -0.12076615 0.025019856
0.44924623 0.4753956 0.28392917 0.10090761 0.47209305 0.6085582 0.0830626 0.058826953
0.1659143 -0.109814525 -0.2332245 0.046382487 0.31859478 -0.21808617 0.14426778 0.49630556
00000000: f170 e0bd cf76 573e a1b7 babd 83e0 c03d
00000010: 24f2 fb3d e738 2bbe 9ad2 b8bd 327a f03e
00000020: 22cf e8bd b002 09be 96f2 453d 217e 3a3e
00000030: 5f10 0b3f ae94 e93d 67f7 f63e dd7b ce3e
00000040: ef17 393c 2ed1 163e c919 d33e 7a1c 043e
00000050: b0f4 823e b81d 2dbd 5092 043e 1201 dbbd
00000060: 5734 9fbd 6e36 0a3f 6d3a 2cbe 633c dd3e
00000070: 338b 43be 5a0d 843d 822d 943d 39f1 953e
00000080: f0c1 883e c22d 9abd 0acd 0a3e f052 173f
00000090: c2e0 b0bd beec b03e cd41 4dbd b04f 973e
000000a0: 697a b7bd bd7c 673e f5c7 843e c309 c83e
000000b0: c519 3bbe 46fe acbd 3e54 f7bd 71f6 cc3c
000000c0: 9a03 e63e 0d67 f33e 2a5f 913e a6a8 ce3d
000000d0: 2eb6 f13e 78ca 1b3f b91c aa3d 88f4 703d
000000e0: 70e5 293e 70e6 e0bd 67d2 6ebe 90fb 3d3d
000000f0: db1e a33e fb51 5fbe efba 133e c31b fe3e

encoder.encoder1.0.weight f4 [32, 1, 16]
-0.22813533 -0.20665917 -0.22183265 -0.04337135 -0.032402024 -0.21715143 -0.24709626 0.13200796
0.1419795 -0.062268674 0.1546173 0.029810745 -0.18364406 -0.33490387 -0.06871586 -0.09733937
0.08916081 -0.09816553 0.08707516 -0.15518872 -0.132243 -0.098835625 -0.2887891 0.09472191
-0.10349712 -0.32963043 -0.3305764 0.14812359 0.1221538 0.023646554 -0.09008335 -0.1405017
-0.1565904 -0.07474273 -0.2225617 0.12691365 -0.19866577 0.007668432 -0.12026422 0.07176932
-0.3149132 -0.009112037 0.13320582 0.02156682 0.012535518 -0.2102395 -0.17630868 -0.12324655
-0.14185196 -0.12093785 0.090890676 0.011449846 0.02026525 -0.16368102 -0.21892685 -0.1183162
0.15966557 -0.21962082 -0.2687802 -0.25018206 0.028485507 0.0024036986 0.18081631 -0.009845972
-0.2843786 0.022066174 -0.042613663 -0.020759793 -0.15954001 0.055135652 0.032629445 -0.3280121
-0.30533373 -0.1854948 -0.12080066 0.0061672097 -0.10094529 -0.07915605 0.0290256 -0.17644909
0.047330216 0.07463074 -0.29479817 -0.32661313 0.14843935 -0.18136561 -0.17028977 -0.16470617
0.16266616 0.08912409 -0.08542382 -0.099506944 0.0814874 -0.17615342 -0.28345332 -0.038763687
-0.0388788 -0.1630254 -0.25437567 -0.15412973 -0.24030715 -0.28098506 -0.12595783 -0.30039713
-0.18952602 -0.050380673 -0.19947188 -0.019469868 0.0003271039 -0.19638215 -0.25530282 -0.0117066465
-0.012288442 -0.028914912 0.1281237 -0.21637112 0.011932822 -0.22346322 0.094916604 -0.05131212
-0.05974878 -0.016011052 -0.038847234 -0.20161353 0.09986031 -0.09286773 -0.09151022 -0.20856081
0.006922464 -0.23306543 -0.08437508 -0.09613333 0.009974186 0.097929515 -0.008981138 -0.097779475
0.03339979 -0.23726282 0.12070309 -0.1486233 0.08665147 -0.07647323 -0.2186219 -0.10388287
-0.18641399 -0.06809091 0.0137038175 -0.022449147 0.13299394 -0.008545953 -0.17347942 0.07813444
-0.14865175 -0.0063174274 -0.1525524 -0.24747711 0.021829005 0.060355213 0.038655587 -0.20603731
-0.114985004 -0.09843594 -0.10064598 -0.19874011 0.004145777 -0.030742856 0.011885464 0.10743052
0.14506069 -0.20646332 -0.2516323 0.076873705 -0.031471495 -0.012762222 0.11958266 -0.07151635
-0.08023029 -0.24645826 0.061124474 0.035896096 -0.11039761 -0.023228 -0.18502171 -0.2044707
0.045197498 0.1481287 0.018232523 0.15858427 -0.0973587 0.07559672 0.1542928 0.10240802
-4.1802345e-05 -0.28249016 -0.18107444 -0.107769385 -0.24371758 -0.05145321 -0.043348577 -0.084881276
-0.020139143 -0.13890386 -0.05561901 -0.07650668 -0.06829232 -0.3430904 0.0054249177 0.08583329
0.06380481 -0.04657633 -0.12717196 0.15608542 -0.1934489 -0.053330563 -0.28281036 0.15221144
-0.29447642 -0.124537796 0.12163502 -0.25842455 0.13300362 0.052898366 -0.11660279 -0.14366572
-0.24360257 -0.13792963 -0.22386065 -0.18744312 -0.025319053 0.022927267 0.07146544 -0.029105207
0.091595 -0.31573588 -0.1690871 0.085292846 -0.34975833 -0.12617892 -0.34212127 -0.24646683
-0.32524496 -0.2664275 -0.056018397 -0.089161284 0.003525811 -0.29386425 -0.04655523 -0.14955643
0.059651136 0.06429715 0.12322677 0.037885882 -0.21933629 -0.25904146 0.20363599 0.20076059
00000000: 4f9c 69be 769e 53be 1928 63be 28a6 31bd
00000010: fcb7 04bd f25c 5ebe cd06 7dbe 182d 073e
00000020: 1363 113e 700d 7fbd ff53 1e3e aa35 f43c
00000030: 300d 3cbe 8578 abbe e7ba 8cbd dd59 c7bd
00000040: f199 b63d 020b c9bd 7654 b23d cbe9 1ebe
00000050: b66a 07be 556a cabd 2adc 93be 90fd c13d
00000060: 4cf6 d3bd 52c5 a8be 4f41 a9be b6ad 173e
00000070: c62b fa3d 6bb6 c13c 9f7d b8bd addf 0fbe
00000080: 3c59 20be b712 99bd 37e7 63be a7f5 013e
00000090: 0a6f 4bbe 7847 fb3b 164d f6bd cbfb 923d
000000a0: 4e3c a1be a74a 15bc 1b67 083e e6ac b03c
000000b0: c661 4d3c 0649 57be 438a 34be b068 fcbd
000000c0: a441 11be 43ae f7bd e424 ba3d 2398 3b3c
000000d0: 4f03 a63c ff9b 27be 5c2e 60be c44f f2bd
000000e0: 5f7f 233e 48e4 60be 8f9d 89be dd17 80be
000000f0: 705a e93c 5f87 1d3b e927 393e 0051 21bc
00000100: 129a 91be 1fc4 b43c aa8b 2ebd 7110 aabc
00000110: 755e 23be ecd5 613d 74a6 053d 34f1 a7be
00000120: b454 9cbe 59f2 3dbe 5666 f7bd 4e16 ca3b
00000130: 67bc cebd 911c a2bd 18c7 ed3c 12af 34be
00000140: 54dd 413d 00d8 983d c9ef 96be d639 a7be
00000150: 7c00 183e e8b7 39be 7160 2ebe bca8 28be
00000160: f591 263e b186 b63d aff2 aebd 4cca cbbd
00000170: dee2 a63d 9061 34be cb20 91be acc6 1ebd
00000180: 603f 1fbd 21f0 26be 873d 82be 2fd4 1dbe
00000190: 1413 76be 46dd 8fbe 17fb 00be a7cd 99be
000001a0: 1c13 42be f75b 4ebd 5b42 4cbe 467f 9fbc
000001b0: 247f ab39 6718 49be 0db7 82be 3ccd 3fbc
000001c0: 7655 49bc f7de ecbc dc32 033e 6490 5dbe
000001d0: e281 433c 8bd3 64be a363 c23d a82c 52bd
000001e0: 23bb 74bd 9c29 83bc 471e 1fbd c773 4ebe
000001f0: 9083 cc3d 7031 bebd b669 bbbd f790 55be
00000200: d6d5 e23b b4a8 6ebe d8cc acbd 8de1 c4bd
00000210: c56a 233c 458f c83d 9f25 13bc 9b40 c8bd
00000220: 38ce 083d 06f5 72be 2f33 f73d b530 18be
00000230: 5376 b13d ff9d 9cbd 6bde 5fbe 8bc0 d4bd
00000240: 4fe3 3ebe 3f73 8bbd fa85 603c 46e7 b7bc
00000250: 902f 083e 5304 0cbc 97a4 31be f304 a03d
00000260: 2a38 18be 6c02 cfbb b236 1cbe a46a 7dbe
00000270: bed2 b23c 0737 773d 5255 1e3d 72fb 52be
00000280: 427d ebbd c898 c9bd 7b1f cebd 8782 4bbe
00000290: 4cd9 873b 71d8 fbbc 40bb 423c 8804 dc3d
000002a0: ca8a 143e 1f6b 53be f3d5 80be f66f 9d3d
000002b0: 41e8 00bd a418 51bc c1e7 f43d 2a77 92bd
000002c0: c74f a4bd 8e5f 7cbe a85d 7a3d c907 133d
000002d0: 2418 e2bd a648 bebc 5576 3dbe c460 51be
000002e0: 0321 393d 0daf 173e 5f5c 953c ea63 223e
000002f0: 0064 c7bd 74d2 9a3d effe 1d3e 4cbb d13d
00000300: ed54 2fb8 8da2 90be 946b 39be 32b6 dcbd
00000310: 1a91 79be 9ac0 52bd 478e 31bd 3cd6 adbd
00000320: d8fa a4bc d03c 0ebe c2d0 63bd 89af 9cbd
00000330: d8dc 8bbd 8ba9 afbe 82c3 b13b 5dc9 af3d
00000340: 19ac 823d d2c6 3ebd 5e39 02be dbd4 1f3e
00000350: 7817 46be 2671 5abd 85cc 90be 51dd 1b3e
00000360: 9dc5 96be ac0d ffbd c81b f93d 3950 84be
00000370: 1a32 083e f5ab 583d 72cd eebd 1b1d 13be
00000380: f472 79be 6d3d 0dbe ba3b 65be 17f1 3fbe
00000390: e769 cfbc f7d1 bb3c 795c 923d 0b6e eebc
000003a0: 2996 bb3d 22a8 a1be 2b25 2dbe 04ae ae3d
000003b0: 8613 b3be 0c35 01be 852a afbe cd61 7cbe
000003c0: 8286 a6be 2f69 88be 8c73 65bd 319a b6bd
000003d0: 4b11 673b 6075 96be b2b0 3ebd 5225 19be
000003e0: c054 743d 39ae 833d 515e fc3d 3a2e 1b3d
000003f0: b199 60be 15a1 84be f485 503e 2f94 4d3e

encoder.encoder1.0.bias f4 [32]
0.04785898 -0.046396643 -0.22861783 -0.19308333 -0.2371659 -0.020956099 0.4517974 -0.1568618
-0.29536146 -0.3226456 -0.27454138 -0.090142 -0.5537007 -0.23582597 0.005690295 0.018870868
-0.043458305 -0.05976591 -0.2744175 0.18988009 -0.09383069 0.083194345 0.07071979 -0.17366606
0.14863226 0.04828645 -0.45738384 -0.4270554 -0.009503221 0.0253424 -0.054764796 -0.07645811
00000000: c707 443d 680a 3ebd cb1a 6abe a3b7 45be
00000010: 9edb 72be 20ac abbc fd51 e73e 61a0 20be
00000020: 9e39 97be ce31 a5be b090 8cbe 5e9c b8bd
00000030: 54bf 0dbf 5d7c 71be a775 ba3b 1497 9a3c
00000040: 5601 32bd 19cd 74bd 7380 8cbe ed6f 423e
00000050: 4e2a c0bd cc61 aa3d 8ad5 903d 84d5 31be
00000060: 0e33 183e 03c8 453d 372e eabe 01a7 dabe
00000070: 66b3 1bbc dd9a cf3c 0d51 60bd 1296 9cbd

encoder.encoder1.2.weight f4 [32, 32, 16]
-0.0999039 -0.053830214 -0.06950964 -0.038254894 -0.09140686 0.068383 0.06428023 0.06828294
-0.08974747 -0.097215146 -0.097686075 -0.038310513 -0.052196037 0.03891437 0.018065564 -0.045080367
-0.099115506 -0.09931074 0.05723131 0.031411026 -0.08445236 -0.018158266 -0.024936972 -0.06423468
-0.08427805 -0.031136815 -0.079713605 -0.039095685 -0.05178663 0.043371752 -0.12600976 -0.027972965
-0.033500347 -0.10149385 -0.08005111 -0.045053 -0.070464395 -0.08598639 -0.07450038 -0.036855634
0.048087534 0.038724124 0.08786754 0.064475 -0.07532189 0.08641631 0.06782479 0.043731324
0.07610328 0.06902565 -0.08313044 -0.1010877 -0.0394 -0.03771895 -0.09128526 -0.036828868
-0.045023113 -0.05197683 -0.07641967 0.026688367 0.05345817 -0.032778464 -0.101361595 -0.074195564
0.05764663 -0.050106328 -0.08401972 -0.05856697 -0.06816397 -0.064693935 -0.043915596 -0.041663487
-0.058847167 0.056659617 -0.05091801 0.053990964 0.04888794 0.03709586 0.0486598 0.024837894
-0.089078665 -0.047503497 -0.06636555 -0.052028064 -0.08616648 0.040656004 -0.057253394 -0.051418398
-0.022220798 -0.05069423 -0.07770417 -0.023039773 -0.080919005 -0.022665372 -0.11164624 0.06866446
-0.0485829 0.027820429 0.08170637 0.042806413 -0.08171529 0.02322576 0.052321352 -0.060408298
0.045010857 -0.08411765 -0.061830208 -0.041070376 0.090392366 0.037075117 0.051723756 0.06293041
-0.09745494 -0.1007489 -0.07579643 -0.061704285 -0.09825337 -0.04547157 -0.08326991 -0.041126143
-0.093309395 -0.034601394 -0.022266652 -0.05141664 -0.05971506 0.05434797 0.023835354 -0.11196776
-0.040952157 -0.04138067 -0.09625444 -0.026624074 -0.017458301 -0.096389756 -0.08381205 -0.09196695
0.008213451 0.041281592 0.024367053 -0.021603476 -0.02432239 -0.05213808 0.044449594 -0.10082477
-0.017645545 -0.09969431 -0.05346454 -0.1036553 -0.060935628 -0.078428455 -0.06653361 -0.10006281
-0.09612208 -0.06595022 -0.09427426 0.057393778 0.09810824 -0.035828013 -0.09118191 -0.025522796
-0.094113715 -0.075943604 -0.1024411 -0.043865364 -0.0983071 -0.092499755 -0.030770008 -0.0420957
-0.13102897 -0.07749905 -0.061930887 -0.08128015 -0.053683028 -0.08287107 -0.07701148 -0.030284313
-0.030384144 -0.028276788 -0.067119494 -0.10225988 -0.070475936 0.014221839 0.09151706 -0.01299261
-0.043237213 -0.04267784 0.022406874 -0.014156311 -0.07052321 -0.08584186 -0.09194088 -0.06669181
-0.028153643 -0.024517143 -0.053468008 -0.07905518 -0.094274245 0.063699156 0.025937688 0.102676585
0.019238679 0.04722405 -0.019418491 -0.07775984 -0.053381 -0.092911005 0.05196055 -0.049397755
-0.07220079 -0.07429792 0.08803249 0.07785336 -0.045307264 -0.059117146 -0.071355775 -0.054939862
-0.08505359 -0.09661567 -0.09695182 -0.03669075 -0.056315925 -0.091057435 -0.09116667 -0.020744715
-0.09892694 -0.100747384 -0.04363189 -0.09601396 -0.09136059 -0.03455347 -0.09902467 0.044715576
0.0232867 0.020947358 0.053978425 -0.07635837 -0.05581307 0.027750138 -0.021649912 -0.056765683
-0.078102954 -0.0472025 -0.04057949 -0.10240499 -0.100235395 -0.1670033 0.06490863 -0.06753304
-0.065855466 -0.06562939 0.02511298 -0.04703403 -0.0775928 -0.088362545 0.040352225 -0.06170921
00000000: 6a9a ccbd 127d 5cbd 125b 8ebd 2ab1 1cbd
00000010: 8533 bbbd 630c 8c3d 5aa5 833d edd7 8b3d
00000020: 86cd b7bd bc18 c7bd a30f c8bd 7ceb 1cbd
00000030: 83cb 55bd ad64 1f3d 3cfe 933c 31a6 38bd
00000040: 12fd cabd 6e63 cbbd 616b 6a3d d9a8 003d
00000050: 5cf5 acbd a5c0 94bc 9f48 ccbc 798d 83bd
00000060: f899 acbd a212 ffbc e340 a3bd cc22 20bd
00000070: 381e 54bd 94a6 313d b408 01be 8f27 e5bc
00000080: a937 09bd 02dc cfbd d6f1 a3bd 7f89 38bd
00000090: a34f 90bd a219 b0bd a893 98bd eff5 16bd
000000a0: 6ff7 443d 309d 1e3d e6f3 b33d 780b 843d
000000b0: 5d42 9abd 09fb b03d b9e7 8a3d 9e1f 333d
000000c0: 09dc 9b3d 525d 8d3d 4b40 aabd 1107 cfbd
000000d0: e561 21bd 307f 1abd c4f3 babd ded9 16bd
000000e0: 286a 38bd a8e5 54bd ea81 9cbd 90a1 da3c
000000f0: f4f6 5a3d b642 06bd ab96 cfbd d8f3 97bd
00000100: df1e 6c3d 4b3c 4dbd 8812 acbd ebe3 6fbd
00000110: 8d99 8bbd 417e 84bd d7e0 33bd 55a7 2abd
00000120: ba09 71bd ea13 683d 678f 50bd a125 5d3d
00000130: b83e 483d d4f1 173d 804f 473d d778 cb3c
00000140: e06e b6bd 0793 42bd a9ea 87bd 611b 55bd
00000150: 0d78 b0bd e986 263d 8982 6abd 199c 52bd
00000160: 6408 b6bc c1a4 4fbd 5d23 9fbd e8bd bcbc
00000170: ddb8 a5bd bbac b9bc c9a6 e4bd f49f 8c3d
00000180: ddfe 46bd abe7 e33c ab55 a73d c755 2f3d
00000190: 595a a7bd f343 be3c ea4e 563d b16e 77bd
000001a0: 4e5d 383d e045 acbd ac41 7dbd 6939 28bd
000001b0: a21f b93d 14dc 173d 4adc 533d a9e1 803d
000001c0: 7596 c7bd 7055 cebd 293b 9bbd a2bd 7cbd
000001d0: 1039 c9bd 6640 3abd 6a89 aabd e373 28bd
000001e0: ff18 bfbd 31ba 0dbd 8e68 b6bc 419a 52bd
000001f0: c797 74bd fa9b 5e3d 5c42 c33c 5a4f e5bd
00000200: 73bd 27bd c77e 29bd 0c21 c5bd bb1a dabc
00000210: b604 8fbc fe67 c5bd a7a5 abbd 2b59 bcbd
00000220: b691 063c e316 293d 6a9d c73c c6f9 b0bc
00000230: c03f c7bc bd8e 55bd c710 363d 387d cebd
00000240: 648d 90bc 882c ccbd a2fd 5abd 3b49 d4bd
00000250: a397 79bd 199f a0bd c642 88bd bbed ccbd
00000260: a7db c4bd e910 87bd dd12 c1bd bd15 6b3d
00000270: f9ec c83d 65c0 12bd 95bd babd 2f15 d1bc
00000280: b1be c0bd 5288 9bbd a4cc d1bd 2bac 33bd
00000290: 3c55 c9bd 8370 bdbd 6211 fcbc 8a6c 2cbd
000002a0: 752c 06be d2b7 9ebd 3eab 7dbd 3576 a6bd
000002b0: bce2 5bbd 4fb8 a9bd 32b8 9dbd cf16 f8bc
000002c0: 2be8 f8bc b9a4 e7bc f275 89bd a16d d1bd
000002d0: b055 90bd b702 693c 4c6d bb3d f5de 54bc
000002e0: 8119 31bd f5ce 2ebd 9f8e b73c dfef 67bc
000002f0: 796e 90bd dbcd afbd 804b bcbd b795 88bd
00000300: 78a2 e6bc 2dd8 c8bc 4501 5bbd afe7 a1bd
00000310: db12 c1bd b474 823d 467b d43c 1a48 d23d
00000320: 6f9a 9d3c 016e 413d 8713 9fbc 8d40 9fbd
00000330: 09a6 5abd 2048 bebd 96d4 543d 4d55 4abd
00000340: 02de 93bd 8229 98bd 614a b43d 9571 9f3d
00000350: 1c94 39bd d224 72bd fa22 92bd 9f08 61bd
00000360: 9430 aebd 70de c5bd ad8e c6bd 0a49 16bd
00000370: 87ab 66bd 527c babd 97b5 babd d2f0 a9bc
00000380: 359a cabd a554 cebd 5ab7 32bd f8a2 c4bd
00000390: 431b bbbd f087 0dbd 72cd cabd ae27 373d
000003a0: c0c3 be3c cb99 ab3c 7b18 5d3d c761 9cbd
000003b0: 3f9c 64bd 4254 e33c 285b b1bc 2283 68bd
000003c0: 71f4 9fbd 6957 41bd ae36 26bd b5b9 d1bd
000003d0: 3748 cdbd ea02 2bbe d1ee 843d c34e 8abd
000003e0: 3bdf 86bd b468 86bd bcb9 cd3c c1a6 40bd
000003f0: f9e8 9ebd 6cf7 b4bd 6048 253d ccc2 7cbd

encoder.encoder1.2.bias f4 [32]
-0.025449332 -0.122453 -0.08490319 -0.013810014 -0.15174043 -0.06272213 -0.020363687 -0.09275594
-0.03523213 -0.08710768 -0.07563927 -0.21809076 -0.09085172 -0.09609159 -0.1711154 -0.17333554
-0.009067599 -0.005695678 -0.015170544 -0.09218564 -0.053490493 -0.07146817 -0.08661689 -0.051519684
-0.06896614 -0.022950914 -0.06749085 -0.11828087 -0.07497144 -0.11865328 -0.011778332 -0.105584376
00000000: 1e7b d0bc a3c8 fabd b9e1 adbd 6643 62bc
00000010: d861 1bbe 7674 80bd bfd1 a6bc d4f6 bdbd
00000020: 914f 10bd 8365 b2bd c3e8 9abd 2f53 5fbe
00000030: 7710 babd abcb c4bd e038 2fbe df7e 31be
00000040: 4490 14bc cfa2 babb e08d 78bc d3cb bcbd
00000050: d918 5bbd e75d 92bd 3264 b1bd 4e06 53bd
00000060: 1f3e 8dbd 8e03 bcbc a538 8abd 3e3d f2bd
00000070: a08a 99bd 7e00 f3bd e8f9 40bc 9f3c d8bd

encoder.encoder1.4.weight f4 [32, 32, 16]
-0.05986382 -0.08888352 -0.047720857 -0.037326146 -0.07140942 -0.092845 -0.050484184 -0.08866875
-0.09150387 -0.022367435 -0.05949813 -0.037394065 -0.06817313 -0.052302368 -0.09671713 -0.072154626
-0.036919158 -0.029767051 -0.030992076 -0.05319776 -0.088297166 -0.04128544 -0.06964131 -0.05826512
-0.09189346 -0.08676266 -0.028824175 -0.0937735 -0.069450945 -0.04670132 -0.032785203 -0.072359115
-0.04203182 -0.066628195 0.08132376 -0.09652328 -0.09194157 -0.07385264 -0.05285494 -0.098012015
-0.084623724 0.031590607 -0.077062584 -0.07856252 -0.08305093 -0.046634667 -0.07117524 -0.017222615
-0.04543103 -0.0670555 -0.034153342 -0.04736172 -0.102648966 -0.06310107 -0.03290154 -0.025458785
-0.09209215 -0.052406482 -0.09569538 -0.066595025 -0.029645847 -0.026905073 -0.073719345 -0.04758561
-0.09278559 -0.07103537 -0.045016814 -0.044162452 -0.017155817 -0.09351101 -0.029002905 -0.094897784
-0.049408868 -0.029087065 -0.03666986 -0.0816952 -0.023283252 -0.06509688 -0.024606964 -0.06339144
-0.05929515 -0.09303837 -0.029776473 -0.098047175 -0.09691631 -0.04223178 -0.053963784 -0.033827584
-0.097937234 -0.032298714 -0.066796735 -0.085465655 -0.098920256 -0.037029143 -0.052024975 -0.043049045
-0.06322658 -0.078824334 -0.07388469 -0.09626593 -0.022660293 -0.058052734 -0.063766055 -0.026979025
-0.027959151 -0.027673444 -0.052406725 -0.0861586 -0.09142571 -0.093833126 0.046423107 -0.07443228
0.04043897 0.044508524 0.08586675 -0.0957953 0.031269614 0.05394379 -0.08495419 -0.043695454
0.02337898 -0.07667584 -0.05160512 -0.017636996 0.074632175 -0.074640095 -0.076673485 -0.08459262
-0.051976178 -0.077339776 -0.037833262 -0.030235475 -0.10265227 -0.052742023 -0.046439655 -0.025226964
-0.023374267 -0.06846896 -0.037770707 -0.06767617 -0.07167247 -0.09483726 -0.039297726 -0.035693984
-0.068780564 -0.06311088 -0.050651435 -0.058316063 -0.04311402 -0.06973449 -0.10309273 -0.07650987
-0.075292796 -0.070981935 -0.0576017 -0.06449988 -0.039415926 -0.047535256 -0.09244429 -0.055158753
-0.08089018 -0.035191566 -0.06387602 -0.0358254 -0.10329936 -0.023515796 -0.09655844 0.022815382
-0.03397168 -0.04241798 -0.059354186 -0.049244687 -0.07024501 -0.033145968 -0.0398447 -0.055113286
-0.10142149 -0.07748788 -0.05749607 -0.103112735 -0.0973038 -0.08999098 -0.053042375 -0.10137888
-0.02453226 -0.02410772 -0.06848601 -0.054855444 -0.06816888 -0.07899029 -0.040340193 -0.051236402
-0.08679933 -0.05950115 -0.032030065 -0.039979182 -0.10182297 -0.022110904 -0.042002715 0.02466814
-0.09685023 -0.053968254 -0.034328133 -0.02027238 -0.09818978 -0.028942196 -0.04747926 -0.07307707
-0.08666223 -0.08540903 0.020166848 -0.0427232 0.07256656 0.0874971 -0.09204957 -0.0441404
-0.095617265 -0.052643653 -0.044322386 -0.05519104 -0.06591568 -0.061736718 -0.0740132 -0.059312418
-0.023742285 -0.040831048 -0.06025398 -0.09785661 -0.09949478 -0.09064123 -0.068679474 -0.031003142
-0.02115495 -0.04855425 -0.04138789 -0.04816999 -0.03960846 -0.01946104 -0.017650062 -0.028961293
-0.08478578 -0.09189565 -0.07877455 0.004130843 0.015511942 -0.032630652 -0.12808904 -0.16532472
-0.22225799 -0.0066164806 -0.101375625 -0.06979594 -0.07835795 -0.08051314 -0.046137955 -0.072849534
00000000: c433 75bd 9008 b6bd f276 43bd 4de3 18bd
00000010: 1a3f 92bd 8525 bebd 81c8 4ebd f697 b5bd
00000020: 6266 bbbd e93b b7bc 50b4 73bd 852a 19bd
00000030: 5b9e 8bbd 023b 56bd a113 c6bd cec5 93bd
00000040: 8b38 17bd 08da f3bc 18e3 fdbc e5e5 59bd
00000050: 25d5 b4bd ec1a 29bd 1aa0 8ebd 68a7 6ebd
00000060: a332 bcbd 9fb0 b1bd ad20 ecbc 520c c0bd
00000070: 4c3c 8ebd e249 3fbd c749 06bd 0431 94bd
00000080: 8f29 2cbd 5d74 88bd 128d a63d ffad c5bd
00000090: dd4b bcbd 0e40 97bd 6c7e 58bd 86ba c8bd
000000a0: 344f adbd 2765 013d fdd2 9dbd 63e5 a0bd
000000b0: 9b16 aabd fe03 3fbd 53c4 91bd 7116 8dbc
000000c0: e315 3abd 6554 89bd 60e4 0bbd 5dfe 41bd
000000d0: 9f39 d2bd 223b 81bd c4c3 06bd f18e d0bc
000000e0: cf9a bcbd 2ea8 56bd f0fb c3bd f962 88bd
000000f0: d9db f2bc 0768 dcbc 2bfa 96bd 21e9 42bd
00000100: 5f06 bebd fe7a 91bd 8d63 38bd b0e3 34bd
00000110: 5b8a 8cbc b382 bfbd 8097 edbc c559 c2bd
00000120: f460 4abd ff47 eebc 2333 16bd d04f a7bd
00000130: 85bc bebc 8351 85bd 8b94 c9bc 5fd3 81bd
00000140: 79df 72bd e78a bebd caed f3bc f5cc c8bd
00000150: 0f7c c6bd 3bfb 2cbd 2109 5dbd cb8e 0abd
00000160: 5193 c8bd a84b 04bd bacc 88bd 9e08 afbd
00000170: b496 cabd dfab 17bd 2418 55bd 3254 30bd
00000180: f07c 81bd a76e a1bd db50 97bd 1227 c5bd
00000190: 14a2 b9bc b4c8 6dbd c797 82bd 1e03 ddbc
000001a0: 970a e5bc 6bb3 e2bc 6fa8 56bd ec73 b0bd
000001b0: 673d bbbd 952b c0bd 2826 3e3d f46f 98bd
000001c0: 55a3 253d 924e 363d e8da af3d 5430 c4bd
000001d0: 9114 003d 2af4 5c3d 76fc adbd 01fa 32bd
000001e0: 4685 bf3c 3908 9dbd e45f 53bd 767b 90bc
000001f0: c1d8 983d e8dc 98bd fd06 9dbd e53e adbd
00000200: f9e4 54bd 5164 9ebd 0df7 1abd 63b0 f7bc
00000210: 5a3b d2bd 0508 58bd 8237 3ebd c7a8 cebc
00000220: 647b bfbc 7439 8cbd 75b5 1abd ce99 8abd
00000230: 04c9 92bd 0a3a c2bd a7f6 20bd db33 12bd
00000240: d3dc 8cbd 4740 81bd e177 4fbd d3dc 6ebd
00000250: 5498 30bd f5d0 8ebd 4822 d3bd 35b1 9cbd
00000260: 1c33 9abd fa5e 91bd c3ef 6bbd 8318 84bd
00000270: 9872 21bd 54b4 42bd 6f53 bdbd 25ee 61bd
00000280: c0a9 a5bd 0825 10bd 6ed1 82bd a8bd 12bd
00000290: 9d8e d3bd 33a4 c0bc 6ec0 c5bd 53e7 ba3c
000002a0: e325 0bbd 7abe 2dbd 601d 73bd ccb4 49bd
000002b0: 9edc 8fbd 11c4 07bd 3234 23bd 78be 61bd
000002c0: 12b6 cfbd f7b1 9ebd 0081 6bbd c52c d3bd
000002d0: 3747 c7bd 314d b8bd f642 59bd bb9f cfbd
000002e0: e1f7 c8bc 8e7d c5bc 6542 8cbd 1ab0 60bd
000002f0: 209c 8bbd a9c5 a1bd c23b 25bd 43dd 51bd
00000300: d9c3 b1bd 7ab7 73bd f531 03bd 36c1 23bd
00000310: 9088 d0bd ed21 b5bc 0a0b 2cbd d714 ca3c
00000320: 6a59 c6bd d10d 5dbd a89b 0cbd 4312 a6bc
00000330: b917 c9bd 2f18 edbc 9d79 42bd 6ea9 95bd
00000340: f87b b1bd eeea aebd f234 a53c 86fe 2ebd
00000350: c79d 943d ae31 b33d 7c84 bcbd 90cc 34bd
00000360: fcd2 c3bd dfa0 57bd 648b 35bd 0010 62bd
00000370: cdfe 86bd a4df 7cbd 3c94 97bd 94f1 72bd
00000380: 2e7f c2bc 753e 27bd e1cc 76bd 0c69 c8bd
00000390: ebc3 cbbd 1ca2 b9bd d3a7 8cbd 4dfa fdbc
000003a0: 254d adbc d2e0 46bd 5986 29bd e54d 45bd
000003b0: 7b3c 22bd c26c 9fbc dd96 90bc 3c40 edbc
000003c0: 2ba4 adbd c933 bcbd 8d54 a1bd 065c 873b
000003d0: cd25 7e3c b8a7 05bd c629 03be e24a 29be
000003e0: 9997 63be 10cf d8bb 069e cfbd 2cf1 8ebd
000003f0: 227a a0bd 13e4 a4bd 27fb 3cbd 2332 95bd
