CAC/DC/networks/weights/DC/DC_5_myTestCACclassifierAccuracy.pth (torch, 754052 bytes, 19 tensors)

anchors f8 [4, 4]
10.0 0.0 0.0 0.0 0.0 10.0 0.0 0.0
0.0 0.0 10.0 0.0 0.0 0.0 0.0 10.0
00000000: 0000 0000 0000 2440 0000 0000 0000 0000
00000010: 0000 0000 0000 0000 0000 0000 0000 0000
00000020: 0000 0000 0000 0000 0000 0000 0000 2440
00000030: 0000 0000 0000 0000 0000 0000 0000 0000
00000040: 0000 0000 0000 0000 0000 0000 0000 0000
00000050: 0000 0000 0000 2440 0000 0000 0000 0000
00000060: 0000 0000 0000 0000 0000 0000 0000 0000
00000070: 0000 0000 0000 0000 0000 0000 0000 2440

encoder.conv1.weight f4 [32, 1, 16]
-0.17591158 0.028413098 -0.019254133 -0.037334617 -0.25896627 0.09427378 -0.15374239 -0.11294428
0.038809415 -0.18911526 -0.13845249 0.013345045 -0.123761974 0.04364494 -0.066875294 -0.17505552
0.009227051 -0.26851046 -0.21477382 0.034521855 -0.23359732 -0.020940833 0.09858954 0.14386655
0.012339565 -0.15561509 -0.25279036 -0.19703342 0.05022627 -0.07118624 -0.07841807 0.06965563
-0.2723525 0.011057938 0.08880422 0.05847722 -0.16917762 -0.222824 0.13268128 0.12658621
-0.031958092 -0.08137614 0.1736815 -0.10576316 0.030078711 -0.0022415544 0.07922842 0.019962916
-0.28537434 0.09590237 -0.18433298 0.14098284 -0.14925592 0.016222065 0.055970095 -0.30981672
0.1259305 -0.1639035 -0.1140341 -0.1565975 0.09418711 -0.048587997 0.12574862 -0.11547759
-0.23221312 -0.29558486 0.041917183 0.06381367 -0.1251839 -0.117444836 0.13628653 -0.24118553
0.10475403 0.06291446 -0.12967013 0.08799188 -0.18232538 -0.19004552 -0.19443482 -0.13492778
-0.17216311 -0.1669645 0.053179 0.15645175 -0.21403019 -0.2886218 0.12845254 0.011242049
-0.17938109 -0.0672614 -0.053801052 0.0745377 -0.20193882 -0.13508347 0.15941261 -0.25149733
0.04667767 0.0013810481 -0.25229093 -0.13630511 -0.2944384 0.0995236 0.11706085 0.12980123
-0.20656678 0.111514874 -0.13238393 -0.009539272 -0.2583523 -0.05834398 0.108553275 0.084195375
0.0484507 -0.2463581 -0.24368508 -0.010164851 0.15671152 -0.10647962 -0.059797585 0.10889177
0.13721076 -0.057510123 -0.20492986 -0.26566315 -0.088222705 -0.10495788 0.07958738 -0.00870845
-0.25701565 -0.07917657 -0.0040287743 -0.27319756 -0.23375171 -0.21590818 -0.23163746 -0.01711823
0.01815903 -0.3299894 -0.0316665 -0.27072346 -0.13009462 -0.08344242 -0.0013416145 0.15247627
0.0069787046 -0.12068157 0.17698568 0.09169229 0.012197057 0.09839327 -0.16513133 0.20037988
-0.0818415 0.1652711 0.084896974 -0.055086236 0.1260978 -0.006912132 -0.053473584 -0.16587144
-0.11659921 0.07764981 -0.31289196 -0.05622797 -0.2566906 0.018769799 -0.030354425 -0.1703373
-0.13556427 -0.07386427 -0.024830272 -0.14163044 0.08074485 -0.027713697 -0.052526068 -0.24722674
-0.33628145 -0.2794922 -0.12788565 -0.09291956 -0.020664364 0.115070656 0.023682728 0.18138707
-0.05466592 0.15848087 0.13962902 -0.091776565 -0.12503795 0.0081404615 0.11601113 0.092184566
-0.3001538 -0.0949356 0.0818933 -0.016491853 -0.09094411 -0.10848729 0.091488205 -0.06894342
-0.17007647 -0.19365944 -0.342629 -0.18390286 -0.1946303 0.019881807 -0.1752957 0.1213977
-0.06154673 -0.22442238 -0.099898495 -0.20838395 -0.28211975 0.10718986 0.038120896 0.0725111
-0.28780824 0.012034148 0.027810035 -0.10018356 -0.19678803 0.009029237 -0.26618478 -0.05677218
-0.23387352 -0.3122387 -0.025355047 0.022741145 -0.046914108 -0.14814441 -0.23787114 0.0530568
0.06389283 -0.24290913 -0.03991288 0.080636404 -0.33097845 -0.2509744 -0.27351367 -0.27556643
-0.06706407 -0.19336802 0.020644708 0.118504666 -0.2016877 -0.14070484 -0.14829692 0.053842757
-0.21541657 -0.026008865 0.03445615 -0.037498545 -0.17485864 0.01506627 -0.090458296 -0.21643269
00000000: 2a22 34be 96c2 e83c d8ba 9dbc 2fec 18bd
00000010: 3a97 84be 9d12 c13d a56e 1dbe 554f e7bd
00000020: 9ff6 1e3d 6ea7 41be 7dc6 0dbe 2da5 5a3c
00000030: eb76 fdbd 09c5 323d eaf5 88bd c141 33be
00000040: 0f2d 173c 347a 89be abed 5bbe ca66 0d3d
00000050: 2334 6fbe 1c8c abbc 50e9 c93d c151 133e
00000060: e32b 4a3c 9059 1fbe bd6d 81be 21c3 49be
00000070: 10ba 4d3d 17ca 91bd a799 a0bd 9ca7 8e3d
00000080: c971 8bbe 5b2c 353c fdde b53d cf85 6f3d
00000090: e63c 2dbe fa2b 64be 9add 073e d19f 013e
000000a0: 7de6 02bd 89a8 a6bd 90d9 313e 5b9a d8bd
000000b0: a167 f63c 0be7 12bb 8342 a23d 4589 a33c
000000c0: 961c 92be 7668 c43d c9c1 3cbe ce5d 103e
000000d0: 8bd6 18be 23e4 843c e640 653d 4ca0 9ebe
000000e0: edf3 003e 52d6 27be b68a e9bd 185b 20be
000000f0: 2ce5 c03d 3504 47bd 3fc4 003e 847f ecbd
00000100: 47c9 6dbe e656 97be 5ab1 2b3d beb0 823d
00000110: 3530 00be eb86 f0bd b28e 0b3e 57f9 76be
00000120: 4889 d63d 4cd9 803d 3fc8 04be 1635 b43d
00000130: 81b3 3abe 4b9b 42be ec19 47be 822a 0abe
00000140: 874b 30be bef8 2abe 39d2 593d e334 203e
00000150: bb2a 5bbe 3dc6 93be 1089 033e 9230 383c
00000160: adaf 37be 58c0 89bd 7e5e 5cbd 39a7 983d
00000170: 0dc9 4ebe 5253 0abe 0f3d 233e 42c4 80be
00000180: 1631 3f3d 4904 b53a 472c 81be 9193 0bbe
00000190: a1c0 96be 07d3 cb3d 99bd ef3d 9dea 043e
000001a0: 3e86 53be e961 e43d a78f 07be 9b4a 1cbc
000001b0: c146 84be 19fa 6ebd 2e51 de3d a06e ac3d
000001c0: 3e74 463d 4c45 7cbe 9588 79be 7a8a 26bc
000001d0: fc78 203e fd11 dabd 50ee 74bd a602 df3d
000001e0: fa80 0c3e bc8f 6bbd 22d9 51be 0005 88be
000001f0: 1bae b4bd 28f4 d6bd b5fe a23d e3ad 0ebc
00000200: 8e97 83be 5327 a2bd cf03 84bb 8de0 8bbe
00000210: 9c5c 6fbe 0917 5dbe 5f32 6dbe 883b 8cbc
00000220: 3fc2 943c 5ff4 a8be bbb4 01bd 449c 8abe
00000230: 8637 05be dce3 aabd 1dd9 afba bd22 1c3e
00000240: 9ead e43b e627 f7bd bc3b 353e 2bc9 bb3d
00000250: 2ad6 473c 6982 c93d 3018 29be 6230 4d3e
00000260: 849c a7bd d43c 293e 77de ad3d 1ba2 61bd
00000270: c81f 013e 2a7f e2bb 1e07 5bbd 34da 29be
00000280: 91cb eebd dd06 9f3d 6033 a0be 4d4f 66bd
00000290: f36c 83be 1fc3 993c d8a9 f8bc e76c 2ebe
000002a0: 5cd1 0abe 2646 97bd db68 cbbc 9207 11be
000002b0: 8e5d a53d d607 e3bc 9325 57bd 0229 7dbe
000002c0: 152d acbe 9a19 8fbe 75f4 02be 9c4c bebd
000002d0: 5048 a9bc 2aaa eb3d 4802 c23c 88bd 393e
000002e0: 5fe9 5fbd cf48 223e e9fa 0e3e 5af5 bbbd
000002f0: f309 00be 925f 053c 3e97 ed3d 43cb bc3d
00000300: c2ad 99be 996d c2bd adb7 a73d ec19 87bc
00000310: e840 babd 962e debd 2b5e bb3d 3532 8dbd
00000320: 8728 2ebe a94e 46be 116d afbe 0851 3cbe
00000330: 2a4d 47be 2cdf a23c b780 33be 5b9f f83d
00000340: 6d18 7cbd fbce 65be 9597 ccbd 9a62 55be
00000350: 0072 90be 5b86 db3d a824 1c3d b380 943d
00000360: 9a5b 93be e02a 453c dfd1 e33c 0a2d cdbd
00000370: cd82 49be 5def 133c 5f49 88be f289 68bd
00000380: 8a7c 6fbe c0dd 9fbe 63b5 cfbc a34b ba3c
00000390: 0229 40bd 2bb3 17be 7e94 73be 1652 593d
000003a0: 3eda 823d 2cbd 78be b07b 23bd b324 a53d
000003b0: 0276 a9be b77f 80be fc09 8cbe 0b17 8dbe
000003c0: e358 89bd 4402 46be 171f a93c 93b2 f23d
000003d0: 3887 4ebe ee14 10be 26db 17be 398a 5c3d
000003e0: 2996 5cbe 8b10 d5bc e421 0d3d 1398 19bd
000003f0: 250e 33be 84d8 763c 3342 b9bd 88a0 5dbe

encoder.conv1.bias f4 [32]
-0.10526731 0.11258397 -0.1375493 0.039993957 0.027240407 -0.27491927 -0.26792714 0.08162116
-0.14146198 0.14289184 -0.21625166 0.19572362 0.11265 -0.22679558 -0.2693549 -0.27936998
-0.46355978 -0.10454874 -0.12964244 -0.28693476 -0.21655397 -0.27174503 -0.36325237 0.0763648
0.12458894 0.06501034 -0.36575475 -0.14960134 -0.17831744 -0.12459846 0.11165566 0.03308893
00000000: 6396 d7bd 6d92 e63d b9d9 0cbe b4d0 233d
00000010: 4627 df3c 38c2 8cbe bf2d 89be ff28 a73d
00000020: 69db 10be 3d52 123e 1371 5dbe c66b 483e
00000030: 0bb5 e63d 1a3d 68be e3e8 89be 9509 8fbe
00000040: b557 edbe a61d d6bd fdc0 04be 1de9 92be
00000050: 53c0 5dbe 2a22 8bbe 37fc b9be 2665 9c3d
00000060: 7c28 ff3d 2424 853d 3544 bbbe 1831 19be
00000070: d998 36be 7a2d ffbd b9ab e43d 4288 073d

encoder.conv2.weight f4 [32, 32, 16]
-0.098952375 -0.049699657 -0.08279037 -0.042036597 -0.07002589 0.05743395 -0.0911839 -0.09541037
-0.07248644 -0.07779372 -0.09126692 0.037644383 -0.051396195 -0.027961468 -0.042326465 -0.09268625
-0.094710775 -0.07760978 -0.019105593 -0.02413593 -0.035325438 -0.0509156 0.06547473 0.09446427
-0.02920012 -0.084453784 -0.03984285 -0.09611856 -0.09578521 -0.09987693 -0.07418369 -0.045068238
-0.04345784 -0.032131907 -0.07391211 -0.08621129 -0.07660112 -0.05046793 -0.064945936 -0.025538027
-0.068029374 -0.041680582 -0.08261093 -0.064866796 -0.108960584 -0.07703589 -0.049058292 -0.0583854
-0.050562914 -0.025178865 -0.04184869 -0.082319595 0.03311867 -0.10100741 -0.048229948 -0.06350969
-0.019032685 -0.073927686 0.028669458 -0.034105714 -0.08086841 -0.09560162 -0.05845963 0.027729357
-0.05482171 -0.036312584 -0.07298262 -0.030320318 0.07823616 0.012431105 -0.075144544 0.027114322
-0.02833734 -0.018292997 -0.014452891 -0.093279004 -0.052428722 -0.045026228 -0.02740667 -0.05099984
-0.04614629 -0.031642396 -0.0947155 -0.031594314 0.014751719 -0.04221888 -0.05987776 -0.046805777
-0.061511833 -0.03838878 -0.05211358 -0.07152143 -0.038299512 -0.074331634 -0.043987013 0.034165718
-0.03652068 -0.03767946 -0.046483256 -0.07376506 -0.029377485 -0.093906075 -0.101316676 -0.0246921
-0.019383967 -0.03368958 -0.07928702 -0.06364876 -0.054132443 -0.023422793 -0.10616035 -0.05074727
-0.09650291 -0.09866683 -0.09652286 -0.109340064 0.075785756 -0.09568593 -0.0985432 -0.05842912
-0.026075142 -0.034357302 -0.059349097 -0.04784629 -0.060857877 -0.050819684 -0.062056962 -0.0982009
-0.017744958 -0.03927335 -0.067129724 0.08010573 0.048383743 0.05455406 -0.040044878 -0.0942388
-0.07544138 0.061021395 -0.09462658 -0.100777194 -0.04739603 -0.01079467 0.031427287 -0.00091209164
-0.06583311 -0.040924814 -0.08603648 -0.09037045 -0.056864373 -0.050594136 -0.04981296 -0.09013641
-0.04646151 -0.06706331 -0.09216283 -0.050598152 -0.089849554 -0.060743626 -0.03161249 -0.0689789
0.030078247 0.03481163 -0.06601422 -0.10284721 -0.078343906 -0.0447657 0.015304537 -0.07859115
-0.06605244 -0.061560728 -0.04451864 -0.06611611 0.07421791 -0.05889451 -0.10416992 -0.09563139
-0.06830317 -0.058049988 -0.08900144 -0.09745877 -0.10177748 -0.06010966 -0.027779687 -0.07831898
-0.059856154 -0.09655054 -0.07051915 -0.039938483 -0.06287001 -0.03770563 -0.04412714 -0.072592795
-0.097609006 -0.09977285 -0.05096658 -0.0980273 -0.041104365 -0.03337554 -0.07031067 -0.026074508
-0.08856712 0.0925703 -0.03575038 -0.007497557 -0.086864546 -0.054171674 0.010215008 -0.064597815
-0.07513438 0.05039487 -0.060631655 -0.06893436 -0.038571775 -0.07103143 0.010388299 0.02160145
-0.0862696 -0.10185137 -0.06543151 -0.07375858 -0.09568616 0.019048952 -0.05160707 -0.08750415
-0.04234907 -0.07152031 -0.042780094 -0.040076233 -0.039713465 0.054885343 -0.044521805 -0.05827914
-0.03633675 -0.07605097 -0.038485933 0.016516978 -0.08850343 -0.091292575 -0.09926621 -0.09900783
-0.046428543 -0.07714778 -0.08102236 0.09385813 0.05245664 0.06696239 -0.08799655 -0.06867943
-0.09419889 0.0068572946 -0.05542302 -0.040991627 -0.08434056 -0.07319488 -0.034292307 0.03537631
00000000: 8ba7 cabd de91 4bbd ff8d a9bd 912e 2cbd
00000010: bc69 8fbd dd3f 6b3d a0be babd 8366 c3bd
00000020: c573 94bd 5052 9fbd 27ea babd ff30 1a3d
00000030: d184 52bd 730f e5bc 845e 2dbd 4ad2 bdbd
00000040: b9f7 c1bd e0f1 9ebd 5583 9cbc b7b8 c5bc
00000050: 68b1 10bd e08c 50bd 9e17 863d 7c76 c13d
00000060: 1735 efbc 1bf6 acbd 4232 23bd cfd9 c4bd
00000070: 092b c4bd 478c ccbd 9eed 97bd 7999 38bd
00000080: d900 32bd bf9c 03bd 3b5f 97bd 8b8f b0bd
00000090: 0ce1 9cbd 76b7 4ebd 6002 85bd 2035 d1bc
000000a0: fc52 8bbd 42b9 2abd eb2f a9bd e2d8 84bd
000000b0: ba26 dfbd fec4 9dbd 59f1 48bd 8725 6fbd
000000c0: 0f1b 4fbd e843 cebc 8869 2bbd 2d97 a8bd
000000d0: 71a7 073d f9dc cebd c48c 45bd 5e11 82bd
000000e0: 6fea 9bbc 6667 97bd 36dc ea3c 6fb2 0bbd
000000f0: 569e a5bd c8ca c3bd 5d73 6fbd ad28 e33c
00000100: bb8c 60bd 81bc 14bd e977 95bd 5162 f8bc
00000110: 483a a03d d5ab 4b3c 62e5 99bd db1e de3c
00000120: b623 e8bc 32db 95bc d2cb 6cbc 1009 bfbd
00000130: 80bf 56bd 6c6d 38bd f483 e0bc 35e5 50bd
00000140: e403 3dbd 759b 01bd 33fa c1bd 0a69 01bd
00000150: 32b1 713c b4ed 2cbd 6242 75bd 6ab7 3fbd
00000160: d5f3 7bbd 8e3d 1dbd 0d75 55bd d479 92bd
00000170: f3df 1cbd 2f3b 98bd ba2b 34bd 5af1 0b3d
00000180: b596 15bd c755 1abd 3a65 3ebd 2312 97bd
00000190: 0da9 f0bc d451 c0bd 1e7f cfbd 1647 cabc
000001a0: 20cb 9ebc 16fe 09bd 3c61 a2bd 485a 82bd
000001b0: fbb9 5dbd 28e1 bfbc 996a d9bd 5fdc 4fbd
000001c0: 51a3 c5bd d611 cabd c7ad c5bd afed dfbd
000001d0: 9035 9b3d fcf6 c3bd 04d1 c9bd 5f53 6fbd
000001e0: 899b d5bc 3eba 0cbd 0a18 73bd 79fa 43bd
000001f0: 1c46 79bd 4d28 50bd 712f 7ebd 8e1d c9bd
00000200: e05d 91bc 18dd 20bd 4f7b 89bd 790e a43d
00000210: 082e 463d 1474 5f3d 1906 24bd 4600 c1bd
00000220: 0381 9abd 92f1 793d 95cb c1bd 4664 cebd
00000230: 5722 42bd 21dc 30bc e6b9 003d 6f19 6fba
00000240: 82d3 86bd c7a0 27bd e533 b0bd 2414 b9bd
00000250: 9eea 68bd cc3b 4fbd ad08 4cbd 7099 b8bd
00000260: 6d4e 3ebd 7d58 89bd debf bcbd 0240 4fbd
00000270: 0b03 b8bd 4fce 78bd 197c 01bd cf44 8dbd
00000280: a866 f63c a496 0e3d 7732 87bd 8fa1 d2bd
00000290: c572 a0bd 3d5c 37bd e1bf 7a3c 66f4 a0bd
000002a0: 8046 87bd 1a27 7cbd 2d59 36bd e267 87bd
000002b0: 8fff 973d 5f3b 71bd 0a57 d5bd 64da c3bd
000002c0: 88e2 8bbd d3c5 6dbd 6346 b6bd 7798 c7bd
000002d0: b670 d0bd 8c35 76bd 3a92 e3bc b465 a0bd
000002e0: ba2b 75bd 4abc c5bd 586c 90bd 8996 23bd
000002f0: fec1 80bd 3871 1abd a9be 34bd 88ab 94bd
00000300: 3be7 c7bd b555 ccbd 55c2 50bd 89c2 c8bd
00000310: 0d5d 28bd cab4 08bd 0aff 8fbd 359a d5bc
00000320: ae62 b5bd 7f95 bd3d fe6e 12bd 11ae f5bb
00000330: 0ae6 b1bd 1ee3 5dbd d95c 273c dc4b 84bd
00000340: 0ee0 99bd da6a 4e3d e658 78bd 752d 8dbd
00000350: 70fd 1dbd ed78 91bd af33 2a3c 86f5 b03c
00000360: 1eae b0bd 7397 d0bd f500 86bd bd0e 97bd
00000370: 1bf7 c3bd 8c0c 9c3c ef61 53bd 6035 b3bd
00000380: 3876 2dbd 3e79 92bd 2e3a 2fbd fa26 24bd
00000390: 96aa 22bd 74cf 603d 7f5c 36bd 1cb6 6ebd
000003a0: d8d5 14bd 9cc0 9bbd 6da3 1dbd 9d4e 873c
000003b0: 4941 b5bd 9af7 babd 154c cbbd 9ec4 cabd
000003c0: db2b 3ebd a8ff 9dbd 0def a5bd b138 c03d
000003d0: c6dc 563d 9423 893d 8937 b4bd cda7 8cbd
000003e0: 59eb c0bd 28b3 e03b 4003 63bd d6e6 27bd
000003f0: beba acbd 32e7 95bd 1776 0cbd c0e6 103d

encoder.conv2.bias f4 [32]
-0.053981308 -0.041552383 -0.040158574 -0.06189008 -0.085212894 0.0020833623 -0.07672629 -0.027221214
-0.016555503 -0.04425015 -0.07733928 0.026054054 -0.015252646 -0.017305547 -0.022934254 -0.086607985
-0.07163149 -0.019794513 -0.019382253 -0.061315227 -0.08222182 -0.008884018 -0.0525635 -0.04246876
-0.0780359 -0.087777995 -0.085625336 -0.058817495 -0.059736326 -0.088073954 0.15284972 -0.043424662
00000000: 811b 5dbd d532 2abd 517d 24bd 7480 7dbd
00000010: 1984 aebd 0589 083b ac22 9dbd 06ff debc
00000020: 689f 87bc a53f 35bd 0e64 9ebd 506f d53c
00000030: 3ce6 79bc 5dc4 8dbc 9ee0 bbbc 875f b1bd
00000040: 88b3 92bd 1a28 a2bc 88c7 9ebc ad25 7bbd
00000050: ea63 a8bd 468e 11bc d34c 57bd b9f3 2dbd
00000060: 49d1 9fbd f3c4 b3bd 565c afbd 9dea 70bd
00000070: 14ae 74bd 1e60 b4bd a384 1c3e 0fde 31bd

encoder.conv3.weight f4 [32, 32, 16]
-0.04304044 -0.10343461 0.03655208 -0.0552402 -0.066249296 -0.07587819 -0.029689346 0.0015306321
-0.027526272 0.0044802045 -0.014968685 -0.039750382 -0.045002025 0.049379755 -0.09761672 -0.08184672
-0.027545182 -0.018043611 -0.055416416 -0.034017902 -0.015742939 -0.012431926 -0.039734248 0.01284403
-0.05825951 -0.04846854 -0.030340642 -0.067611545 -0.08867167 -0.060392242 0.02851003 -0.0320293
-0.022952266 0.09602295 0.06723822 0.021172695 -0.056438766 -0.037538633 -2.3231436e-05 -0.006936745
0.00988486 0.009587921 -0.012318295 -0.03836668 -0.05007855 -0.0006167985 0.0040463153 0.043669667
0.09280154 0.034348972 0.017884532 0.066155605 -0.04227665 0.04895506 0.05227635 0.017835882
0.010030755 -0.050296485 -4.74078e-14 0.022586914 0.008214619 0.07155164 0.09131178 -0.079792075
0.07317907 0.042918522 -9.48663e-08 0.023828976 0.039662994 0.021895755 4.017041e-05 0.059088163
0.074765965 0.021428494 0.06683432 0.049975883 -0.0066497605 0.013229907 -0.06403535 -0.020826316
-0.076284334 -0.07743253 -0.03987995 -0.017771909 -0.07070471 -0.07801834 -0.044127572 -0.050178174
-0.055113774 -0.07733243 -0.044479445 -0.06837409 -0.079795755 -0.07971308 -0.061221123 -0.02056337
-0.045959473 -0.037144236 -0.06186054 -0.065727524 -0.03166711 -0.07055812 -0.07799624 -0.07241773
-0.09849581 -0.016593428 -0.009221173 -0.007468944 -0.011020666 -0.058695555 -0.06123613 -0.033689022
-0.08404204 -0.053606074 -0.07319261 -0.034060445 -0.08743713 -0.06454793 -0.0063278805 -0.04418371
-0.017531749 -0.05471732 -0.0772758 -0.08240969 -0.033384137 -0.08363808 -0.06498043 -0.05798448
-0.10762893 -0.07035042 -0.09438666 -0.018240076 -0.047120944 -0.06558024 -0.03715751 -0.06633519
-0.046638 -0.09008932 -0.032770228 -0.015786208 -0.043581687 -0.054441236 -0.0684897 -0.026913257
-0.054588053 -0.052634295 -0.021549933 -0.011832233 -0.08659015 -0.046932124 -0.06213613 -0.0110757435
-0.006708278 -0.10704024 -0.048446037 -0.070089325 -0.07598634 -0.020750381 -0.082771346 -0.027264135
-0.076547876 -0.023733038 -0.025661636 -0.06283295 -0.065715425 -0.044852976 -0.056770597 -0.046795666
-0.09134608 -0.044352584 -0.016721683 -0.013635174 -0.060079753 -0.048639394 -0.062814064 -0.108821444
-0.061014336 -0.08747552 -0.084313065 -0.010249303 -0.077742286 -0.010593642 -0.07863001 -0.0149701135
-0.07358549 -0.06799777 -0.037403986 0.012383638 -0.06462284 -0.013758951 -0.109167196 -0.064000934
0.038667757 0.04344217 0.036093414 -0.06643547 0.083314165 0.08137595 -0.068257995 -0.070618585
0.046037357 -0.05953328 -0.11331588 -0.050513178 -0.07435091 0.025632901 -0.052484788 0.045799755
-0.05760631 0.08480394 0.09741183 0.022957262 0.052586697 0.053675145 0.005020672 0.039911408
-8.171335e-05 0.035454642 0.026842993 0.05987443 -0.048968073 -0.014845229 0.023506423 0.04304282
-0.05188449 -0.026290422 -0.09881691 -0.08629861 -0.040049117 -0.0010205902 -0.07606069 -0.027482618
-0.089298606 -0.03404795 -0.0077768965 -0.10063947 -0.046407167 -0.07015269 -0.036945485 -0.05145152
-0.047727868 -0.04360278 -0.0836149 -0.076832205 -0.021579308 0.010741561 -0.034118462 -0.08669018
-0.060826473 -0.015859049 -0.009960451 -0.04901984 -0.095549695 -0.041819256 -0.0038686956 -0.0010038418
00000000: 2c4b 30bd 86d5 d3bd a2b7 153d 8c43 62bd
00000010: b6ad 87bd 0666 9bbd 1237 f3bc 7e9f c83a
00000020: c77e e1bc aece 923b 373f 75bc 4cd1 22bd
00000030: 0b54 38bd 6d42 4a3d 46eb c7bd 419f a7bd
00000040: 6fa6 e1bc 32d0 93bc 53fc 62bd 5b56 0bbd
00000050: 56f7 80bc 47af 4bbc 61c0 22bd c46f 523c
00000060: 86a1 6ebd f386 46bd f08c f8bc ec77 8abd
00000070: 7e99 b5bd db5d 77bd de8d e93c 2831 03bd
00000080: 6406 bcbc aea7 c43d 31b4 893d 5c72 ad3c
00000090: 562c 67bd 1cc2 19bd 21e1 c2b7 a24d e3bb
000000a0: 1cf4 213c a816 1d3c add2 49bc 6126 1dbd
000000b0: 2a1f 4dbd a6b0 21ba f496 843b f7de 323d
000000c0: bc0e be3d 82b1 0c3d 9582 923c 977c 873d
000000d0: 482a 2dbd 1a85 483d ba1f 563d 8e1c 923c
000000e0: 0958 243c b003 4ebd 7981 55a9 3108 b93c
000000f0: 9c96 063c ab89 923d ac01 bb3d 076a a3bd
00000100: e9de 953d 55cb 2f3d 4db9 cbb3 fc34 c33c
00000110: aa75 223d ba5e b33c a67c 2838 6e06 723d
00000120: e61e 993d cf8a af3c 6fe0 883d 83b3 4c3d
00000130: 3ce6 d9bb 40c2 583c f724 83bd f39b aabc
00000140: f63a 9cbd f294 9ebd 2959 23bd 6596 91bc
00000150: a2cd 90bd 14c8 9fbd 1dbf 34bd a187 4dbd
00000160: fbbe 61bd 7760 9ebd 1430 36bd b707 8cbd
00000170: f56b a3bd 9c40 a3bd 00c3 7abd 8374 a8bc
00000180: 0040 3cbd 8e24 18bd 7a61 7dbd 279c 86bd
00000190: 5fb5 01bd c780 90bd 7ebc 9fbd bf4f 94bd
000001a0: 2cb8 c9bd f1ee 87bc 6714 17bc 0bbe f4bb
000001b0: 0690 34bc c06a 70bd bcd2 7abd 80fd 09bd
000001c0: 3c1e acbd 0b92 5bbd 02e6 95bd f782 0bbd
000001d0: 3d12 b3bd b531 84bd 1c5a cfbb faf9 34bd
000001e0: be9e 8fbc 451f 60bd c642 9ebd 69c6 a8bd
000001f0: cebd 08bd 714a abbd 7614 85bd 2281 6dbd
00000200: 8e6c dcbd e213 90bd cb4d c1bd 366c 95bc
00000210: e401 41bd ef4e 86bd 7932 18bd beda 87bd
00000220: 7d07 3fbd c080 b8bd 133a 06bd 1452 81bc
00000230: b682 32bd c6fd 5ebd 5444 8cbd 3179 dcbc
00000240: b997 5fbd 0f97 57bd 7c89 b0bc fbdb 41bc
00000250: 2d56 b1bd e63b 40bd 7482 7ebd 0977 35bc
00000260: 1dd1 dbbb ea37 dbbd 5a6f 46bd fe8a 8fbd
00000270: ba9e 9bbd b4fc a9bc 0684 a9bd 0959 dfbc
00000280: 22c5 9cbd ca6b c2bc 5a38 d2bc 90ae 80bd
00000290: cf95 86bd c1b7 37bd 4988 68bd d0ac 3fbd
000002a0: a713 bbbd 0eab 35bd e9fb 88bc 1166 5fbc
000002b0: 3016 76bd 1a3a 47bd a9a4 80bd c7dd debd
000002c0: 2bea 79bd 5e26 b3bd 54ac acbd b1ec 27bc
000002d0: 5937 9fbd f490 2dbc c508 a1bd 3545 75bc
000002e0: fdb3 96bd 6a42 8bbd ec34 19bd bee4 4a3c
000002f0: fb58 84bd 396d 61bc 0d93 dfbd ec12 83bd
00000300: 1562 1e3d 6bf0 313d b0d6 133d 520f 88bd
00000310: 9ea0 aa3d 6fa8 a63d d9ca 8bbd 7aa0 90bd
00000320: ab91 3c3d 2bd9 73bd 2812 e8bd e8e6 4ebd
00000330: 4a45 98bd 17fc d13c 4afa 56bd 8698 3b3d
00000340: 98f4 6bbd b0ad ad3d db7f c73d de10 bc3c
00000350: 2665 573d 78da 5b3d 7384 a43b 257a 233d
00000360: 855d abb8 e338 113d d6e5 db3c e43e 753d
00000370: bf92 48bd 6739 73bc 8b90 c03c ab4d 303d
00000380: d584 54bd 035f d7bc 8560 cabd 53bd b0bd
00000390: 8b0a 24bd 53c5 85ba b5c5 9bbd 3a23 e1bc
000003a0: 30e2 b6bd dd75 0bbd 56d5 febb 111c cebd
000003b0: 7115 3ebd 37ac 8fbd 2654 17bd d4be 52bd
000003c0: 4c7e 43bd d498 32bd 4a3e abbd 345a 9dbd
000003d0: 17c7 b0bc 5ffd 2f3c cdbf 0bbd 9f8a b1bd
000003e0: 2e25 79bd d6ea 81bc 2931 23bc 07c9 48bd
000003f0: 8faf c3bd ab4a 2bbd f189 7dbb 5793 83ba

encoder.conv3.bias f4 [32]
-0.03187239 -0.02443007 -0.078872316 -0.052743845 -0.04299532 -0.045918968 -0.013201291 -0.09467072
-0.035582244 -0.029267969 0.014167922 -0.04116091 -0.035755087 -0.015531649 -0.017915394 -0.08420255
-0.014279312 -0.04659595 -0.065764286 -0.09549913 -0.043331962 -0.050746188 -0.020971945 -0.06525401
-0.021000402 -0.043340728 -0.058771063 -0.043641377 -0.0049577877 -0.072107 -0.014564701 -0.055659965
00000000: a08c 02bd 9221 c8bc cf87 a1bd ee09 58bd
00000010: dc1b 30bd 8715 3cbd 3a4a 58bc b9e2 c1bd
00000020: b0be 11bd 61c3 efbc 9220 683c 5898 28bd
00000030: ed73 12bd 7578 7ebc 4ec3 92bc 6372 acbd
00000040: c7f3 69bc 65db 3ebd 6daf 86bd 0c95 c3bd
00000050: db7c 31bd 3cdb 4fbd 5bcd abbc e5a3 85bd
00000060: 0909 acbc 0c86 31bd edb9 70bd 4dc1 32bd
00000070: f074 a2bb d6ac 93bd c9a0 6ebc b4fb 63bd

encoder.dense1.weight f4 [64, 2400]
1.4320552e-14 1.13600034e-13 -6.7905378e-12 1.0764134e-13 -7.644182e-14 -9.846584e-14 -0.001750023 -0.0018457811
-2.8120603e-14 9.320294e-14 -3.757217e-14 -0.16370833 -0.18461128 -9.59432e-14 -0.14345144 4.9578634e-14
4.0407476e-14 -0.042949654 -0.15890343 -0.1624745 -8.481216e-14 -8.099569e-16 -1.3028142e-14 -2.4899103e-14
-2.5225832e-14 -1.1515266e-14 -5.729078e-14 -0.00051008596 -0.14203417 -6.706784e-14 -0.0077928817 -0.05016602
-0.020794393 -4.9234854e-14 6.754728e-14 -9.590051e-14 -0.0012676612 -0.1802872 1.4582826e-13 -1.017149e-13
-1.097949e-13 7.044316e-09 -3.091312e-14 -0.004058946 6.7273097e-15 -0.05668868 -0.047676947 1.022362e-13
-0.00055187993 1.2920843e-13 -0.18054387 -0.050968874 -0.031604167 -0.031491227 1.7916853e-14 -0.044658117
-0.12261316 0.054978576 -0.018996062 -4.772596e-14 9.48887e-15 -3.3705277e-15 8.423388e-15 -0.07102409
6.405639e-14 -0.0014038169 -0.04350658 1.4345851e-13 -5.24729e-14 -0.18120036 7.264901e-15 -1.0757699e-14
-0.045601506 -0.023524463 -1.4710543e-15 -0.07562593 -0.07517699 -0.07480315 -0.063431345 -0.05451734
0.06539278 -0.07892033 -0.048620287 -0.039826628 -0.052375484 0.051340334 -0.048848916 -0.045237113
-0.07899575 0.073382534 -0.054969225 -0.06750533 -0.04793322 0.054717444 -0.069892555 0.05668548
-0.06529705 -0.052042354 -0.058828253 -0.07544969 0.064185776 0.050388422 -0.06493432 -0.056568116
0.043173358 -0.07279402 -0.051305182 0.04718941 -0.041814446 -0.076867424 0.065564156 -0.044787593
-0.059562664 -0.05257259 -0.053691052 0.06818981 -0.06888091 -0.057364568 -0.042274993 0.080052376
-0.054074228 0.05108683 -0.07905376 -0.052838475 -0.0771882 -0.038740024 0.07183125 0.07540417
0.039382316 0.07612377 0.049037747 -0.07812236 -0.06001315 -0.061886847 0.048337404 -0.07266774
-0.07091032 -0.06174834 0.04988961 0.063565165 0.0714325 0.07683288 -0.042735092 -0.07475462
0.060753155 -0.07792665 0.07466369 -0.039662946 -0.045057762 -0.04715854 -0.048662763 0.07679882
-0.05523991 -0.07057354 -0.078941785 -0.073022656 0.04051222 0.044058517 0.044228267 -0.06874228
0.061175544 0.07976054 0.061543904 0.06579305 -0.05640569 -0.06868673 -0.060470052 -0.06803044
0.065733254 -0.07406453 0.07822266 0.043768693 -0.07023211 -0.079538316 -0.07844121 0.046845958
-0.07364387 -0.06613655 0.07747725 -0.041784633 -0.047305737 0.050586093 -0.05396978 -0.07655042
-0.06582215 -0.058718514 0.054801702 -0.076110736 -0.0446316 -0.07723887 -0.051876415 -0.052391585
-0.07079549 -0.0618017 -0.05556121 0.07306497 0.054914344 0.048620768 -0.062301096 -0.079133935
-0.04563057 -0.07593055 -0.054985862 0.052113302 0.07750371 -0.046540376 0.057801984 -0.04970927
0.03826213 -0.067881964 -0.06532681 -0.051666547 -0.062827274 -0.06191639 0.07259091 0.041838106
0.07185388 0.052848104 0.045785394 0.06065484 0.05689117 -0.07216545 -0.053307887 -0.04724893
-0.079496734 0.041932 -0.055997252 -0.073000334 -0.07221063 0.05483963 0.06428766 -0.05416408
-0.068720676 -0.077227145 -0.068647765 0.068132065 -0.061985064 -0.05448029 0.069685064 0.056656953
0.06543601 -0.067762 -0.07777783 0.06646474 0.04240138 -0.045542393 -0.06566007 -0.04541983
-0.07703135 -0.07931347 -0.06288108 -0.070010215 -0.061197873 -0.056470275 -0.060381524 -0.042578295
00000000: f2fc 8028 f6cd ff29 baeb eeac 0263 f229
00000010: b621 aca9 b1b9 dda9 0761 e5ba 23ee f1ba
00000020: b249 fda8 d6df d129 c335 29a9 28a3 27be
00000030: bd0a 3dbe 7d0b d8a9 efe4 12be 4648 5f29
00000040: a6fa 3529 faeb 2fbd 95b7 22be b75f 26be
00000050: e2fa bea9 4574 69a6 b3b1 6aa8 6c45 e0a8
00000060: cf36 e3a8 cb70 4fa8 e301 81a9 4ab7 05ba
00000070: 6871 11be fa05 97a9 6e5b ffbb e27a 4dbd
00000080: 0159 aabc ecbb 5da9 5b1a 9829 e1f2 d7a9
00000090: a727 a6ba 359d 38be 2230 242a a60a e5a9
000000a0: 733c f7a9 750a f231 6738 0ba9 e800 85bb
000000b0: 7b60 f227 6432 68bd e748 43bd 2837 e629
000000c0: 09ac 10ba cb79 112a 7ee0 38be bdc4 50bd
000000d0: 5f73 01bd f2fc 00bd 7361 a128 6eeb 36bd
000000e0: 9c1c fbbd 3731 613d a19d 9bbc 49f0 56a9
000000f0: b0ef 2a28 43df 72a7 05be 1728 1475 91bd
00000100: ff3d 9029 4700 b8ba f533 32bd 1a85 212a
00000110: 2351 6ca9 968c 39be 71df 0228 21cb 41a8
00000120: a5c8 3abd 60b6 c0bc 5300 d4a6 c5e1 9abd
00000130: 65f6 99bd 6532 99bd 4be8 81bd 934d 5fbd
00000140: a6ec 853d fba0 a1bd 1126 47bd 3f21 23bd
00000150: ad87 56bd 3e4a 523d cd15 48bd 8d4a 39bd
00000160: 86c8 a1bd 9549 963d 6927 61bd 3c40 8abd
00000170: a055 44bd 661f 603d d423 8fbd 092f 683d
00000180: 76ba 85bd 5d2a 55bd e5f5 70bd 5e85 9abd
00000190: d573 833d 1764 4e3d 49fc 84bd f8b3 67bd
000001a0: 8cd6 303d 0815 95bd 6225 52bd af49 413d
000001b0: a045 2bbd ab6c 9dbd 8046 863d 3273 37bd
000001c0: fbf7 73bd 5b56 57bd 26eb 5bbd 19a7 8b3d
000001d0: 6f11 8dbd 1cf7 6abd 8b28 2dbd 80f2 a33d
000001e0: f07c 5dbd 6d40 513d f0e6 a1bd 286d 58bd
000001f0: d914 9ebd dcad 1ebd 431c 933d 806d 9a3d
00000200: 5a4f 213d c7e6 9b3d cedb 483d 9efe 9fbd
00000210: 59d0 75bd 107d 7dbd 71fd 453d d3d2 94bd
00000220: 6e39 91bd d4eb 7cbd 0c59 4c3d 742e 823d
00000230: 344b 923d 8f5a 9d3d fe0a 2fbd f318 99bd
00000240: 4dd8 783d 0298 9fbd 47e9 983d 9d75 22bd
00000250: 7d8e 38bd 5029 41bd 9b52 47bd b348 9d3d
00000260: 3e43 62bd dc88 90bd 3bac a1bd e78c 95bd
00000270: 24f0 253d b476 343d b328 353d c1c8 8cbd
00000280: 3593 7a3d 7e59 a33d 7615 7c3d 82be 863d
00000290: a709 67bd a1ab 8cbd 72af 77bd 8b53 8bbd
000002a0: 289f 863d 25af 97bd 3433 a03d cd46 333d
000002b0: dad5 8fbd fce4 a2bd c9a5 a0bd 8ce1 3f3d
000002c0: 99d2 96bd 9972 87bd 64ac 9e3d 5d26 2bbd
000002d0: a9c3 41bd 5d33 4f3d 6b0f 5dbd 77c6 9cbd
000002e0: c3cd 86bd d382 70bd c077 603d f2df 9bbd
000002f0: a0cf 36bd 6a2f 9ebd 5d7c 54bd 8f98 56bd
00000300: 3afd 90bd c823 7dbd 2794 63bd 16a3 953d
00000310: dded 603d 9226 473d 6f2f 7fbd f910 a2bd
00000320: 1fe7 3abd 7a81 9bbd db38 61bd c274 553d
00000330: 44ba 9e3d 1fa1 3ebd c6c1 6c3d f39b 4bbd
00000340: c0b8 1c3d b305 8bbd 10ca 85bd 4da0 53bd
00000350: 96ab 80bd 0a9c 7dbd 8baa 943d 6f5e 2b3d
00000360: 2128 933d 4177 583d 7789 3b3d 3671 783d
00000370: b706 693d 7bcb 93bd 5f59 5abd 1888 41bd
00000380: 2fcf a2bd e4c0 2b3d 605d 65bd 3381 95bd
00000390: 2be3 93bd 859f 603d 40a9 833d 28db 5dbd
000003a0: 6dbd 8cbd 4429 9ebd 3397 8cbd d388 8b3d
000003b0: 0de4 7dbd b926 5fbd 0bb7 8e3d 1f11 683d
000003c0: 5103 863d cec6 8abd fc49 9fbd aa1e 883d
000003d0: 12ad 2d3d a98a 3abd c978 86bd 250a 3abd
000003e0: 9dc2 9dbd 1a6f a2bd ccc7 80bd 8461 8fbd
000003f0: 9faa 7abd 604d 67bd 9e52 77bd 9466 2ebd

encoder.dense1.bias f4 [64]
-0.068876304 0.54681337 -0.06403312 -0.077467196 -0.057507724 -0.13150285 0.36685613 0.6060812
0.28231502 -0.06532313 0.1666636 -0.04810991 0.19040836 0.78656197 0.13741325 0.03810476
0.08868837 0.20114279 0.41166294 0.38781103 -0.13096042 0.16384 0.39837444 0.32577133
0.11002761 0.095302 -0.033264 -0.16243477 -0.07271488 0.20180038 -0.04889196 -0.12787984
-0.15689266 0.55495644 -0.039709367 0.8908558 0.25245062 -0.061964847 -0.043747146 -0.118875444
0.09264107 -0.0020358483 0.51494175 -0.054273214 0.017235104 -0.048187647 0.15859202 -0.06884723
-0.10037054 0.6114506 0.13628013 0.311358 0.5536964 0.36187494 0.50031894 0.190744
0.7067123 -0.07923945 -0.052857224 -0.07006556 -0.08645487 -0.07680227 -0.11903211 -0.07056554
00000000: 050f 8dbd f6fb 0b3f cc23 83bd 1fa7 9ebd
00000010: 388d 6bbd afa8 06be 91d4 bb3e 2328 1b3f
00000020: 988b 903e 22c8 85bd dda9 2a3e e60e 45bd
00000030: 69fa 423e 205c 493f 0fb6 0c3e bd13 1c3d
00000040: 40a2 b53d 60f8 4d3e 7cc5 d23e 2b8f c63e
00000050: 7d1a 06be acc5 273e bcf7 cb3e 80cb a63e
00000060: 2856 e13d b22d c33d d53f 08bd 4d55 26be
00000070: 8aeb 94bd c2a4 4e3e f042 48bd eff2 02be
00000080: 78a8 20be a011 0e3f 4aa6 22bd 200f 643f
00000090: 3541 813e dace 7dbd 3530 33bd f874 f3bd
000000a0: 9aba bd3d de6b 05bb 39d3 033f 974d 5ebd
000000b0: a230 8d3c 6960 45bd f265 223e c7ff 8cbd
000000c0: 128f cdbd 0788 1c3f 058d 0b3e 516a 9f3e
000000d0: 0cbf 0d3f ac47 b93e e714 003f 6552 433e
000000e0: 19eb 343f 4b48 a2bd d180 58bd 887e 8fbd
000000f0: 400f b1bd 824a 9dbd 1bc7 f3bd aa84 90bd

encoder.encoder1.0.weight f4 [32, 1, 16]
-0.17591158 0.028413098 -0.019254133 -0.037334617 -0.25896627 0.09427378 -0.15374239 -0.11294428
0.038809415 -0.18911526 -0.13845249 0.013345045 -0.123761974 0.04364494 -0.066875294 -0.17505552
0.009227051 -0.26851046 -0.21477382 0.034521855 -0.23359732 -0.020940833 0.09858954 0.14386655
0.012339565 -0.15561509 -0.25279036 -0.19703342 0.05022627 -0.07118624 -0.07841807 0.06965563
-0.2723525 0.011057938 0.08880422 0.05847722 -0.16917762 -0.222824 0.13268128 0.12658621
-0.031958092 -0.08137614 0.1736815 -0.10576316 0.030078711 -0.0022415544 0.07922842 0.019962916
-0.28537434 0.09590237 -0.18433298 0.14098284 -0.14925592 0.016222065 0.055970095 -0.30981672
0.1259305 -0.1639035 -0.1140341 -0.1565975 0.09418711 -0.048587997 0.12574862 -0.11547759
-0.23221312 -0.29558486 0.041917183 0.06381367 -0.1251839 -0.117444836 0.13628653 -0.24118553
0.10475403 0.06291446 -0.12967013 0.08799188 -0.18232538 -0.19004552 -0.19443482 -0.13492778
-0.17216311 -0.1669645 0.053179 0.15645175 -0.21403019 -0.2886218 0.12845254 0.011242049
-0.17938109 -0.0672614 -0.053801052 0.0745377 -0.20193882 -0.13508347 0.15941261 -0.25149733
0.04667767 0.0013810481 -0.25229093 -0.13630511 -0.2944384 0.0995236 0.11706085 0.12980123
-0.20656678 0.111514874 -0.13238393 -0.009539272 -0.2583523 -0.05834398 0.108553275 0.084195375
0.0484507 -0.2463581 -0.24368508 -0.010164851 0.15671152 -0.10647962 -0.059797585 0.10889177
0.13721076 -0.057510123 -0.20492986 -0.26566315 -0.088222705 -0.10495788 0.07958738 -0.00870845
-0.25701565 -0.07917657 -0.0040287743 -0.27319756 -0.23375171 -0.21590818 -0.23163746 -0.01711823
0.01815903 -0.3299894 -0.0316665 -0.27072346 -0.13009462 -0.08344242 -0.0013416145 0.15247627
0.0069787046 -0.12068157 0.17698568 0.09169229 0.012197057 0.09839327 -0.16513133 0.20037988
-0.0818415 0.1652711 0.084896974 -0.055086236 0.1260978 -0.006912132 -0.053473584 -0.16587144
-0.11659921 0.07764981 -0.31289196 -0.05622797 -0.2566906 0.018769799 -0.030354425 -0.1703373
-0.13556427 -0.07386427 -0.024830272 -0.14163044 0.08074485 -0.027713697 -0.052526068 -0.24722674
-0.33628145 -0.2794922 -0.12788565 -0.09291956 -0.020664364 0.115070656 0.023682728 0.18138707
-0.05466592 0.15848087 0.13962902 -0.091776565 -0.12503795 0.0081404615 0.11601113 0.092184566
-0.3001538 -0.0949356 0.0818933 -0.016491853 -0.09094411 -0.10848729 0.091488205 -0.06894342
-0.17007647 -0.19365944 -0.342629 -0.18390286 -0.1946303 0.019881807 -0.1752957 0.1213977
-0.06154673 -0.22442238 -0.099898495 -0.20838395 -0.28211975 0.10718986 0.038120896 0.0725111
-0.28780824 0.012034148 0.027810035 -0.10018356 -0.19678803 0.009029237 -0.26618478 -0.05677218
-0.23387352 -0.3122387 -0.025355047 0.022741145 -0.046914108 -0.14814441 -0.23787114 0.0530568
0.06389283 -0.24290913 -0.03991288 0.080636404 -0.33097845 -0.2509744 -0.27351367 -0.27556643
-0.06706407 -0.19336802 0.020644708 0.118504666 -0.2016877 -0.14070484 -0.14829692 0.053842757
-0.21541657 -0.026008865 0.03445615 -0.037498545 -0.17485864 0.01506627 -0.090458296 -0.21643269
00000000: 2a22 34be 96c2 e83c d8ba 9dbc 2fec 18bd
00000010: 3a97 84be 9d12 c13d a56e 1dbe 554f e7bd
00000020: 9ff6 1e3d 6ea7 41be 7dc6 0dbe 2da5 5a3c
00000030: eb76 fdbd 09c5 323d eaf5 88bd c141 33be
00000040: 0f2d 173c 347a 89be abed 5bbe ca66 0d3d
00000050: 2334 6fbe 1c8c abbc 50e9 c93d c151 133e
00000060: e32b 4a3c 9059 1fbe bd6d 81be 21c3 49be
00000070: 10ba 4d3d 17ca 91bd a799 a0bd 9ca7 8e3d
00000080: c971 8bbe 5b2c 353c fdde b53d cf85 6f3d
00000090: e63c 2dbe fa2b 64be 9add 073e d19f 013e
000000a0: 7de6 02bd 89a8 a6bd 90d9 313e 5b9a d8bd
000000b0: a167 f63c 0be7 12bb 8342 a23d 4589 a33c
000000c0: 961c 92be 7668 c43d c9c1 3cbe ce5d 103e
000000d0: 8bd6 18be 23e4 843c e640 653d 4ca0 9ebe
000000e0: edf3 003e 52d6 27be b68a e9bd 185b 20be
000000f0: 2ce5 c03d 3504 47bd 3fc4 003e 847f ecbd
00000100: 47c9 6dbe e656 97be 5ab1 2b3d beb0 823d
00000110: 3530 00be eb86 f0bd b28e 0b3e 57f9 76be
00000120: 4889 d63d 4cd9 803d 3fc8 04be 1635 b43d
00000130: 81b3 3abe 4b9b 42be ec19 47be 822a 0abe
00000140: 874b 30be bef8 2abe 39d2 593d e334 203e
00000150: bb2a 5bbe 3dc6 93be 1089 033e 9230 383c
00000160: adaf 37be 58c0 89bd 7e5e 5cbd 39a7 983d
00000170: 0dc9 4ebe 5253 0abe 0f3d 233e 42c4 80be
00000180: 1631 3f3d 4904 b53a 472c 81be 9193 0bbe
00000190: a1c0 96be 07d3 cb3d 99bd ef3d 9dea 043e
000001a0: 3e86 53be e961 e43d a78f 07be 9b4a 1cbc
000001b0: c146 84be 19fa 6ebd 2e51 de3d a06e ac3d
000001c0: 3e74 463d 4c45 7cbe 9588 79be 7a8a 26bc
000001d0: fc78 203e fd11 dabd 50ee 74bd a602 df3d
000001e0: fa80 0c3e bc8f 6bbd 22d9 51be 0005 88be
000001f0: 1bae b4bd 28f4 d6bd b5fe a23d e3ad 0ebc
00000200: 8e97 83be 5327 a2bd cf03 84bb 8de0 8bbe
00000210: 9c5c 6fbe 0917 5dbe 5f32 6dbe 883b 8cbc
00000220: 3fc2 943c 5ff4 a8be bbb4 01bd 449c 8abe
00000230: 8637 05be dce3 aabd 1dd9 afba bd22 1c3e
00000240: 9ead e43b e627 f7bd bc3b 353e 2bc9 bb3d
00000250: 2ad6 473c 6982 c93d 3018 29be 6230 4d3e
00000260: 849c a7bd d43c 293e 77de ad3d 1ba2 61bd
00000270: c81f 013e 2a7f e2bb 1e07 5bbd 34da 29be
00000280: 91cb eebd dd06 9f3d 6033 a0be 4d4f 66bd
00000290: f36c 83be 1fc3 993c d8a9 f8bc e76c 2ebe
000002a0: 5cd1 0abe 2646 97bd db68 cbbc 9207 11be
000002b0: 8e5d a53d d607 e3bc 9325 57bd 0229 7dbe
000002c0: 152d acbe 9a19 8fbe 75f4 02be 9c4c bebd
000002d0: 5048 a9bc 2aaa eb3d 4802 c23c 88bd 393e
000002e0: 5fe9 5fbd cf48 223e e9fa 0e3e 5af5 bbbd
000002f0: f309 00be 925f 053c 3e97 ed3d 43cb bc3d
00000300: c2ad 99be 996d c2bd adb7 a73d ec19 87bc
00000310: e840 babd 962e debd 2b5e bb3d 3532 8dbd
00000320: 8728 2ebe a94e 46be 116d afbe 0851 3cbe
00000330: 2a4d 47be 2cdf a23c b780 33be 5b9f f83d
00000340: 6d18 7cbd fbce 65be 9597 ccbd 9a62 55be
00000350: 0072 90be 5b86 db3d a824 1c3d b380 943d
00000360: 9a5b 93be e02a 453c dfd1 e33c 0a2d cdbd
00000370: cd82 49be 5def 133c 5f49 88be f289 68bd
00000380: 8a7c 6fbe c0dd 9fbe 63b5 cfbc a34b ba3c
00000390: 0229 40bd 2bb3 17be 7e94 73be 1652 593d
000003a0: 3eda 823d 2cbd 78be b07b 23bd b324 a53d
000003b0: 0276 a9be b77f 80be fc09 8cbe 0b17 8dbe
000003c0: e358 89bd 4402 46be 171f a93c 93b2 f23d
000003d0: 3887 4ebe ee14 10be 26db 17be 398a 5c3d
000003e0: 2996 5cbe 8b10 d5bc e421 0d3d 1398 19bd
000003f0: 250e 33be 84d8 763c 3342 b9bd 88a0 5dbe

encoder.encoder1.0.bias f4 [32]
-0.10526731 0.11258397 -0.1375493 0.039993957 0.027240407 -0.27491927 -0.26792714 0.08162116
-0.14146198 0.14289184 -0.21625166 0.19572362 0.11265 -0.22679558 -0.2693549 -0.27936998
-0.46355978 -0.10454874 -0.12964244 -0.28693476 -0.21655397 -0.27174503 -0.36325237 0.0763648
0.12458894 0.06501034 -0.36575475 -0.14960134 -0.17831744 -0.12459846 0.11165566 0.03308893
00000000: 6396 d7bd 6d92 e63d b9d9 0cbe b4d0 233d
00000010: 4627 df3c 38c2 8cbe bf2d 89be ff28 a73d
00000020: 69db 10be 3d52 123e 1371 5dbe c66b 483e
00000030: 0bb5 e63d 1a3d 68be e3e8 89be 9509 8fbe
00000040: b557 edbe a61d d6bd fdc0 04be 1de9 92be
00000050: 53c0 5dbe 2a22 8bbe 37fc b9be 2665 9c3d
00000060: 7c28 ff3d 2424 853d 3544 bbbe 1831 19be
00000070: d998 36be 7a2d ffbd b9ab e43d 4288 073d

encoder.encoder1.2.weight f4 [32, 32, 16]
-0.098952375 -0.049699657 -0.08279037 -0.042036597 -0.07002589 0.05743395 -0.0911839 -0.09541037
-0.07248644 -0.07779372 -0.09126692 0.037644383 -0.051396195 -0.027961468 -0.042326465 -0.09268625
-0.094710775 -0.07760978 -0.019105593 -0.02413593 -0.035325438 -0.0509156 0.06547473 0.09446427
-0.02920012 -0.084453784 -0.03984285 -0.09611856 -0.09578521 -0.09987693 -0.07418369 -0.045068238
-0.04345784 -0.032131907 -0.07391211 -0.08621129 -0.07660112 -0.05046793 -0.064945936 -0.025538027
-0.068029374 -0.041680582 -0.08261093 -0.064866796 -0.108960584 -0.07703589 -0.049058292 -0.0583854
-0.050562914 -0.025178865 -0.04184869 -0.082319595 0.03311867 -0.10100741 -0.048229948 -0.06350969
-0.019032685 -0.073927686 0.028669458 -0.034105714 -0.08086841 -0.09560162 -0.05845963 0.027729357
-0.05482171 -0.036312584 -0.07298262 -0.030320318 0.07823616 0.012431105 -0.075144544 0.027114322
-0.02833734 -0.018292997 -0.014452891 -0.093279004 -0.052428722 -0.045026228 -0.02740667 -0.05099984
-0.04614629 -0.031642396 -0.0947155 -0.031594314 0.014751719 -0.04221888 -0.05987776 -0.046805777
-0.061511833 -0.03838878 -0.05211358 -0.07152143 -0.038299512 -0.074331634 -0.043987013 0.034165718
-0.03652068 -0.03767946 -0.046483256 -0.07376506 -0.029377485 -0.093906075 -0.101316676 -0.0246921
-0.019383967 -0.03368958 -0.07928702 -0.06364876 -0.054132443 -0.023422793 -0.10616035 -0.05074727
-0.09650291 -0.09866683 -0.09652286 -0.109340064 0.075785756 -0.09568593 -0.0985432 -0.05842912
-0.026075142 -0.034357302 -0.059349097 -0.04784629 -0.060857877 -0.050819684 -0.062056962 -0.0982009
-0.017744958 -0.03927335 -0.067129724 0.08010573 0.048383743 0.05455406 -0.040044878 -0.0942388
-0.07544138 0.061021395 -0.09462658 -0.100777194 -0.04739603 -0.01079467 0.031427287 -0.00091209164
-0.06583311 -0.040924814 -0.08603648 -0.09037045 -0.056864373 -0.050594136 -0.04981296 -0.09013641
-0.04646151 -0.06706331 -0.09216283 -0.050598152 -0.089849554 -0.060743626 -0.03161249 -0.0689789
0.030078247 0.03481163 -0.06601422 -0.10284721 -0.078343906 -0.0447657 0.015304537 -0.07859115
-0.06605244 -0.061560728 -0.04451864 -0.06611611 0.07421791 -0.05889451 -0.10416992 -0.09563139
-0.06830317 -0.058049988 -0.08900144 -0.09745877 -0.10177748 -0.06010966 -0.027779687 -0.07831898
-0.059856154 -0.09655054 -0.07051915 -0.039938483 -0.06287001 -0.03770563 -0.04412714 -0.072592795
-0.097609006 -0.09977285 -0.05096658 -0.0980273 -0.041104365 -0.03337554 -0.07031067 -0.026074508
-0.08856712 0.0925703 -0.03575038 -0.007497557 -0.086864546 -0.054171674 0.010215008 -0.064597815
-0.07513438 0.05039487 -0.060631655 -0.06893436 -0.038571775 -0.07103143 0.010388299 0.02160145
-0.0862696 -0.10185137 -0.06543151 -0.07375858 -0.09568616 0.019048952 -0.05160707 -0.08750415
-0.04234907 -0.07152031 -0.042780094 -0.040076233 -0.039713465 0.054885343 -0.044521805 -0.05827914
-0.03633675 -0.07605097 -0.038485933 0.016516978 -0.08850343 -0.091292575 -0.09926621 -0.09900783
-0.046428543 -0.07714778 -0.08102236 0.09385813 0.05245664 0.06696239 -0.08799655 -0.06867943
-0.09419889 0.0068572946 -0.05542302 -0.040991627 -0.08434056 -0.07319488 -0.034292307 0.03537631
00000000: 8ba7 cabd de91 4bbd ff8d a9bd 912e 2cbd
00000010: bc69 8fbd dd3f 6b3d a0be babd 8366 c3bd
00000020: c573 94bd 5052 9fbd 27ea babd ff30 1a3d
00000030: d184 52bd 730f e5bc 845e 2dbd 4ad2 bdbd
00000040: b9f7 c1bd e0f1 9ebd 5583 9cbc b7b8 c5bc
00000050: 68b1 10bd e08c 50bd 9e17 863d 7c76 c13d
00000060: 1735 efbc 1bf6 acbd 4232 23bd cfd9 c4bd
00000070: 092b c4bd 478c ccbd 9eed 97bd 7999 38bd
00000080: d900 32bd bf9c 03bd 3b5f 97bd 8b8f b0bd
00000090: 0ce1 9cbd 76b7 4ebd 6002 85bd 2035 d1bc
000000a0: fc52 8bbd 42b9 2abd eb2f a9bd e2d8 84bd
000000b0: ba26 dfbd fec4 9dbd 59f1 48bd 8725 6fbd
000000c0: 0f1b 4fbd e843 cebc 8869 2bbd 2d97 a8bd
000000d0: 71a7 073d f9dc cebd c48c 45bd 5e11 82bd
000000e0: 6fea 9bbc 6667 97bd 36dc ea3c 6fb2 0bbd
000000f0: 569e a5bd c8ca c3bd 5d73 6fbd ad28 e33c
00000100: bb8c 60bd 81bc 14bd e977 95bd 5162 f8bc
00000110: 483a a03d d5ab 4b3c 62e5 99bd db1e de3c
00000120: b623 e8bc 32db 95bc d2cb 6cbc 1009 bfbd
00000130: 80bf 56bd 6c6d 38bd f483 e0bc 35e5 50bd
00000140: e403 3dbd 759b 01bd 33fa c1bd 0a69 01bd
00000150: 32b1 713c b4ed 2cbd 6242 75bd 6ab7 3fbd
00000160: d5f3 7bbd 8e3d 1dbd 0d75 55bd d479 92bd
00000170: f3df 1cbd 2f3b 98bd ba2b 34bd 5af1 0b3d
00000180: b596 15bd c755 1abd 3a65 3ebd 2312 97bd
00000190: 0da9 f0bc d451 c0bd 1e7f cfbd 1647 cabc
000001a0: 20cb 9ebc 16fe 09bd 3c61 a2bd 485a 82bd
000001b0: fbb9 5dbd 28e1 bfbc 996a d9bd 5fdc 4fbd
000001c0: 51a3 c5bd d611 cabd c7ad c5bd afed dfbd
000001d0: 9035 9b3d fcf6 c3bd 04d1 c9bd 5f53 6fbd
000001e0: 899b d5bc 3eba 0cbd 0a18 73bd 79fa 43bd
000001f0: 1c46 79bd 4d28 50bd 712f 7ebd 8e1d c9bd
00000200: e05d 91bc 18dd 20bd 4f7b 89bd 790e a43d
00000210: 082e 463d 1474 5f3d 1906 24bd 4600 c1bd
00000220: 0381 9abd 92f1 793d 95cb c1bd 4664 cebd
00000230: 5722 42bd 21dc 30bc e6b9 003d 6f19 6fba
00000240: 82d3 86bd c7a0 27bd e533 b0bd 2414 b9bd
00000250: 9eea 68bd cc3b 4fbd ad08 4cbd 7099 b8bd
00000260: 6d4e 3ebd 7d58 89bd debf bcbd 0240 4fbd
00000270: 0b03 b8bd 4fce 78bd 197c 01bd cf44 8dbd
00000280: a866 f63c a496 0e3d 7732 87bd 8fa1 d2bd
00000290: c572 a0bd 3d5c 37bd e1bf 7a3c 66f4 a0bd
000002a0: 8046 87bd 1a27 7cbd 2d59 36bd e267 87bd
000002b0: 8fff 973d 5f3b 71bd 0a57 d5bd 64da c3bd
000002c0: 88e2 8bbd d3c5 6dbd 6346 b6bd 7798 c7bd
000002d0: b670 d0bd 8c35 76bd 3a92 e3bc b465 a0bd
000002e0: ba2b 75bd 4abc c5bd 586c 90bd 8996 23bd
000002f0: fec1 80bd 3871 1abd a9be 34bd 88ab 94bd
00000300: 3be7 c7bd b555 ccbd 55c2 50bd 89c2 c8bd
00000310: 0d5d 28bd cab4 08bd 0aff 8fbd 359a d5bc
00000320: ae62 b5bd 7f95 bd3d fe6e 12bd 11ae f5bb
00000330: 0ae6 b1bd 1ee3 5dbd d95c 273c dc4b 84bd
00000340: 0ee0 99bd da6a 4e3d e658 78bd 752d 8dbd
00000350: 70fd 1dbd ed78 91bd af33 2a3c 86f5 b03c
00000360: 1eae b0bd 7397 d0bd f500 86bd bd0e 97bd
00000370: 1bf7 c3bd 8c0c 9c3c ef61 53bd 6035 b3bd
00000380: 3876 2dbd 3e79 92bd 2e3a 2fbd fa26 24bd
00000390: 96aa 22bd 74cf 603d 7f5c 36bd 1cb6 6ebd
000003a0: d8d5 14bd 9cc0 9bbd 6da3 1dbd 9d4e 873c
000003b0: 4941 b5bd 9af7 babd 154c cbbd 9ec4 cabd
000003c0: db2b 3ebd a8ff 9dbd 0def a5bd b138 c03d
000003d0: c6dc 563d 9423 893d 8937 b4bd cda7 8cbd
000003e0: 59eb c0bd 28b3 e03b 4003 63bd d6e6 27bd
000003f0: beba acbd 32e7 95bd 1776 0cbd c0e6 103d

encoder.encoder1.2.bias f4 [32]
-0.053981308 -0.041552383 -0.040158574 -0.06189008 -0.085212894 0.0020833623 -0.07672629 -0.027221214
-0.016555503 -0.04425015 -0.07733928 0.026054054 -0.015252646 -0.017305547 -0.022934254 -0.086607985
-0.07163149 -0.019794513 -0.019382253 -0.061315227 -0.08222182 -0.008884018 -0.0525635 -0.04246876
-0.0780359 -0.087777995 -0.085625336 -0.058817495 -0.059736326 -0.088073954 0.15284972 -0.043424662
00000000: 811b 5dbd d532 2abd 517d 24bd 7480 7dbd
00000010: 1984 aebd 0589 083b ac22 9dbd 06ff debc
00000020: 689f 87bc a53f 35bd 0e64 9ebd 506f d53c
00000030: 3ce6 79bc 5dc4 8dbc 9ee0 bbbc 875f b1bd
00000040: 88b3 92bd 1a28 a2bc 88c7 9ebc ad25 7bbd
00000050: ea63 a8bd 468e 11bc d34c 57bd b9f3 2dbd
00000060: 49d1 9fbd f3c4 b3bd 565c afbd 9dea 70bd
00000070: 14ae 74bd 1e60 b4bd a384 1c3e 0fde 31bd
