CAC/DC/networks/weights/DC/DC_5_myTestCACclassifierCACLoss.pth (torch, 754052 bytes, 19 tensors)

anchors f8 [4, 4]
10.0 0.0 0.0 0.0 0.0 10.0 0.0 0.0
0.0 0.0 10.0 0.0 0.0 0.0 0.0 10.0
00000000: 0000 0000 0000 2440 0000 0000 0000 0000
00000010: 0000 0000 0000 0000 0000 0000 0000 0000
00000020: 0000 0000 0000 0000 0000 0000 0000 2440
00000030: 0000 0000 0000 0000 0000 0000 0000 0000
00000040: 0000 0000 0000 0000 0000 0000 0000 0000
00000050: 0000 0000 0000 2440 0000 0000 0000 0000
00000060: 0000 0000 0000 0000 0000 0000 0000 0000
00000070: 0000 0000 0000 0000 0000 0000 0000 2440

encoder.conv1.weight f4 [32, 1, 16]
-0.17544095 0.02977836 -0.005625367 -0.035421554 -0.2532106 0.1089599 -0.15485421 -0.11225191
0.038800962 -0.18870671 -0.13818683 0.011998839 -0.123444974 0.04546413 -0.06604987 -0.17458238
0.01050555 -0.26040715 -0.21681786 0.028067758 -0.23688605 -0.02560663 0.107908644 0.15363513
0.01799416 -0.14991115 -0.25043365 -0.18616644 0.053239226 -0.06479966 -0.06735845 0.06885575
-0.2572747 0.033659738 0.105271555 0.06875277 -0.16559537 -0.21928221 0.14217153 0.13801911
-0.020970834 -0.07569458 0.17298356 -0.11034539 0.030377617 0.0019735794 0.08020863 0.01728765
-0.28303212 0.10123992 -0.17841911 0.14377414 -0.14828405 0.016768841 0.057123903 -0.30766475
0.13272126 -0.16247624 -0.1132567 -0.15892799 0.0855285 -0.054056123 0.12373196 -0.113784626
-0.23658341 -0.2929117 0.043979675 0.065343164 -0.13337472 -0.12019626 0.13905725 -0.23679812
0.108957276 0.06551404 -0.13281322 0.08712107 -0.18255167 -0.19563034 -0.20585072 -0.124879144
-0.17622888 -0.18201146 0.0413587 0.15544651 -0.21794917 -0.28993356 0.12787382 0.016858935
-0.17862721 -0.068863325 -0.05434033 0.077867 -0.19958983 -0.13419577 0.16005385 -0.2530469
0.05588357 0.003627773 -0.2492232 -0.13334863 -0.2891064 0.10911203 0.12435629 0.13135903
-0.20938362 0.11201346 -0.1299253 -0.0054062386 -0.25608027 -0.057791498 0.114069074 0.094675094
0.047009345 -0.23959643 -0.24199127 -0.0069458615 0.16185479 -0.104667164 -0.054188672 0.121390566
0.14349245 -0.053327397 -0.20333098 -0.26405054 -0.08537675 -0.10244604 0.09011621 -0.007144707
-0.21155372 -0.09176645 -0.120027386 -0.29468477 -0.24535069 -0.23948778 -0.2643513 -0.018161474
0.01928546 -0.33809313 -0.07121864 -0.26880693 -0.13024098 -0.08945944 -0.031037794 0.13574092
-0.00085764 -0.1170372 0.18584013 0.09923672 0.023271153 0.10568803 -0.15863936 0.1945735
-0.08759285 0.16328317 0.082898356 -0.046965875 0.124093756 -0.0009114446 -0.06549414 -0.20229566
-0.12184174 0.069164544 -0.3156274 -0.05969698 -0.2594618 0.01058157 -0.033586327 -0.16872653
-0.13517593 -0.07162519 -0.024296934 -0.14121623 0.085012116 -0.02639032 -0.05197765 -0.24698415
-0.32216698 -0.27730992 -0.13505365 -0.094870575 -0.015394417 0.11455555 0.017940661 0.17539962
-0.0564016 0.15656982 0.1361088 -0.09521895 -0.12724595 -0.0036098177 0.10810518 0.08836466
-0.29848307 -0.098803975 0.06862942 -4.084919e-05 -0.083536126 -0.10828105 0.08776684 -0.066355996
-0.163824 -0.18747312 -0.32167318 -0.16796792 -0.19989672 0.019092944 -0.17146005 0.13685273
-0.057936188 -0.22079653 -0.10025647 -0.20895717 -0.28110775 0.118094996 0.053179476 0.080127135
-0.28625706 0.013476951 0.032629013 -0.098583676 -0.19489712 0.016546128 -0.2692607 -0.04981343
-0.19550824 -0.32227245 -0.007239525 0.035257023 -0.04436394 -0.14871438 -0.23345613 0.06206432
0.05373204 -0.24064642 -0.041714393 0.08774261 -0.31451923 -0.27757034 -0.20032077 -0.23798883
-0.06919966 -0.19257173 0.02602314 0.12864618 -0.19671665 -0.14149222 -0.14838587 0.062678285
-0.21432528 -0.020221462 0.049547985 -0.03314728 -0.1729685 0.018388858 -0.09183683 -0.21629262
00000000: cba6 33be bff1 f33c 0055 b8bb 3116 11bd
00000010: d2a4 81be 5e26 df3d 1a92 1ebe 54e4 e5bd
00000020: c2ed 1e3d 553c 41be d980 0dbe c796 443c
00000030: b8d0 fcbd 9838 3a3d 2745 87bd b9c5 32be
00000040: 781f 2c3c 1654 85be 8005 5ebe 5bee e53c
00000050: 4292 72be ffc4 d1bc 35ff dc3d 8752 1d3e
00000060: 7d68 933c 4f82 19be d738 80be 6aa2 3ebe
00000070: 6011 5a3d afb5 84bd 3af3 89bd 3e04 8d3d
00000080: 82b9 83be cbde 093d 9d98 d73d 41ce 8c3d
00000090: d591 29be 848b 60be 6a95 113e e254 0d3e
000000a0: 07cb abbc c305 9bbd 9a22 313e c4fc e1bd
000000b0: 7bda f83c 2b57 013b 6c44 a43d d49e 8d3c
000000c0: 96e9 90be e056 cf3d 80b3 36be 8739 133e
000000d0: c6d7 17be cf5e 893c c1fa 693d 3c86 9dbe
000000e0: 15e8 073e 2c60 26be 21f3 e7bd 05be 22be
000000f0: 9129 af3d f469 5dbd 2f67 fd3d ea07 e9bd
00000100: ec42 72be 86f8 95be 0824 343d a3d2 853d
00000110: 6293 08be 7529 f6bd 0665 0e3e 357b 72be
00000120: fe24 df3d 3a2c 863d 3000 08be 886c b23d
00000130: d3ee 3abe 5253 48be 88ca 52be a3c0 ffbd
00000140: 5875 34be 3661 3abe bd67 293d 5f2d 1f3e
00000150: 112e 5fbe 2c72 94be 5bf1 023e c01b 8a3c
00000160: 0dea 36be 3708 8dbd f793 5ebd bc78 9f3d
00000170: 4761 4cbe 9e6a 09be 28e5 233e 5d8f 81be
00000180: 2ce6 643d eebf 6d3b 5e34 7fbe 8b8c 08be
00000190: c105 94be 2176 df3d 83ae fe3d fb82 063e
000001a0: a968 56be 5067 e53d 230b 05be d126 b1bb
000001b0: f41c 83be c7b6 6cbd 0c9d e93d 04e5 c13d
000001c0: df8c 403d c458 75be 8fcc 77be 1c9a e3bb
000001d0: 43bd 253e bd5b d6bd f1f4 5dbd 9e9b f83d
000001e0: afef 123e d46d 5abd ff35 50be a231 87be
000001f0: 01da aebd 3bcf d1bd d98e b83d 251e eabb
00000200: 8aa1 58be 0cf0 bbbd ebd0 f5bd ece0 96be
00000210: 363d 7bbe 493c 75be 0e59 87be 5fc7 94bc
00000220: 8afc 9d3c 8b1a adbe 14db 91bd 10a1 89be
00000230: e45d 05be 8336 b7bd f942 febc abff 0a3e
00000240: 3fd3 60ba 33b1 efbd e04c 3e3e 9f3c cb3d
00000250: 25a3 be3c f772 d83d 5b72 22be 473e 473e
00000260: e163 b3bd b433 273e 9dc6 a93d 4a5f 40bd
00000270: de24 fe3d 03ee 6eba cb21 86bd 9826 4fbe
00000280: 2a88 f9bd 24a6 8d3d ea99 a1be d284 74bd
00000290: 2dd8 84be 525e 2d3c d191 09bd a6c6 2cbe
000002a0: 8f6b 0abe 3ab0 92bd 5d0a c7bc fd9a 10be
000002b0: d51a ae3d 8330 d8bc 84e6 54bd 6ae9 7cbe
000002c0: 12f3 a4be 91fb 8dbe 814b 0abe 814b c2bd
000002d0: dd38 7cbc 1a9c ea3d 4bf8 923c f59b 333e
000002e0: 5d05 67bd d753 203e 1b60 0b3e 2702 c3bd
000002f0: c34c 02be b192 6cbb 4066 dd3d 88f8 b43d
00000300: c6d2 98be bd59 cabd 958d 8c3d 7c55 2bb8
00000310: fd14 abbd 75c2 ddbd 1abf b33d a7e5 87bd
00000320: 7bc1 27be f4f8 3fbe 59b2 a4be c8ff 2bbe
00000330: bab1 4cbe ce68 9c3c 3993 2fbe 1f23 0c3e
00000340: 7f4e 6dbd 7c18 62be 4453 cdbd def8 55be
00000350: 5bed 8fbe cadb f13d b9d2 593d b219 a43d
00000360: 4990 92be 6ece 5c3c 00a6 053d 3de6 c9bd
00000370: 1c93 47be bf8b 873c 8adc 89be 2b09 4cbd
00000380: 5033 48be e500 a5be 8a39 edbb ab69 103d
00000390: f6b6 35bd 9548 18be 200f 6fbe 2837 7e3d
000003a0: 2116 5c3d 046c 76be b6dc 2abd 66b2 b33d
000003b0: aa08 a1be b31d 8ebe e320 4dbe 58b3 73be
000003c0: 8db8 8dbd 8631 45be 7b2e d53c d3bb 033e
000003d0: 1770 49be 56e3 10be 77f2 17be 795d 803d
000003e0: 1678 5bbe 7ba7 a5bc d4f2 4a3d 71c5 07bd
000003f0: a81e 31be 3ba4 963c f314 bcbd d07b 5dbe

encoder.conv1.bias f4 [32]
-0.07732668 0.11675104 -0.12955469 0.011374301 0.015108026 -0.27802792 -0.24524689 0.08927874
-0.16479753 0.15934804 -0.22493093 0.17169021 0.067403845 -0.22420828 -0.20256336 -0.2469454
-0.43425635 -0.10554335 -0.09941594 -0.25502762 -0.1860141 -0.25100327 -0.35118097 0.04314912
0.12708627 0.051899746 -0.34051248 -0.09521797 -0.16495994 -0.14578289 0.11421146 0.05083884
00000000: 735d 9ebd 2b1b ef3d fca9 04be 475b 3a3c
00000010: a787 773c ad59 8ebe 0022 7bbe c6d7 b63d
00000020: afc0 28be 222c 233e 4b54 66be 8fcf 2f3e
00000030: 070b 8a3d db96 65be c56c 4fbe 41df 7cbe
00000040: d956 debe 1d27 d8bd 969a cbbd fb92 82be
00000050: 7b7a 3ebe 8083 80be fecd b3be 22bd 303d
00000060: e722 023e d494 543d a757 aebe a401 c3bd
00000070: 42eb 28be 1c48 15be b3e7 e93d 633c 503d

encoder.conv2.weight f4 [32, 32, 16]
-0.09910735 -0.0498887 -0.08294348 -0.042074792 -0.070109315 0.057502743 -0.0913586 -0.09548565
-0.07275487 -0.07785404 -0.09148795 0.037677787 -0.051432353 -0.02798394 -0.042364456 -0.09279045
-0.09482387 -0.07767509 -0.0191153 -0.024156535 -0.035417426 -0.05095503 0.06553416 0.094686165
-0.02921013 -0.08449698 -0.03987446 -0.09616235 -0.09593693 -0.099969156 -0.07421498 -0.045086905
-0.043485902 -0.032139402 -0.07392467 -0.08623279 -0.07662375 -0.0504784 -0.0649577 -0.02554129
-0.06803944 -0.041686732 -0.0826233 -0.06487617 -0.1089818 -0.07704404 -0.049065955 -0.05840046
-0.050582904 -0.025196696 -0.041870777 -0.08234455 0.033192154 -0.10107113 -0.04827453 -0.063533776
-0.019049807 -0.07395454 0.028765142 -0.034122653 -0.08091072 -0.09564719 -0.058507353 0.027739761
-0.054853085 -0.03634929 -0.074419506 -0.030358458 0.07832994 0.012507734 -0.0752207 0.027142977
-0.028371822 -0.018302456 -0.014835603 -0.0933149 -0.052450467 -0.04505387 -0.0274217 -0.05103819
-0.0461822 -0.031658012 -0.094823234 -0.03161458 0.014765037 -0.042366587 -0.05991577 -0.046907976
-0.061642375 -0.03840443 -0.052156802 -0.07159441 -0.038324386 -0.074371316 -0.04399936 0.034182027
-0.036537167 -0.037708413 -0.046514537 -0.073799506 -0.029404819 -0.093963355 -0.10135325 -0.024731338
-0.019391157 -0.033706434 -0.07931526 -0.06367835 -0.05417689 -0.023428954 -0.10619023 -0.050764572
-0.09655062 -0.09869461 -0.0965645 -0.10984818 0.07602542 -0.095776014 -0.09863734 -0.05846088
-0.026086126 -0.03438997 -0.059393696 -0.047861207 -0.060883574 -0.050832283 -0.06208927 -0.098255046
-0.017760338 -0.039327476 -0.06732949 0.08017133 0.048441805 0.054781634 -0.040180977 -0.09447724
-0.07554014 0.061185364 -0.09474674 -0.10108831 -0.04744572 -0.010801082 0.031439573 -0.00091264345
-0.06585625 -0.04093851 -0.08609499 -0.09042657 -0.056952592 -0.0506222 -0.04983833 -0.09015724
-0.04647265 -0.067080416 -0.092176266 -0.050605405 -0.08985997 -0.0607501 -0.03161547 -0.068987526
0.030159928 0.034854636 -0.06610694 -0.10305801 -0.07844429 -0.044872504 0.01534838 -0.07873627
-0.066110395 -0.06164206 -0.04458347 -0.06624662 0.074398875 -0.058957566 -0.10436112 -0.09584253
-0.06832244 -0.05806772 -0.089034684 -0.09752618 -0.10183028 -0.06012511 -0.027785644 -0.078334756
-0.059871547 -0.096573494 -0.07052784 -0.039943393 -0.062879466 -0.037714336 -0.044141367 -0.072614886
-0.09767784 -0.09984477 -0.051001895 -0.098724894 -0.041232146 -0.033479445 -0.07042102 -0.026229592
-0.08867253 0.0929997 -0.03580436 -0.007506971 -0.0869845 -0.05420616 0.010220794 -0.06466058
-0.07520551 0.05067901 -0.060931668 -0.06906021 -0.038646534 -0.071136296 0.0104835285 0.02163722
-0.08636714 -0.102038555 -0.06545822 -0.07381688 -0.095895275 0.019274486 -0.051623005 -0.08754312
-0.042388763 -0.071563385 -0.04284836 -0.040264204 -0.041772045 0.05496871 -0.044834655 -0.05846322
-0.036556143 -0.0761903 -0.038580094 0.016555415 -0.088708065 -0.09138191 -0.09951465 -0.09937272
-0.04648304 -0.07721233 -0.0811221 0.094197735 0.052586954 0.06899787 -0.08813588 -0.06874727
-0.094972715 0.007065249 -0.05546195 -0.041059323 -0.08440516 -0.073230594 -0.034306 0.035407178
00000000: cbf8 cabd 1858 4cbd 45de a9bd 9e56 2cbd
00000010: 7995 8fbd ff87 6b3d 381a bbbd fb8d c3bd
00000020: 8100 95bd f071 9fbd 095e bbbd 0654 1a3d
00000030: bbaa 52bd 933e e5bc 5a86 2dbd eb08 bebd
00000040: 0433 c2bd 1e14 9fbd b197 9cbc ede3 c5bc
00000050: dd11 11bd 39b6 50bd c636 863d d2ea c13d
00000060: 154a efbc c10c adbd 6753 23bd c4f0 c4bd
00000070: 957a c4bd a1bc ccbd 06fe 97bd 0cad 38bd
00000080: 461e 32bd 9ba4 03bd d165 97bd d19a b0bd
00000090: eaec 9cbd 70c2 4ebd 8b08 85bd f83b d1bc
000000a0: 4358 8bbd b5bf 2abd 6836 a9bd ccdd 84bd
000000b0: da31 dfbd 44c9 9dbd 62f9 48bd 5235 6fbd
000000c0: 0530 4fbd 4d69 cebc b180 2bbd 42a4 a8bd
000000d0: 7ff4 073d 61fe cebd 83bb 45bd ff1d 82bd
000000e0: 570e 9cbc 7a75 97bd e0a4 eb3c 32c4 0bbd
000000f0: 85b4 a5bd ade2 c3bd 68a5 6fbd 7f3e e33c
00000100: a1ad 60bd fee2 14bd 4169 98bd 4db2 f8bc
00000110: 736b a03d 3ded 4c3c 4f0d 9abd f35a de3c
00000120: 066c e8bc 08ef 95bc 0711 73bc e21b bfbd
00000130: 4dd6 56bd 688a 38bd 79a3 e0bc 6c0d 51bd
00000140: 8c29 3dbd d5ab 01bd af32 c2bd 4a7e 01bd
00000150: 0ee9 713c 9688 2dbd 3d6a 75bd 9422 40bd
00000160: b77c 7cbd f74d 1dbd 5fa2 55bd 17a0 92bd
00000170: 08fa 1cbd fd4f 98bd ac38 34bd 7402 0c3d
00000180: ffa7 15bd 2374 1abd 0786 3ebd 3224 97bd
00000190: 60e2 f0bc dc6f c0bd 4b92 cfbd 6099 cabc
000001a0: 34da 9ebc c20f 0abd 0a70 a2bd cb69 82bd
000001b0: 96e8 5dbd 14ee bfbc 437a d9bd 83ee 4fbd
000001c0: 55bc c5bd 6620 cabd 9cc3 c5bd 15f8 e0bd
000001d0: 37b3 9b3d 3726 c4bd 6002 cabd ad74 6fbd
000001e0: 92b2 d5bc 7fdc 0cbd ce46 73bd 1d0a 44bd
000001f0: 0e61 79bd 8335 50bd 5251 7ebd f139 c9bd
00000200: 217e 91bc d915 21bd 0be4 89bd de30 a43d
00000210: ea6a 463d b562 603d cf94 24bd 497d c1bd
00000220: cab4 9abd 819d 7a3d 940a c2bd 6307 cfbd
00000230: 7156 42bd 05f7 30bc c8c6 003d 773e 6fba
00000240: a4df 86bd 24af 27bd 9252 b0bd 9131 b9bd
00000250: 1f47 69bd 3959 4fbd 4723 4cbd 5ca4 b8bd
00000260: 1b5a 3ebd 7561 89bd e9c6 bcbd 9d47 4fbd
00000270: 8108 b8bd 19d5 78bd 397f 01bd 5549 8dbd
00000280: f411 f73c bcc3 0e3d 1363 87bd 1410 d3bd
00000290: 66a7 a0bd 3bcc 37bd c677 7b3c 7b40 a1bd
000002a0: e364 87bd 627c 7cbd 289d 36bd 4fac 87bd
000002b0: 705e 983d 7d7d 71bd 48bb d5bd 1749 c4bd
000002c0: a3ec 8bbd 6bd8 6dbd d157 b6bd cebb c7bd
000002d0: 658c d0bd bf45 76bd b89e e3bc f96d a0bd
000002e0: de3b 75bd 53c8 c5bd e670 90bd af9b 23bd
000002f0: f3c6 80bd 597a 1abd 94cd 34bd 1db7 94bd
00000300: 520b c8bd 6a7b ccbd 5de7 50bd 4730 cabd
00000310: 0ae3 28bd be21 09bd e538 90bd 71df d6bc
00000320: f299 b5bd a076 be3d 98a7 12bd 09fd f5bb
00000330: ee24 b2bd 4707 5ebd 1e75 273c c46c 84bd
00000340: 5905 9abd cb94 4f3d 7c93 79bd 706f 8dbd
00000350: d44b 1ebd e8af 91bd 1bc3 2b3c 8a40 b13c
00000360: 41e1 b0bd 97f9 d0bd f60e 86bd 4e2d 97bd
00000370: be64 c4bd 87e5 9d3c a572 53bd cf49 b3bd
00000380: d79f 2dbd d38f 92bd c381 2fbd 14ec 24bd
00000390: 2a19 2bbd df26 613d 8ba4 37bd 2177 6fbd
000003a0: e5bb 15bd a909 9cbd 2906 1ebd 399f 873c
000003b0: 93ac b5bd 7026 bbbd 56ce cbbd ed83 cbbd
000003c0: 0065 3ebd 8021 9ebd 5823 a6bd beea c03d
000003d0: 6b65 573d c14e 8d3d 9680 b4bd 5ecb 8cbd
000003e0: 0e81 c2bd 9b83 e73b 122c 63bd d22d 28bd
000003f0: 9ddc acbd ecf9 95bd 7384 0cbd 1e07 113d

encoder.conv2.bias f4 [32]
-0.054916143 -0.041381307 -0.043193422 -0.06264586 -0.08643069 0.0020846415 -0.07681068 -0.027289918
-0.016573507 -0.044352658 -0.077400625 0.025933122 -0.0162193 -0.017608128 -0.022949357 -0.08796072
-0.07173026 -0.01982122 -0.01974957 -0.061385 -0.08227746 -0.008921451 -0.053445898 -0.051361274
-0.07812529 -0.09089253 -0.08638497 -0.05889358 -0.060107194 -0.08868852 0.111345485 -0.04426205
00000000: c0ef 60bd 727f 29bd 96eb 30bd 794c 80bd
00000010: 9302 b1bd 7b9e 083b eb4e 9dbd 1b8f dfbc
00000020: 2ac5 87bc 22ab 35bd 3884 9ebd b371 d43c
00000030: 56de 84bc ec3e 90bc 4a00 bcbc c024 b4bd
00000040: 51e7 92bd 1c60 a2bc dac9 a1bc d66e 7bbd
00000050: 1681 a8bd 472b 12bc 16ea 5abd 3360 52bd
00000060: 2700 a0bd dd25 babd 9aea b0bd 653a 71bd
00000070: f632 76bd 54a2 b5bd 1a09 e43d 204c 35bd

encoder.conv3.weight f4 [32, 32, 16]
-0.04373107 -0.10427283 0.036713213 -0.055503573 -0.06694108 -0.08503164 -0.035283178 0.00164977
-0.028624864 0.004626712 -0.016287986 -0.040232435 -0.04545894 0.05108365 -0.09861963 -0.08594325
-0.027551295 -0.018047772 -0.05543053 -0.03402647 -0.015747108 -0.01243516 -0.03974331 0.012846233
-0.05827589 -0.048483156 -0.030348124 -0.06762713 -0.0886903 -0.06040397 0.028514773 -0.032059208
-0.023198623 0.09676201 0.068284534 0.021374136 -0.057186056 -0.038709886 -0.00015271008 -0.009847273
0.010386026 0.010010995 -0.012653752 -0.03931945 -0.05186288 -0.0006400358 0.0045831297 0.044132277
0.093138285 0.04047206 0.019216675 0.067553535 -0.04438011 0.049926765 0.057618383 0.019586684
0.011300589 -0.05879308 2.4782992e-11 0.02475981 0.012846478 0.074055165 0.092781305 -0.08025445
0.073691025 0.049549073 -9.207892e-06 0.024396084 0.046868805 0.022586297 0.00020276185 0.06651319
0.07919685 0.023773007 0.0746367 0.058940656 -0.009742619 0.016497076 -0.06636675 -0.029722817
-0.07629946 -0.07744839 -0.03988757 -0.01777542 -0.070720464 -0.07803582 -0.044135887 -0.050187815
-0.055123735 -0.07734815 -0.04449057 -0.06839172 -0.07981521 -0.07972958 -0.061231777 -0.020566339
-0.04597226 -0.0371554 -0.061879847 -0.06575035 -0.031677466 -0.07057952 -0.078023314 -0.07244291
-0.09852532 -0.016597852 -0.009223315 -0.007470649 -0.011023487 -0.058711935 -0.061258104 -0.033704326
-0.08405597 -0.053614173 -0.07320348 -0.03406584 -0.0874521 -0.064559825 -0.0063289865 -0.044190865
-0.017534412 -0.05472587 -0.07728839 -0.08242491 -0.033390343 -0.08365254 -0.06499055 -0.057993155
-0.10764129 -0.07035833 -0.09439676 -0.01824191 -0.047125347 -0.06558694 -0.037161697 -0.06634251
-0.046643 -0.090099074 -0.032773525 -0.015787773 -0.04358612 -0.054446757 -0.068497166 -0.0269162
-0.054612856 -0.052667633 -0.02156364 -0.011839091 -0.08663546 -0.046957176 -0.062173948 -0.011083701
-0.006716323 -0.10727261 -0.048512135 -0.070145905 -0.076020546 -0.020757621 -0.082800165 -0.02727771
-0.07656144 -0.023736902 -0.025665652 -0.06284261 -0.06572491 -0.044859916 -0.05678013 -0.04680337
-0.091360874 -0.04435945 -0.016724158 -0.013637194 -0.060089637 -0.048647795 -0.062825985 -0.10884272
-0.061019357 -0.087482385 -0.0843174 -0.010250036 -0.07774802 -0.010593078 -0.07863633 -0.014963492
-0.07360102 -0.06795949 -0.0374195 0.012334234 -0.06468909 -0.013762746 -0.10917336 -0.06397184
0.041781235 0.044004697 0.03674333 -0.07463722 0.08742083 0.08524239 -0.069001354 -0.07138066
0.051208623 -0.060988165 -0.049882043 -0.043680094 -0.071584016 0.027149849 -0.053567566 0.04612155
-0.05961571 0.08625233 0.098866425 0.023558205 0.060540233 0.05592827 0.007964597 0.04298117
-0.00040933987 0.0365494 0.02810359 0.06181986 -0.05005776 -0.015686363 0.023851963 0.04405352
-0.051892705 -0.026294518 -0.09883376 -0.08631142 -0.04005449 -0.0010207436 -0.07607305 -0.027487079
-0.08931374 -0.034053035 -0.007777908 -0.10065301 -0.046413504 -0.07016301 -0.036951765 -0.05146081
-0.048609123 -0.044438593 -0.084430374 -0.07724919 -0.021683004 0.010785628 -0.03465465 -0.08894568
-0.062064294 -0.016217723 -0.0101107275 -0.04961564 -0.096925266 -0.04224371 -0.0038989994 -0.0010060141
00000000: 5a1f 33bd fe8c d5bd 9860 163d b757 63bd
00000010: 6818 89bd 1225 aebd 1885 10bd 183d d83a
00000020: b17e eabc ac9b 973b 626e 85bc c4ca 24bd
00000030: 2733 3abd 173d 513d 17f9 c9bd 0403 b0bd
00000040: 41b3 e1bc ecd8 93bc 200b 63bd 575f 0bbd
00000050: 1400 81bc d7bc 4bbc e2c9 22bd 0279 523c
00000060: b3b2 6ebd 4696 46bd a19c f8bc 1880 8abd
00000070: 43a3 b5bd 276a 77bd d097 e93c 8450 03bd
00000080: 0a0b bebc 292b c63d c3d8 8b3d d018 af3c
00000090: ed3b 6abd 428e 1ebd cd20 20b9 7556 21bc
000000a0: 272a 2a3c 2805 243c af51 4fbc 6e0d 21bd
000000b0: 2c6e 54bd 13c8 27ba 142e 963b 0cc4 343d
000000c0: 49bf be3d 08c6 253d 4a6c 9d3c 8259 8a3d
000000d0: ebc7 35bd 0280 4c3d 4101 6c3d 4174 a03c
000000e0: 1b26 393c 03d1 70bd 56fe d92d 16d5 ca3c
000000f0: 097a 523c 3caa 973d 2004 be3d 725c a4bd
00000100: 52eb 963d f8f3 4a3d 987b 1ab7 4cda c73c
00000110: 81f9 3f3d e606 b93c 789c 5439 1138 883d
00000120: f531 a23d 9cbf c23c 20db 983d c26b 713d
00000130: 819f 1fbc e024 873c 4aeb 87bd 447d f3bc
00000140: e442 9cbd 439d 9ebd 2661 23bd c29d 91bc
00000150: e4d5 90bd 3ed1 9fbd d5c7 34bd bd91 4dbd
00000160: 6dc9 61bd b568 9ebd be3b 36bd f510 8cbd
00000170: 2876 a3bd 4349 a3bd 2cce 7abd bd7a a8bc
00000180: 694d 3cbd 4330 18bd b975 7dbd 1fa8 86bd
00000190: 3bc0 01bd ff8b 90bd b0ca 9fbd f35c 94bd
000001a0: a5c7 c9bd 38f8 87bc 631d 17bc 59cc f4bb
000001b0: db9b 34bc ed7b 70bd c7e9 7abd 8c0d 0abd
000001c0: 8925 acbd 899a 5bbd b5eb 95bd 9f88 0bbd
000001d0: 161a b3bd f137 84bd 6363 cfbb 7b01 35bd
000001e0: 54a4 8fbc 3c28 60bd 6049 9ebd 64ce a8bd
000001f0: 50c4 08bd 0652 abbd c419 85bd 3b8a 6dbd
00000200: 0973 dcbd 0718 90bd 1753 c1bd 0f70 95bc
00000210: 8206 41bd 7252 86bd dd36 18bd 95de 87bd
00000220: bb0c 3fbd dd85 b8bd 883d 06bd 5c55 81bc
00000230: 5c87 32bd 9003 5fbd 3e48 8cbd 5d7f dcbc
00000240: bbb1 5fbd 04ba 57bd 3ba6 b0bc bff8 41bc
00000250: ef6d b1bd 2b56 40bd 1caa 7ebd 6998 35bc
00000260: 9a14 dcbb beb1 dbbd a9b4 46bd a8a8 8fbd
00000270: a9b0 9bbd e30b aabc 2293 a9bd 8175 dfbc
00000280: 3fcc 9cbd e473 c2bc c640 d2bc a0b3 80bd
00000290: c89a 86bd 08bf 37bd 4892 68bd e4b4 3fbd
000002a0: 691b bbbd 41b2 35bd 1a01 89bc 8a6e 5fbc
000002b0: 8d20 76bd e942 47bd e9aa 80bd efe8 debd
000002c0: 6fef 79bd f729 b3bd 9aae acbd c4ef 27bc
000002d0: 5b3a 9fbd 978e 2dbc 160c a1bd 6f29 75bc
000002e0: 22bc 96bd 582e 8bbd 3145 19bd 8715 4a3c
000002f0: b77b 84bd 247d 61bc 4896 dfbd ab03 83bd
00000300: cd22 2b3d 453e 343d 2d80 163d 66db 98bd
00000310: b109 b33d 9093 ae3d 9550 8dbd 0630 92bd
00000320: 22c0 513d bace 79bd 1d51 4cbd e6e9 32bd
00000330: a49a 92bd 5c69 de3c aa69 5bbd f3e9 3c3d
00000340: 9a2f 74bd 10a5 b03d 7b7a ca3d 23fd c03c
00000350: 09f9 773d 0b15 653d f17d 023c 060d 303d
00000360: ab9c d6b9 d3b4 153d 8039 e63c d236 7d3d
00000370: 5e09 4dbd b080 80bc 3165 c33c 7771 343d
00000380: 728d 54bd 9a67 d7bc 5b69 cabd 0bc4 b0bd
00000390: 2d10 24bd 79ca 85ba 30cc 9bbd 952c e1bc
000003a0: 1fea b6bd 327b 0bbd d2dd febb 2a23 cebd
000003b0: 161c 3ebd a0b1 8fbd bc5a 17bd 92c8 52bd
000003c0: 5c1a 47bd 3e05 36bd d5e9 acbd d334 9ebd
000003d0: 8ea0 b1bc 34b6 303c 09f2 0dbd 2729 b6bd
000003e0: 2137 7ebd 08db 84bc 77a7 25bc c539 4bbd
000003f0: c180 c6bd be07 2dbd 5b86 7fbb 3bdc 83ba

encoder.conv3.bias f4 [32]
-0.04501607 -0.024443096 -0.078894086 -0.05277637 -0.043009765 -0.04594828 -0.036762554 -0.09473041
-0.03564539 0.009679368 0.0031921293 -0.04117409 -0.035766877 0.01835777 -0.009322002 -0.08423228
-0.047903612 -0.046673387 -0.066094846 -0.09553577 -0.012211461 -0.05079312 -0.020995459 -0.06528993
-0.021026941 -0.04336185 -0.058790684 -0.05002259 -0.02724258 -0.07212838 -0.035126705 -0.024716374
00000000: c562 38bd e33c c8bc 3993 a1bd 092c 58bd
00000010: 022b 30bd 4334 3cbd 5594 16bd 0402 c2bd
00000020: e700 12bd 3696 1e3c 0b33 513b 2aa6 28bd
00000030: 4a80 12bd 0963 963c 4fbb 18bc f981 acbd
00000040: 9436 44bd 982c 3fbd bc5c 87bd 42a8 c3bd
00000050: 9412 48bc 720c 50bd abfe abbc bab6 85bd
00000060: b140 acbc 329c 31bd 80ce 70bd 7de4 4cbd
00000070: d52b dfbc 0bb8 93bd 05e1 0fbd fe79 cabc

encoder.dense1.weight f4 [64, 2400]
-4.5662974e-12 -8.152711e-12 -1.9377606e-10 -4.162781e-12 7.323386e-12 3.1533712e-12 -0.004362514 -0.0044979183
4.238243e-12 8.5959316e-13 -1.3504062e-12 -0.074266724 -0.044265207 -6.1702865e-12 3.3099088e-12 -3.26957e-12
-7.585643e-13 -0.0465743 4.671489e-12 -7.1060646e-10 -5.06252e-12 -3.7377244e-13 1.9001088e-12 -1.1670638e-12
-4.6634544e-13 1.4281107e-12 5.293766e-12 -0.0018140713 -1.0813345e-08 -3.1073566e-12 -7.1809524e-12 -0.053513315
-0.026491549 -3.5499132e-12 5.0120446e-12 -1.5166598e-12 -0.0034932888 6.3400296e-12 -2.981981e-12 1.3474101e-12
3.4917028e-12 -2.186561e-07 1.7968617e-12 -0.008007188 1.8970088e-12 -0.057258036 -0.0499856 5.2157354e-12
-0.0018403182 -8.752992e-12 -8.9395115e-12 -0.053633682 8.75902e-12 3.3155679e-12 -3.991937e-13 -0.04745171
2.2618788e-12 0.056879375 -0.027009662 5.7495497e-12 -3.6316549e-12 4.018855e-12 -6.36026e-14 -0.07253907
4.7300336e-13 -0.0037031893 -0.0503466 3.4490382e-13 2.3770426e-12 4.2724986e-12 3.0419174e-12 1.1082615e-12
-0.00024948004 9.432536e-12 -3.832917e-12 -0.075659744 -0.07524152 -0.07483118 -0.06350206 -0.054544806
0.06546547 -0.07911216 -0.04873965 -0.039841738 -0.052412864 0.051391967 -0.04894272 -0.045270097
-0.07902781 0.073672965 -0.055079307 -0.06753208 -0.047985315 0.05502949 -0.069967 0.05674587
-0.06553141 -0.05206301 -0.05885503 -0.07550469 0.06427305 0.050599597 -0.064975224 -0.056587804
0.047952384 -0.07283087 -0.051740028 0.047289778 -0.041827198 -0.076890506 0.06566619 -0.044815198
-0.06254628 -0.052615058 -0.053715788 0.068262786 -0.06940266 -0.057412412 -0.04229391 0.08012963
-0.055764835 0.05123171 -0.07913007 -0.0528968 -0.07747021 -0.03961098 0.0724484 0.07565789
0.039689153 0.07616742 0.04936617 -0.07830522 -0.06009163 -0.062009573 0.049387414 -0.072769515
-0.07110099 -0.061874855 0.049990356 0.06371332 0.07162336 0.077299826 -0.04432508 -0.07527007
0.06143898 -0.07799981 0.07519961 -0.039717898 -0.045365807 -0.04755645 -0.048732568 0.0769998
-0.0553578 -0.0706004 -0.07918062 -0.0733427 0.040586676 0.044125818 0.044394743 -0.068767786
0.061384663 0.079862945 0.061746914 0.066073775 -0.057447214 -0.06872571 -0.060497247 -0.06807625
0.066257045 -0.07419772 0.07868908 0.04388509 -0.070468426 -0.07956756 -0.07851891 0.047110375
-0.07498394 -0.06634137 0.07769167 -0.041796133 -0.047339723 0.050615232 -0.055381358 -0.077333935
-0.06597856 -0.05878227 0.054908905 -0.07619859 -0.044762563 -0.077379115 -0.052948013 -0.05246225
-0.07092921 -0.061847817 -0.055585705 0.073139645 0.054972813 0.048717644 -0.062397953 -0.07932537
-0.046083096 -0.07610687 -0.055723682 0.053241324 0.07756412 -0.047027666 0.05795885 -0.04981391
0.039552413 -0.06829023 -0.065473676 -0.05363475 -0.062865265 -0.062008444 0.07266469 0.041905925
0.0720051 0.05304699 0.045865115 0.060996775 0.057336118 -0.072324395 -0.054354224 -0.047292788
-0.07957018 0.041956175 -0.056012116 -0.07301917 -0.07226507 0.054887604 0.06435819 -0.054180108
-0.06876263 -0.07726059 -0.0689176 0.06819486 -0.06240056 -0.054665904 0.06982616 0.056841373
0.06554651 -0.067799 -0.07786036 0.06666543 0.042573288 -0.045553334 -0.065921485 -0.045463853
-0.0770564 -0.07956912 -0.0634113 -0.070039615 -0.061210126 -0.056486964 -0.06040466 -0.04260823
00000000: 8da9 a0ac 8c6c 0fad 1d0f 55af ff76 92ac
00000010: 99d5 002d 16e6 5d2c 6bf3 8ebb 4663 93bb
00000020: b31e 952c 37f4 712b 830d beab 2719 98bd
00000030: 6f4f 35bd 0019 d9ac 04ea 682c 5613 66ac
00000040: 5284 55ab b1c4 3ebd 085d a42c 7c54 43b0
00000050: 201f b2ac 496a d2aa 51b5 052c e83f a4ab
00000060: bb43 03ab 1cfd c82b 0142 ba2c 22c6 edba
00000070: 98c5 39b2 29a9 5aac 45a8 fcac c730 5bbd
00000080: ce04 d9bc 8dcd 79ac 7c58 b02c 6e73 d5ab
00000090: a9ef 64bb e911 df2c 98d6 51ac 91a1 bd2b
000000a0: edb4 752c bbc7 6ab4 c4e2 fc2b 9530 03bc
000000b0: 797d 052c 6787 6abd b3bd 4cbd 2b83 b72c
000000c0: d536 f1ba f9fb 19ad fb43 1dad feae 5bbd
000000d0: 1f17 1a2d f64f 692c e0b9 e0aa b95c 42bd
000000e0: 632a 1f2c 59fa 683d 5e43 ddbc 574b ca2c
000000f0: 148e 7fac a166 8d2c 6738 8fa9 5d8f 94bd
00000100: 7c23 052b 35b1 72bb 3d38 4ebd e129 c22a
00000110: fe44 272c 3f53 962c 500e 562c 54f9 9b2b
00000120: a5cc 82b9 5ef0 252d d9db 86ac 7ff3 9abd
00000130: 3a18 9abd 1741 99bd 5e0d 82bd 606a 5fbd
00000140: c312 863d 8e05 a2bd 3aa3 47bd 1731 23bd
00000150: dfae 56bd 6280 523d 2978 48bd 236d 39bd
00000160: 55d9 a1bd dae1 963d d79a 61bd 424e 8abd
00000170: 408c 44bd 9a66 613d dc4a 8fbd 5b6e 683d
00000180: 5535 86bd 0640 55bd f911 71bd 34a2 9abd
00000190: 97a1 833d 8641 4f3d bb11 85bd 9dc8 67bd
000001a0: b869 443d 5a28 95bd 5aed 53bd edb2 413d
000001b0: ff52 2bbd c578 9dbd ff7b 863d 2490 37bd
000001c0: 4418 80bd e382 57bd 1605 5cbd 5ccd 8b3d
000001d0: fb22 8ebd 4729 6bbd 613c 2dbd 011b a43d
000001e0: ab69 64bd 57d8 513d f20e a2bd 51aa 58bd
000001f0: b4a8 9ebd 1f3f 22bd d45f 943d 86f2 9a3d
00000200: 1891 223d aafd 9b3d 2e34 4a3d 7d5e a0bd
00000210: a422 76bd c0fd 7dbd 754a 4a3d 2f08 95bd
00000220: 659d 91bd 7d70 7dbd b0c2 4c3d 217c 823d
00000230: 45af 923d 5f4f 9e3d 378e 35bd 3227 9abd
00000240: 71a7 7b3d 5dbe 9fbd 4102 9a3d 3caf 22bd
00000250: 7fd1 39bd 8dca 42bd cd9b 47bd 12b2 9d3d
00000260: dcbe 62bd f196 90bd 7329 a2bd b334 96bd
00000270: 373e 263d 46bd 343d 43d7 353d 20d6 8cbd
00000280: 7c6e 7b3d 2f8f a33d 55ea 7c3d b051 873d
00000290: c54d 6bbd 11c0 8cbd f6cb 77bd 906b 8bbd
000002a0: c6b1 873d f9f4 97bd be27 a13d dac0 333d
000002b0: c051 90bd 51f4 a2bd 86ce a0bd cff6 403d
000002c0: 2e91 99bd fcdd 87bd cf1c 9f3d 6c32 2bbd
000002d0: 4ce7 41bd eb51 4f3d 90d7 62bd 4161 9ebd
000002e0: c41f 87bd adc5 70bd 29e8 603d 020e 9cbd
000002f0: f358 37bd f178 9ebd 04e0 58bd a8e2 56bd
00000300: 5543 91bd 2354 7dbd d6ad 63bd 3dca 953d
00000310: 2c2b 613d 278c 473d ff94 7fbd 5775 a2bd
00000320: a1c1 3cbd ebdd 9bbd 843e 64bd 9313 5a3d
00000330: f0d9 9e3d 15a0 40bd 4266 6d3d ac09 4cbd
00000340: b601 223d c0db 8bbd 1017 86bd 1db0 5bbd
00000350: 81bf 80bd 91fc 7dbd 3ad1 943d 8ca5 2b3d
00000360: 6977 933d cd47 593d 0fdd 3b3d c1d7 793d
00000370: 47d9 6a3d d01e 94bd 89a2 5ebd 15b6 41bd
00000380: b1f5 a2bd 3dda 2b3d f66c 65bd 138b 95bd
00000390: b6ff 93bd d3d1 603d 3ace 833d f6eb 5dbd
000003a0: 6cd3 8cbd cd3a 9ebd ac24 8dbd bfa9 8b3d
000003b0: bb97 7fbd 5be9 5fbd 0501 8f3d 80d2 683d
000003c0: 403d 863d 34da 8abd 4175 9fbd e387 883d
000003d0: 5461 2e3d 2296 3abd d801 87bd 4e38 3abd
000003e0: bfcf 9dbd 23f5 a2bd c9dd 81bd ee70 8fbd
000003f0: 78b7 7abd e05e 67bd e06a 77bd f885 2ebd

encoder.dense1.bias f4 [64]
-0.056644056 0.45226517 -0.06418643 -0.07787595 -0.05775768 -0.13249493 0.30780753 0.4796212
0.21917886 -0.06623329 0.12701422 -0.04824692 0.10090618 0.67105854 0.10186795 0.0018615598
0.04533098 0.14665264 0.32656133 0.34004948 -0.13059509 0.10843918 0.32618928 0.26041934
0.117134474 0.038140673 -0.035298396 -0.13616216 -0.07300548 0.08484737 -0.04925119 -0.11949521
-0.12594622 0.3743072 -0.040191617 0.6440797 0.19779937 -0.06253386 -0.05129046 -0.11267753
0.05566554 0.034105293 0.43104976 -0.067319445 -0.02338111 -0.044537157 0.10407945 -0.07041181
-0.10176278 0.50962454 0.09862337 0.24541557 0.44875076 0.24922548 0.41890588 0.13825412
0.5856849 -0.07100158 -0.054254223 -0.07088873 -0.07740435 -0.07718749 -0.10093307 -0.071304105
00000000: 9903 68bd 4d8f e73e 2d74 83bd 6d7d 9fbd
00000010: 5193 6cbd c0ac 07be f398 9d3e e990 f53e
00000020: 6c70 603e 52a5 87bd 0410 023e 909e 45bd
00000030: e6a7 ce3d 7eca 2b3f 25a0 d03d 95ff f33a
00000040: faac 393d 1c2c 163e 0c33 a73e f71a ae3e
00000050: b8ba 05be 5c15 de3d 4802 a73e af55 853e
00000060: 33e4 ef3d 6539 1c3d 0d95 10bd 186e 0bbe
00000070: e683 95bd 75c4 ad3d 9ebb 49bd e8b9 f4bd
00000080: 0cf8 00be 31a5 bf3e f79f 24bd 68e2 243f
00000090: eb8b 4a3e c111 80bd f215 52bd 7ac3 e6bd
000000a0: 8d01 643d feb1 0b3d 8eb2 dc3e c7de 89bd
000000b0: be89 bfbc 986c 36bd 9b27 d53d 1134 90bd
000000c0: 0169 d0bd c176 023f 0dfb c93d 384e 7b3e
000000d0: a9c2 e53e f734 7f3e d57a d63e 7d92 0d3e
000000e0: 72ef 153f 4769 91bd ad39 5ebd 1c2e 91bd
000000f0: 2c86 9ebd 7a14 9ebd ffb5 cebd e307 92bd

encoder.encoder1.0.weight f4 [32, 1, 16]
-0.17544095 0.02977836 -0.005625367 -0.035421554 -0.2532106 0.1089599 -0.15485421 -0.11225191
0.038800962 -0.18870671 -0.13818683 0.011998839 -0.123444974 0.04546413 -0.06604987 -0.17458238
0.01050555 -0.26040715 -0.21681786 0.028067758 -0.23688605 -0.02560663 0.107908644 0.15363513
0.01799416 -0.14991115 -0.25043365 -0.18616644 0.053239226 -0.06479966 -0.06735845 0.06885575
-0.2572747 0.033659738 0.105271555 0.06875277 -0.16559537 -0.21928221 0.14217153 0.13801911
-0.020970834 -0.07569458 0.17298356 -0.11034539 0.030377617 0.0019735794 0.08020863 0.01728765
-0.28303212 0.10123992 -0.17841911 0.14377414 -0.14828405 0.016768841 0.057123903 -0.30766475
0.13272126 -0.16247624 -0.1132567 -0.15892799 0.0855285 -0.054056123 0.12373196 -0.113784626
-0.23658341 -0.2929117 0.043979675 0.065343164 -0.13337472 -0.12019626 0.13905725 -0.23679812
0.108957276 0.06551404 -0.13281322 0.08712107 -0.18255167 -0.19563034 -0.20585072 -0.124879144
-0.17622888 -0.18201146 0.0413587 0.15544651 -0.21794917 -0.28993356 0.12787382 0.016858935
-0.17862721 -0.068863325 -0.05434033 0.077867 -0.19958983 -0.13419577 0.16005385 -0.2530469
0.05588357 0.003627773 -0.2492232 -0.13334863 -0.2891064 0.10911203 0.12435629 0.13135903
-0.20938362 0.11201346 -0.1299253 -0.0054062386 -0.25608027 -0.057791498 0.114069074 0.094675094
0.047009345 -0.23959643 -0.24199127 -0.0069458615 0.16185479 -0.104667164 -0.054188672 0.121390566
0.14349245 -0.053327397 -0.20333098 -0.26405054 -0.08537675 -0.10244604 0.09011621 -0.007144707
-0.21155372 -0.09176645 -0.120027386 -0.29468477 -0.24535069 -0.23948778 -0.2643513 -0.018161474
0.01928546 -0.33809313 -0.07121864 -0.26880693 -0.13024098 -0.08945944 -0.031037794 0.13574092
-0.00085764 -0.1170372 0.18584013 0.09923672 0.023271153 0.10568803 -0.15863936 0.1945735
-0.08759285 0.16328317 0.082898356 -0.046965875 0.124093756 -0.0009114446 -0.06549414 -0.20229566
-0.12184174 0.069164544 -0.3156274 -0.05969698 -0.2594618 0.01058157 -0.033586327 -0.16872653
-0.13517593 -0.07162519 -0.024296934 -0.14121623 0.085012116 -0.02639032 -0.05197765 -0.24698415
-0.32216698 -0.27730992 -0.13505365 -0.094870575 -0.015394417 0.11455555 0.017940661 0.17539962
-0.0564016 0.15656982 0.1361088 -0.09521895 -0.12724595 -0.0036098177 0.10810518 0.08836466
-0.29848307 -0.098803975 0.06862942 -4.084919e-05 -0.083536126 -0.10828105 0.08776684 -0.066355996
-0.163824 -0.18747312 -0.32167318 -0.16796792 -0.19989672 0.019092944 -0.17146005 0.13685273
-0.057936188 -0.22079653 -0.10025647 -0.20895717 -0.28110775 0.118094996 0.053179476 0.080127135
-0.28625706 0.013476951 0.032629013 -0.098583676 -0.19489712 0.016546128 -0.2692607 -0.04981343
-0.19550824 -0.32227245 -0.007239525 0.035257023 -0.04436394 -0.14871438 -0.23345613 0.06206432
0.05373204 -0.24064642 -0.041714393 0.08774261 -0.31451923 -0.27757034 -0.20032077 -0.23798883
-0.06919966 -0.19257173 0.02602314 0.12864618 -0.19671665 -0.14149222 -0.14838587 0.062678285
-0.21432528 -0.020221462 0.049547985 -0.03314728 -0.1729685 0.018388858 -0.09183683 -0.21629262
00000000: cba6 33be bff1 f33c 0055 b8bb 3116 11bd
00000010: d2a4 81be 5e26 df3d 1a92 1ebe 54e4 e5bd
00000020: c2ed 1e3d 553c 41be d980 0dbe c796 443c
00000030: b8d0 fcbd 9838 3a3d 2745 87bd b9c5 32be
00000040: 781f 2c3c 1654 85be 8005 5ebe 5bee e53c
00000050: 4292 72be ffc4 d1bc 35ff dc3d 8752 1d3e
00000060: 7d68 933c 4f82 19be d738 80be 6aa2 3ebe
00000070: 6011 5a3d afb5 84bd 3af3 89bd 3e04 8d3d
00000080: 82b9 83be cbde 093d 9d98 d73d 41ce 8c3d
00000090: d591 29be 848b 60be 6a95 113e e254 0d3e
000000a0: 07cb abbc c305 9bbd 9a22 313e c4fc e1bd
000000b0: 7bda f83c 2b57 013b 6c44 a43d d49e 8d3c
000000c0: 96e9 90be e056 cf3d 80b3 36be 8739 133e
000000d0: c6d7 17be cf5e 893c c1fa 693d 3c86 9dbe
000000e0: 15e8 073e 2c60 26be 21f3 e7bd 05be 22be
000000f0: 9129 af3d f469 5dbd 2f67 fd3d ea07 e9bd
00000100: ec42 72be 86f8 95be 0824 343d a3d2 853d
00000110: 6293 08be 7529 f6bd 0665 0e3e 357b 72be
00000120: fe24 df3d 3a2c 863d 3000 08be 886c b23d
00000130: d3ee 3abe 5253 48be 88ca 52be a3c0 ffbd
00000140: 5875 34be 3661 3abe bd67 293d 5f2d 1f3e
00000150: 112e 5fbe 2c72 94be 5bf1 023e c01b 8a3c
00000160: 0dea 36be 3708 8dbd f793 5ebd bc78 9f3d
00000170: 4761 4cbe 9e6a 09be 28e5 233e 5d8f 81be
00000180: 2ce6 643d eebf 6d3b 5e34 7fbe 8b8c 08be
00000190: c105 94be 2176 df3d 83ae fe3d fb82 063e
000001a0: a968 56be 5067 e53d 230b 05be d126 b1bb
000001b0: f41c 83be c7b6 6cbd 0c9d e93d 04e5 c13d
000001c0: df8c 403d c458 75be 8fcc 77be 1c9a e3bb
000001d0: 43bd 253e bd5b d6bd f1f4 5dbd 9e9b f83d
000001e0: afef 123e d46d 5abd ff35 50be a231 87be
000001f0: 01da aebd 3bcf d1bd d98e b83d 251e eabb
00000200: 8aa1 58be 0cf0 bbbd ebd0 f5bd ece0 96be
00000210: 363d 7bbe 493c 75be 0e59 87be 5fc7 94bc
00000220: 8afc 9d3c 8b1a adbe 14db 91bd 10a1 89be
00000230: e45d 05be 8336 b7bd f942 febc abff 0a3e
00000240: 3fd3 60ba 33b1 efbd e04c 3e3e 9f3c cb3d
00000250: 25a3 be3c f772 d83d 5b72 22be 473e 473e
00000260: e163 b3bd b433 273e 9dc6 a93d 4a5f 40bd
00000270: de24 fe3d 03ee 6eba cb21 86bd 9826 4fbe
00000280: 2a88 f9bd 24a6 8d3d ea99 a1be d284 74bd
00000290: 2dd8 84be 525e 2d3c d191 09bd a6c6 2cbe
000002a0: 8f6b 0abe 3ab0 92bd 5d0a c7bc fd9a 10be
000002b0: d51a ae3d 8330 d8bc 84e6 54bd 6ae9 7cbe
000002c0: 12f3 a4be 91fb 8dbe 814b 0abe 814b c2bd
000002d0: dd38 7cbc 1a9c ea3d 4bf8 923c f59b 333e
000002e0: 5d05 67bd d753 203e 1b60 0b3e 2702 c3bd
000002f0: c34c 02be b192 6cbb 4066 dd3d 88f8 b43d
00000300: c6d2 98be bd59 cabd 958d 8c3d 7c55 2bb8
00000310: fd14 abbd 75c2 ddbd 1abf b33d a7e5 87bd
00000320: 7bc1 27be f4f8 3fbe 59b2 a4be c8ff 2bbe
00000330: bab1 4cbe ce68 9c3c 3993 2fbe 1f23 0c3e
00000340: 7f4e 6dbd 7c18 62be 4453 cdbd def8 55be
00000350: 5bed 8fbe cadb f13d b9d2 593d b219 a43d
00000360: 4990 92be 6ece 5c3c 00a6 053d 3de6 c9bd
00000370: 1c93 47be bf8b 873c 8adc 89be 2b09 4cbd
00000380: 5033 48be e500 a5be 8a39 edbb ab69 103d
00000390: f6b6 35bd 9548 18be 200f 6fbe 2837 7e3d
000003a0: 2116 5c3d 046c 76be b6dc 2abd 66b2 b33d
000003b0: aa08 a1be b31d 8ebe e320 4dbe 58b3 73be
000003c0: 8db8 8dbd 8631 45be 7b2e d53c d3bb 033e
000003d0: 1770 49be 56e3 10be 77f2 17be 795d 803d
000003e0: 1678 5bbe 7ba7 a5bc d4f2 4a3d 71c5 07bd
000003f0: a81e 31be 3ba4 963c f314 bcbd d07b 5dbe

encoder.encoder1.0.bias f4 [32]
-0.07732668 0.11675104 -0.12955469 0.011374301 0.015108026 -0.27802792 -0.24524689 0.08927874
-0.16479753 0.15934804 -0.22493093 0.17169021 0.067403845 -0.22420828 -0.20256336 -0.2469454
-0.43425635 -0.10554335 -0.09941594 -0.25502762 -0.1860141 -0.25100327 -0.35118097 0.04314912
0.12708627 0.051899746 -0.34051248 -0.09521797 -0.16495994 -0.14578289 0.11421146 0.05083884
00000000: 735d 9ebd 2b1b ef3d fca9 04be 475b 3a3c
00000010: a787 773c ad59 8ebe 0022 7bbe c6d7 b63d
00000020: afc0 28be 222c 233e 4b54 66be 8fcf 2f3e
00000030: 070b 8a3d db96 65be c56c 4fbe 41df 7cbe
00000040: d956 debe 1d27 d8bd 969a cbbd fb92 82be
00000050: 7b7a 3ebe 8083 80be fecd b3be 22bd 303d
00000060: e722 023e d494 543d a757 aebe a401 c3bd
00000070: 42eb 28be 1c48 15be b3e7 e93d 633c 503d

encoder.encoder1.2.weight f4 [32, 32, 16]
-0.09910735 -0.0498887 -0.08294348 -0.042074792 -0.070109315 0.057502743 -0.0913586 -0.09548565
-0.07275487 -0.07785404 -0.09148795 0.037677787 -0.051432353 -0.02798394 -0.042364456 -0.09279045
-0.09482387 -0.07767509 -0.0191153 -0.024156535 -0.035417426 -0.05095503 0.06553416 0.094686165
-0.02921013 -0.08449698 -0.03987446 -0.09616235 -0.09593693 -0.099969156 -0.07421498 -0.045086905
-0.043485902 -0.032139402 -0.07392467 -0.08623279 -0.07662375 -0.0504784 -0.0649577 -0.02554129
-0.06803944 -0.041686732 -0.0826233 -0.06487617 -0.1089818 -0.07704404 -0.049065955 -0.05840046
-0.050582904 -0.025196696 -0.041870777 -0.08234455 0.033192154 -0.10107113 -0.04827453 -0.063533776
-0.019049807 -0.07395454 0.028765142 -0.034122653 -0.08091072 -0.09564719 -0.058507353 0.027739761
-0.054853085 -0.03634929 -0.074419506 -0.030358458 0.07832994 0.012507734 -0.0752207 0.027142977
-0.028371822 -0.018302456 -0.014835603 -0.0933149 -0.052450467 -0.04505387 -0.0274217 -0.05103819
-0.0461822 -0.031658012 -0.094823234 -0.03161458 0.014765037 -0.042366587 -0.05991577 -0.046907976
-0.061642375 -0.03840443 -0.052156802 -0.07159441 -0.038324386 -0.074371316 -0.04399936 0.034182027
-0.036537167 -0.037708413 -0.046514537 -0.073799506 -0.029404819 -0.093963355 -0.10135325 -0.024731338
-0.019391157 -0.033706434 -0.07931526 -0.06367835 -0.05417689 -0.023428954 -0.10619023 -0.050764572
-0.09655062 -0.09869461 -0.0965645 -0.10984818 0.07602542 -0.095776014 -0.09863734 -0.05846088
-0.026086126 -0.03438997 -0.059393696 -0.047861207 -0.060883574 -0.050832283 -0.06208927 -0.098255046
-0.017760338 -0.039327476 -0.06732949 0.08017133 0.048441805 0.054781634 -0.040180977 -0.09447724
-0.07554014 0.061185364 -0.09474674 -0.10108831 -0.04744572 -0.010801082 0.031439573 -0.00091264345
-0.06585625 -0.04093851 -0.08609499 -0.09042657 -0.056952592 -0.0506222 -0.04983833 -0.09015724
-0.04647265 -0.067080416 -0.092176266 -0.050605405 -0.08985997 -0.0607501 -0.03161547 -0.068987526
0.030159928 0.034854636 -0.06610694 -0.10305801 -0.07844429 -0.044872504 0.01534838 -0.07873627
-0.066110395 -0.06164206 -0.04458347 -0.06624662 0.074398875 -0.058957566 -0.10436112 -0.09584253
-0.06832244 -0.05806772 -0.089034684 -0.09752618 -0.10183028 -0.06012511 -0.027785644 -0.078334756
-0.059871547 -0.096573494 -0.07052784 -0.039943393 -0.062879466 -0.037714336 -0.044141367 -0.072614886
-0.09767784 -0.09984477 -0.051001895 -0.098724894 -0.041232146 -0.033479445 -0.07042102 -0.026229592
-0.08867253 0.0929997 -0.03580436 -0.007506971 -0.0869845 -0.05420616 0.010220794 -0.06466058
-0.07520551 0.05067901 -0.060931668 -0.06906021 -0.038646534 -0.071136296 0.0104835285 0.02163722
-0.08636714 -0.102038555 -0.06545822 -0.07381688 -0.095895275 0.019274486 -0.051623005 -0.08754312
-0.042388763 -0.071563385 -0.04284836 -0.040264204 -0.041772045 0.05496871 -0.044834655 -0.05846322
-0.036556143 -0.0761903 -0.038580094 0.016555415 -0.088708065 -0.09138191 -0.09951465 -0.09937272
-0.04648304 -0.07721233 -0.0811221 0.094197735 0.052586954 0.06899787 -0.08813588 -0.06874727
-0.094972715 0.007065249 -0.05546195 -0.041059323 -0.08440516 -0.073230594 -0.034306 0.035407178
00000000: cbf8 cabd 1858 4cbd 45de a9bd 9e56 2cbd
00000010: 7995 8fbd ff87 6b3d 381a bbbd fb8d c3bd
00000020: 8100 95bd f071 9fbd 095e bbbd 0654 1a3d
00000030: bbaa 52bd 933e e5bc 5a86 2dbd eb08 bebd
00000040: 0433 c2bd 1e14 9fbd b197 9cbc ede3 c5bc
00000050: dd11 11bd 39b6 50bd c636 863d d2ea c13d
00000060: 154a efbc c10c adbd 6753 23bd c4f0 c4bd
00000070: 957a c4bd a1bc ccbd 06fe 97bd 0cad 38bd
00000080: 461e 32bd 9ba4 03bd d165 97bd d19a b0bd
00000090: eaec 9cbd 70c2 4ebd 8b08 85bd f83b d1bc
000000a0: 4358 8bbd b5bf 2abd 6836 a9bd ccdd 84bd
000000b0: da31 dfbd 44c9 9dbd 62f9 48bd 5235 6fbd
000000c0: 0530 4fbd 4d69 cebc b180 2bbd 42a4 a8bd
000000d0: 7ff4 073d 61fe cebd 83bb 45bd ff1d 82bd
000000e0: 570e 9cbc 7a75 97bd e0a4 eb3c 32c4 0bbd
000000f0: 85b4 a5bd ade2 c3bd 68a5 6fbd 7f3e e33c
00000100: a1ad 60bd fee2 14bd 4169 98bd 4db2 f8bc
00000110: 736b a03d 3ded 4c3c 4f0d 9abd f35a de3c
00000120: 066c e8bc 08ef 95bc 0711 73bc e21b bfbd
00000130: 4dd6 56bd 688a 38bd 79a3 e0bc 6c0d 51bd
00000140: 8c29 3dbd d5ab 01bd af32 c2bd 4a7e 01bd
00000150: 0ee9 713c 9688 2dbd 3d6a 75bd 9422 40bd
00000160: b77c 7cbd f74d 1dbd 5fa2 55bd 17a0 92bd
00000170: 08fa 1cbd fd4f 98bd ac38 34bd 7402 0c3d
00000180: ffa7 15bd 2374 1abd 0786 3ebd 3224 97bd
00000190: 60e2 f0bc dc6f c0bd 4b92 cfbd 6099 cabc
000001a0: 34da 9ebc c20f 0abd 0a70 a2bd cb69 82bd
000001b0: 96e8 5dbd 14ee bfbc 437a d9bd 83ee 4fbd
000001c0: 55bc c5bd 6620 cabd 9cc3 c5bd 15f8 e0bd
000001d0: 37b3 9b3d 3726 c4bd 6002 cabd ad74 6fbd
000001e0: 92b2 d5bc 7fdc 0cbd ce46 73bd 1d0a 44bd
000001f0: 0e61 79bd 8335 50bd 5251 7ebd f139 c9bd
00000200: 217e 91bc d915 21bd 0be4 89bd de30 a43d
00000210: ea6a 463d b562 603d cf94 24bd 497d c1bd
00000220: cab4 9abd 819d 7a3d 940a c2bd 6307 cfbd
00000230: 7156 42bd 05f7 30bc c8c6 003d 773e 6fba
00000240: a4df 86bd 24af 27bd 9252 b0bd 9131 b9bd
00000250: 1f47 69bd 3959 4fbd 4723 4cbd 5ca4 b8bd
00000260: 1b5a 3ebd 7561 89bd e9c6 bcbd 9d47 4fbd
00000270: 8108 b8bd 19d5 78bd 397f 01bd 5549 8dbd
00000280: f411 f73c bcc3 0e3d 1363 87bd 1410 d3bd
00000290: 66a7 a0bd 3bcc 37bd c677 7b3c 7b40 a1bd
000002a0: e364 87bd 627c 7cbd 289d 36bd 4fac 87bd
000002b0: 705e 983d 7d7d 71bd 48bb d5bd 1749 c4bd
000002c0: a3ec 8bbd 6bd8 6dbd d157 b6bd cebb c7bd
000002d0: 658c d0bd bf45 76bd b89e e3bc f96d a0bd
000002e0: de3b 75bd 53c8 c5bd e670 90bd af9b 23bd
000002f0: f3c6 80bd 597a 1abd 94cd 34bd 1db7 94bd
00000300: 520b c8bd 6a7b ccbd 5de7 50bd 4730 cabd
00000310: 0ae3 28bd be21 09bd e538 90bd 71df d6bc
00000320: f299 b5bd a076 be3d 98a7 12bd 09fd f5bb
00000330: ee24 b2bd 4707 5ebd 1e75 273c c46c 84bd
00000340: 5905 9abd cb94 4f3d 7c93 79bd 706f 8dbd
00000350: d44b 1ebd e8af 91bd 1bc3 2b3c 8a40 b13c
00000360: 41e1 b0bd 97f9 d0bd f60e 86bd 4e2d 97bd
00000370: be64 c4bd 87e5 9d3c a572 53bd cf49 b3bd
00000380: d79f 2dbd d38f 92bd c381 2fbd 14ec 24bd
00000390: 2a19 2bbd df26 613d 8ba4 37bd 2177 6fbd
000003a0: e5bb 15bd a909 9cbd 2906 1ebd 399f 873c
000003b0: 93ac b5bd 7026 bbbd 56ce cbbd ed83 cbbd
000003c0: 0065 3ebd 8021 9ebd 5823 a6bd beea c03d
000003d0: 6b65 573d c14e 8d3d 9680 b4bd 5ecb 8cbd
000003e0: 0e81 c2bd 9b83 e73b 122c 63bd d22d 28bd
000003f0: 9ddc acbd ecf9 95bd 7384 0cbd 1e07 113d

encoder.encoder1.2.bias f4 [32]
-0.054916143 -0.041381307 -0.043193422 -0.06264586 -0.08643069 0.0020846415 -0.07681068 -0.027289918
-0.016573507 -0.044352658 -0.077400625 0.025933122 -0.0162193 -0.017608128 -0.022949357 -0.08796072
-0.07173026 -0.01982122 -0.01974957 -0.061385 -0.08227746 -0.008921451 -0.053445898 -0.051361274
-0.07812529 -0.09089253 -0.08638497 -0.05889358 -0.060107194 -0.08868852 0.111345485 -0.04426205
00000000: c0ef 60bd 727f 29bd 96eb 30bd 794c 80bd
00000010: 9302 b1bd 7b9e 083b eb4e 9dbd 1b8f dfbc
00000020: 2ac5 87bc 22ab 35bd 3884 9ebd b371 d43c
00000030: 56de 84bc ec3e 90bc 4a00 bcbc c024 b4bd
00000040: 51e7 92bd 1c60 a2bc dac9 a1bc d66e 7bbd
00000050: 1681 a8bd 472b 12bc 16ea 5abd 3360 52bd
00000060: 2700 a0bd dd25 babd 9aea b0bd 653a 71bd
00000070: f632 76bd 54a2 b5bd 1a09 e43d 204c 35bd
